FirstModel.pth (torch, 567202 bytes, 22 tensors)

feature_extract.0.weight f4 [32, 3, 5, 5]
000000 83 30 0f 3e 9e e8 0d 3e b3 1f 14 3e fe 03 2a 3d
       0.1398335 0.13858268 0.14465217 0.041507713
000010 0f d6 95 3d 8a 68 62 bd 75 6e 13 be 89 6c 65 be
       0.07316219 -0.055275477 -0.14397605 -0.22404684
000020 32 1f 25 be c4 70 e9 3d 82 29 ed bd e4 09 13 be
       -0.16125181 0.113984615 -0.115801826 -0.14359242
000030 9e 27 47 be 3b f9 af bd f2 eb 30 3b 62 c2 e9 bc
       -0.19448707 -0.08592459 0.0026996103 -0.028535072
000040 e1 de 44 bd 7a 65 f1 3d 5f 22 da 3c 13 fc 5e bd
       -0.048064116 0.11786933 0.026627718 -0.054439615
000050 2e 92 18 bd 85 e1 85 3d ed 7c 49 3e 6d 12 0f 3e
       -0.037248783 0.06537155 0.19676562 0.13971873
000060 ad c1 f2 3d 18 fd 93 3d d3 70 fa 3c 0f 97 27 3e
       0.11853347 0.07226008 0.030571377 0.16366218
000070 66 ab 23 3e 30 93 e8 3d 65 f5 08 be 4f a0 f4 bd
       0.15983352 0.11356199 -0.1337486 -0.11944639
000080 3a ba 12 be 2b c3 23 be 62 09 a7 bd 4e 44 77 be
       -0.14328852 -0.1599242 -0.081560865 -0.2414715
000090 94 29 2f be d3 83 3b be cf 1e 6d bd c5 43 04 be
       -0.17105705 -0.18312006 -0.05789071 -0.12916477
0000a0 8d 51 50 be 16 66 d6 bd 06 ff 9e bd f8 d9 f6 bd
       -0.20343609 -0.1046869 -0.077634856 -0.12053293
0000b0 72 2b c2 bd 3f 2d 91 bd 36 6d 96 bd 8e 02 83 bd
       -0.09480943 -0.07088708 -0.07345049 -0.06396972
0000c0 3a 49 82 3c d6 ee 32 bd 82 ce 10 3e 0b ab 04 3e
       0.015904058 -0.043684803 0.14141276 0.12955873
0000d0 df 97 74 3e aa e9 23 3e e0 97 d3 3d 9c cc 5d 3d
       0.23886059 0.16007105 0.10331702 0.05415021
0000e0 d5 d7 07 3d f9 d9 c7 3d c8 f9 01 3d 88 30 c8 3c
       0.033164818 0.09758372 0.03173235 0.024437204
0000f0 c2 38 e5 3d e0 fa c8 3d 09 d1 3c be 30 4d 10 be
       0.11192466 0.098134756 -0.18439116 -0.14091945
000100 b0 f9 fb bd a7 44 4e 3c 69 f7 0e be 25 0d 0f be
       -0.123034835 0.01258961 -0.13961567 -0.13969858
000110 63 6a d4 bd 55 51 83 bd 7d 3c 0a be a1 1e b4 bd
       -0.10371854 -0.06411997 -0.13499637 -0.087949045
000120 d7 45 1e be 6b a5 ec bd 2a eb 0d 3d 3b c4 27 3d
       -0.1545633 -0.115549885 0.034648098 0.040958624
000130 71 0e 39 be 2b 59 6d 3d 07 11 76 3d a9 f5 e9 bd
       -0.18071915 0.057946365 0.060074832 -0.11423809
000140 61 42 dd 3d 18 f0 02 be c5 3c c9 bd 05 8a ed 3b
       0.108036764 -0.12786901 -0.09826044 0.007249119
000150 3a ee 6a be aa 33 92 3e 93 29 16 be 6e 04 3e bd
       -0.22942439 0.28555042 -0.14664297 -0.046390943
000160 fc a3 3c bd f6 76 00 be f5 7c 78 3e 29 7c 0b bd
       -0.046054825 -0.1254538 0.24266417 -0.034053955
000170 4e 7a 4d be c0 de d3 bd 78 50 87 bd 4e d1 19 3c
       -0.20066187 -0.103452206 -0.06607145 0.009388281
000180 8c bb 83 3e 38 1a bc bc c4 04 d0 bd 20 e2 59 3d
       0.25729024 -0.02296172 -0.10157159 0.053194165
000190 f6 25 f8 3c b8 f9 3c bd 4c ce d6 3d eb 52 09 bc
       0.030291539 -0.046136588 0.10488567 -0.008381586
0001a0 06 b4 07 bc 7b 1c c4 3d 16 ce 4c bd c6 31 ec 3d
       -0.008282667 0.09575745 -0.050001226 0.11532931
0001b0 fd c8 87 3e 9a a7 82 bd 85 16 54 3e 7a 8b 54 be
       0.2652053 -0.06379624 0.20711716 -0.20756331
0001c0 27 1a 77 bd 4b 7e 58 3e ba 00 d5 bc 7c 2b f3 3d
       -0.060327675 0.21141927 -0.026001323 0.11873528
0001d0 f5 d0 b3 3d 6a 63 2a 3c b6 d6 30 bc ae 10 b2 3d
       0.0878009 0.010399679 -0.010793379 0.08694588
0001e0 d1 45 b6 bd 1a b2 b6 3d f4 3b e6 3c 0b bd 88 3d
       -0.08900035 0.08920689 0.02810476 0.06676682
0001f0 f1 ea 83 3d cf 7d af 3d 2c fe df bd 31 09 9f bc
       0.06441296 0.08568918 -0.10937151 -0.019413562
000200 d1 66 00 3e 0d ef cd 3c 4f 17 a7 3b 02 81 3a be
       0.12539221 0.025138402 0.005099214 -0.18213275
000210 e3 35 9e bd 4f 6f 5f 3e 00 e9 b2 bd 08 5c 3f bd
       -0.07725122 0.21819805 -0.087358475 -0.046718627
000220 2e d2 2a be 09 68 8c 3d e9 30 de 3d 1a 68 7a 3d
       -0.1668174 0.06855781 0.108491726 0.061134435
000230 47 d5 02 be 42 18 0e bd 08 94 52 bc af ef 07 3e
       -0.12776671 -0.034691103 -0.012852676 0.13275026
000240 56 31 d1 bc e5 da 5b be f6 89 d7 bb bb 65 02 be
       -0.02553622 -0.2147022 -0.0065777255 -0.1273412
000250 2c e5 c8 bd 08 2f a6 3d 31 69 9e 3e 33 94 ab 3c
       -0.09809336 0.08114439 0.3093963 0.02094469
000260 10 91 44 3d 2d 4c e1 bc f7 08 b1 bc 3a 05 da 3d
       0.047989905 -0.027502144 -0.02161072 0.10645528
000270 97 61 09 3e a7 c7 af 3d 1b a3 1f be 3c 0f 81 3c
       0.13416134 0.085830025 -0.15589564 0.015754335
000280 fb d3 bd 3d 52 6b 76 3d 38 0a 19 be ef c8 fc bd
       0.09268948 0.060160942 -0.14945304 -0.123430125
000290 ec 46 c1 bc 81 c5 6b 3e b3 b0 89 3e 4e 71 75 be
       -0.023593388 0.2302456 0.26892623 -0.23969004
0002a0 36 ca 2f be a7 02 df bd b3 36 92 3d d7 b9 3b 3e
       -0.17166981 -0.10889178 0.07139339 0.18332611
0002b0 93 0f d8 bd 51 6f 66 be 75 69 e6 bd fb 87 7f bd
       -0.105498455 -0.22503401 -0.11250583 -0.06238554
0002c0 a3 4a 26 3c a9 16 85 bc 50 0c c0 3d d1 83 03 3d
       0.010149631 -0.016246157 0.093773484 0.03210813
0002d0 9a 0a dd bd 12 60 4f be e8 38 03 bd 6d ef 74 bd
       -0.10793038 -0.20251492 -0.032036692 -0.059798647
0002e0 39 78 2b 3b 15 fb 16 be 76 a1 17 3e 24 9a 9f bd
       0.0026164188 -0.14744218 0.14807686 -0.07793072
0002f0 70 a3 3d 3d 52 93 5e bb 31 ea a6 3c 77 ba e9 bb
       0.046298444 -0.0033962321 0.020375343 -0.007132824
000300 c2 da 66 be d5 65 1c 3b 09 3d de 3d 05 75 9c 3d
       -0.22544387 0.0023864408 0.10851485 0.07639507
000310 0f 71 2f 3d b6 2c 29 be 4a d2 04 bd a4 87 3e 3e
       0.04283243 -0.16520962 -0.03242711 0.1860643
000320 49 fe ee bd f8 5d 04 be cc a8 ad bc c1 00 6b bd
       -0.11669595 -0.12926471 -0.021198653 -0.057373766
000330 80 ae 2a bc d0 0f 89 bd 31 6b 8c be 02 18 ca 3c
       -0.010417581 -0.06692469 -0.2742553 0.024669651
000340 96 ed 94 3d 04 db e4 3d f7 c8 56 be 88 18 05 3e
       0.072718784 0.111745864 -0.209751 0.12997639
000350 e4 f1 22 3e 26 8e 45 3e 14 87 6d 3e 91 17 0d be
       0.15912586 0.19292507 0.2319606 -0.13778521
000360 25 1b 1b 3e 37 7b 8d bd b7 5c 36 3e 06 72 29 3e
       0.15147074 -0.06908267 0.17808805 0.16547403
000370 65 d9 39 be 00 6a 1c bd e5 1f 39 3c 4b 2a 8b 3d
       -0.18149336 -0.038187027 0.011299108 0.06795176
000380 6f 6f e3 3d 78 9e 35 bc e0 b1 a7 3d d0 4a c4 3d
       0.11105239 -0.011085145 0.08188224 0.09584582
000390 c2 da 99 bd 9f ad 0a 3b c3 ef 07 3e 47 21 d9 3d
       -0.07512428 0.0021160615 0.13275056 0.1060205
0003a0 f3 42 9f 3d 8b bd 37 be f0 6b d3 3d 38 b4 4f 3e
       0.077764414 -0.17943399 0.10323322 0.20283592
0003b0 09 2a 0b 3e ed f1 a7 bd f3 da 04 be f0 60 f0 3d
       0.13590254 -0.082004406 -0.12974147 0.11737239
0003c0 d0 72 5e 3e 38 b9 33 3d 6e 59 92 3d a7 3f e0 3a
       0.21723485 0.04387781 0.071459636 0.0017108814
0003d0 40 3c a4 bd 41 83 3c 3d a5 0d f9 3d fb 66 7f bc
       -0.08019304 0.04602361 0.121608056 -0.015588517
0003e0 b7 43 d4 bd b4 1e 94 3d 89 30 03 3e 8e 14 89 3d
       -0.10364478 0.07232419 0.12811483 0.066933736
0003f0 a9 41 bd bd b9 d9 2b be c7 82 87 bd 83 91 53 3d
       -0.09241039 -0.16782273 -0.06616741 0.051652443

feature_extract.0.bias f4 [32]
000000 e6 fc ff 3b 22 3a 68 bd 98 cd 46 be ac 6d 98 3c
       0.0078121303 -0.056696065 -0.19414365 0.018606983
000010 47 75 6d 3c 39 c8 11 bd 89 22 1e bd 86 d0 d9 bc
       0.014493293 -0.035591338 -0.038607154 -0.02658869
000020 fa 00 e2 3d 4e 10 01 3c 6e 80 32 bd 1a ea 10 bd
       0.110353425 0.0078774225 -0.04357951 -0.035379507
000030 c3 3e 2d be 38 fe 38 3d db 6c a2 3d 18 91 76 3d
       -0.16918473 0.045164317 0.07930919 0.060196966
000040 bf f3 0c 3e ed cf 83 3d c3 af 24 bd 15 75 5e bd
       0.13764857 0.06436143 -0.040206682 -0.054310877
000050 e7 0b fd bb 71 36 0a 3d 85 5d 22 3e 83 f5 24 be
       -0.007722366 0.033743326 0.15855987 -0.1610928
000060 da 6c 13 be 33 3e 23 3d 6b d2 5f bd 50 18 de bd
       -0.14396992 0.03985424 -0.05464403 -0.10844481
000070 4a 0a bc 3d cf 09 49 3d cc e9 c0 3c f1 bc 11 be
       0.0918165 0.04908162 0.023548983 -0.14232232

feature_extract.1.weight f4 [32]
000000 fb 70 44 3f a2 cd 7d 3f 3e 73 8d 3f c0 63 9f 3f
       0.76734895 0.99141896 1.1050794 1.2452316
000010 26 93 15 3f e9 e4 58 3f 53 95 65 3f 53 c8 ac 3f
       0.58427656 0.8472429 0.89680976 1.3498634
000020 27 e5 ae 3f fa 9a 62 3f b5 ca 83 3f a8 a3 8f 3f
       1.3663682 0.88517725 1.0296236 1.1221819
000030 08 67 b2 3f 92 bf 2d 3f 81 d3 7e 3f 5d 87 4f 3f
       1.3937693 0.6787044 0.9954148 0.8106592
000040 46 9d 5d 3f c1 a5 80 3f ba 26 3c 3f 5a c6 26 3f
       0.86568105 1.0050584 0.7349659 0.6514641
000050 4c c1 87 3f 6e d6 94 3f cb 21 68 3f d3 6a 2d 3f
       1.0605865 1.1627939 0.90676564 0.67741126
000060 5d 7d 96 3f 1b c9 88 3f 49 f3 76 3f 05 e5 52 3f
       1.1757008 1.0686373 0.96464974 0.82380706
000070 b4 2f 60 3f 30 e9 92 3f 25 4e 05 3f e7 74 9f 3f
       0.8757279 1.1477413 0.52072364 1.2457551

feature_extract.1.bias f4 [32]
000000 1e 67 57 be ee e7 ca bd 7f 16 86 be 04 13 e1 bd
       -0.2103543 -0.09907518 -0.26189038 -0.10989955
000010 4a 2f bf ba c7 01 1e be 49 d4 86 bd b9 81 59 be
       -0.0014586237 -0.15430366 -0.06583459 -0.21240892
000020 c3 c9 16 be 0b 71 97 be dc c4 25 be 1b d4 2e be
       -0.14725403 -0.29578432 -0.16188377 -0.170731
000030 c7 5c 74 be 45 7d 0b be 46 ca 00 be d4 55 bb bd
       -0.23863517 -0.13622005 -0.12577161 -0.0914723
000040 b6 e7 87 be 83 a3 12 be b3 60 b2 bd dd 41 be bd
       -0.2654397 -0.14320187 -0.0870985 -0.09289906
000050 79 32 50 3d 70 67 4f be 82 5c 3a be 1e de 44 bd
       0.050829384 -0.20254302 -0.18199351 -0.04806339
000060 43 ed a0 be 34 25 e3 bd 9d 23 87 bd a7 90 ca bd
       -0.31431016 -0.1109108 -0.065985896 -0.098908715
000070 57 47 0c be e2 45 82 be 26 ba a4 bc cb 28 a5 be
       -0.13699089 -0.2544394 -0.020108294 -0.32257685

feature_extract.1.running_mean f4 [32]
000000 84 a4 90 3e e3 6d 87 bd 02 03 2e be 1b 79 74 3d
       0.28250515 -0.06612756 -0.16993335 0.059685808
000010 80 de 21 bd 7f 64 90 bd 43 ed 99 bd 0d 6e 90 bc
       -0.039518833 -0.07050418 -0.07515957 -0.017630601
000020 02 a9 15 3e 83 2c f7 3c be 1c b0 bd 65 cf 48 bc
       0.14615253 0.030172592 -0.08599232 -0.012256478
000030 5a df 38 be c6 44 c5 3c 81 92 66 3d 2f 61 eb 3c
       -0.18053952 0.024080645 0.05629206 0.028732864
000040 5e c4 06 3e a9 06 8b 3d 72 b8 11 bd 8e 84 a7 bc
       0.13160846 0.0678838 -0.03557629 -0.02044895
000050 f5 bf 63 bd a5 0c 69 3d 63 07 b7 3d fa 15 0a be
       -0.055602986 0.056896824 0.08936956 -0.13484946
000060 40 24 c0 bd 3a b3 03 3d 18 a0 32 bd 6e 11 28 bd
       -0.09381914 0.032153346 -0.04360971 -0.041032247
000070 fa 82 86 3d 6d c6 02 3d 36 50 86 be d0 1e 0d be
       0.065679505 0.031927515 -0.2623307 -0.13781285

feature_extract.1.running_var f4 [32]
000000 b1 d9 8f 40 82 74 d8 3e e1 36 dc 3e 70 46 21 40
       4.4953237 0.42276388 0.4301062 2.5199242
000010 58 14 92 40 ca 06 18 3f 26 4e 82 3f 99 e6 11 3f
       4.5649834 0.5938536 1.0180099 0.5699249
000020 ce a7 53 3f c5 27 74 3f c6 55 82 3f ee f3 e6 3e
       0.82677925 0.95373183 1.0182426 0.4510798
000030 ba 81 aa 3e 91 13 cb 3f 59 e7 4d 3f 96 0f a8 3f
       0.333021 1.5865346 0.80431134 1.3129756
000040 49 67 2d 3f a5 8d 42 3f 3b d1 7c 3f 65 43 8b 3f
       0.67735726 0.7599738 0.9875676 1.0879942
000050 07 73 4a 3f 40 5e d4 3e d9 c3 a3 3f a0 01 38 40
       0.7908177 0.41478157 1.2794143 2.8750992
000060 57 15 09 3f 58 9a 31 3f 2c a0 78 3f c6 a3 ee 3f
       0.53548187 0.69376135 0.971194 1.864373
000070 20 f6 2e 3f 5f 81 15 40 b8 ef c8 40 d3 f4 ca 3e
       0.68344307 2.3360212 6.2792625 0.3963991

feature_extract.3.weight f4 [64, 32, 5, 5]
000000 52 e2 56 3d 83 bb d1 3c ab 34 01 be d8 ab 43 be
       0.05246193 0.025602108 -0.12617747 -0.19108522
000010 c1 8b 4e be 08 89 00 3c 14 7b d9 bc 4d c9 e3 bd
       -0.201705 0.007845171 -0.026547946 -0.111223795
000020 be 4b c6 bd 48 47 04 be d8 e5 69 bd fe a5 81 bc
       -0.096824154 -0.12917817 -0.05710396 -0.015826222
000030 55 fb ca 3d 39 6e 0d 3d b3 fe 31 3c de 5b c8 3d
       0.09911219 0.034528945 0.010863948 0.09783147
000040 8d 95 dd 3d 90 5b 0a 3e d7 24 c5 3d f2 ac bf 3d
       0.1081954 0.13511491 0.09626167 0.093591586
000050 15 92 6c 3d 5b 72 98 3d 42 79 48 3d 7f 6e db 3c
       0.057756502 0.074436866 0.048943765 0.026786087
000060 2d 87 6e bd 08 09 cc bc a5 e6 75 3b 99 d1 a1 3a
       -0.058234382 -0.02490665 0.0037521508 0.001234579
000070 1a b9 21 bd df bb 81 3c 30 4b 07 be 36 3d 73 be
       -0.039483167 0.015836654 -0.13212276 -0.23753819
000080 e0 b6 5b bd 39 01 ee bd 98 32 4d be ab db 4e be
       -0.0536412 -0.11621327 -0.20038831 -0.20200984
000090 0e ab 0e be f3 3f 93 bc fa 4b 17 bd 97 20 93 bc
       -0.1393244 -0.01797483 -0.03693769 -0.017959876
0000a0 a2 d1 2e be cc e8 1e be 05 7f a3 bd 6c 99 20 bd
       -0.17072156 -0.15518492 -0.079832114 -0.039208815
0000b0 d2 2e b3 3d 31 a8 2c bd e2 f1 14 ba f8 8a 99 bc
       0.08749165 -0.042152587 -0.00056817953 -0.018743023
0000c0 c6 ed 9f bc 97 d5 c3 3d dc a8 04 be 12 fc 60 bd
       -0.019522559 0.095622234 -0.1295504 -0.054927893
0000d0 49 cc 13 3e 76 33 21 3d 5d 0f 01 be 49 ec c8 bd
       0.14433397 0.039355718 -0.12603517 -0.09810693
0000e0 7f a3 10 3d e6 90 9f 3e 7e 54 31 3e fd fe c1 bd
       0.035312172 0.31165236 0.17317387 -0.09472463
0000f0 35 fa cd 3d 99 4d ce 3c 9d 75 ce 3d 29 a6 91 3b
       0.10057489 0.025183486 0.10081027 0.0044448567
000100 94 60 21 be 37 37 6b be 4b 75 2c be 0f b4 e3 bc
       -0.15759498 -0.22970282 -0.16841619 -0.02779582
000110 57 4f 4d bd 97 65 ad 3d 68 d8 31 be be 0c 2c 3d
       -0.050124492 0.08466642 -0.17367709 0.04200434
000120 f6 bc 0a 3e 38 44 e7 3d fd ba 06 3e 8f fa 39 bd
       0.13548645 0.112923086 0.13157268 -0.045404967
000130 96 c3 47 be 49 cf 9e bd ff a4 d8 3d 47 52 23 3e
       -0.19508204 -0.0775438 0.105783455 0.15949355
000140 b8 28 b3 bd 0d 2d 58 be c3 42 66 be 55 ba b0 3d
       -0.08748001 -0.21110936 -0.22486405 0.0862929
000150 7a a3 01 3e d4 aa 7f be 79 5e 7a be 91 2e 20 be
       0.12660018 -0.2496751 -0.24450101 -0.15642764
000160 e5 0e b8 3d 6f 29 27 3d db e4 07 be a1 88 19 be
       0.08987216 0.040811 -0.13270895 -0.14993526
000170 7f 25 3e 3d c9 39 04 3e cf c4 94 3a 5c 67 b1 bd
       0.046422478 0.12912668 0.0011350157 -0.08662292
000180 9b df 00 bd 92 dd bb 3d 0d 4f bc 3d e8 d6 38 3d
       -0.031463247 0.091731206 0.09194765 0.045126826
000190 10 d2 cb bc d5 aa 68 3c 71 f7 e0 3c 7d b1 09 3e
       -0.024880439 0.014200886 0.02746174 0.13446613
0001a0 e0 3f c6 3d ee 16 f4 bd 1f 51 53 bd 18 53 6e bd
       0.09680152 -0.11918436 -0.051591035 -0.058184713
0001b0 ee 31 97 3d 4c 4b ae 3d 76 16 49 bc 27 5c c3 bc
       0.0738257 0.085104555 -0.0122734215 -0.023847653
0001c0 0f 99 a3 bd 97 10 a1 bd 36 09 30 bc 0e 13 ca bd
       -0.07988178 -0.078644924 -0.010744384 -0.09866916
0001d0 3f 63 be bc 29 75 aa bc 52 19 09 bd 09 07 ad bd
       -0.023240684 -0.02080782 -0.033471413 -0.084486075
0001e0 cd a9 a6 bd 84 6c 1d bd f6 65 60 bb f1 3e 88 bd
       -0.08137856 -0.038433567 -0.003424046 -0.0665263
0001f0 86 93 78 bd 16 c0 e5 bd ad da 82 bd db 3b 3a be
       -0.060687564 -0.11218278 -0.06389365 -0.18186896
000200 49 5b 3c be 4c bb 13 be 80 25 c8 bd f1 e9 b9 bd
       -0.18394198 -0.14426917 -0.097727776 -0.09077824
000210 5c e9 48 bd af c4 77 3d 5e f6 a4 3d a8 8c db 3d
       -0.049050674 0.060490306 0.08054803 0.107201874
000220 c4 e5 ea 3d c5 e0 45 3e 2a e7 aa 3e 8a a7 25 3e
       0.114696056 0.19324024 0.3337949 0.16177192
000230 06 32 fe bd 7f 52 13 bd c5 2b 34 3d 06 8d ca 3c
       -0.12411885 -0.035967346 0.043987054 0.024725448
000240 5b 19 79 bd b2 d7 89 bd 3a 09 cf bd 74 8c 9c bd
       -0.060815196 -0.06730594 -0.10109182 -0.07643977
000250 47 fe b3 bd 7d 16 cc bc a2 3d af bd 20 b2 3b bc
       -0.08788734 -0.024913067 -0.085566774 -0.0114560425
000260 6e 4d 95 3d 94 72 22 3e 1c a1 5a 3d c1 90 c8 bd
       0.07290159 0.1586402 0.053376302 -0.097932346
000270 f1 e8 e2 3c 2b 64 1a 3e 1f e2 d2 3d e0 6f 2e bd
       0.027698966 0.15077274 0.102970354 -0.04258716
000280 05 de 2d 3d fb db f4 3d 3f 79 29 3e ee 9c f1 bb
       0.042448062 0.119560204 0.16550158 -0.007373444
000290 2f 38 65 bd 40 58 25 3d 12 46 02 bc c7 57 39 bb
       -0.055961784 0.040367365 -0.007951276 -0.002828108
0002a0 b2 6b e4 bb 16 8d c5 bd 58 7b 28 bd 4e d9 cd 3c
       -0.006970846 -0.09646051 -0.041133255 0.025128033
0002b0 cb f4 14 3e 23 e7 0d 3e 3e 13 00 3d d7 82 be bd
       0.14546506 0.13857703 0.03126835 -0.093022995
0002c0 ad 8a fc bc 58 ea a5 bc d2 c4 b9 bd b0 20 9c 3d
       -0.030827845 -0.020253345 -0.090707436 0.07623422
0002d0 40 c5 81 be 96 08 43 bd f9 83 69 bd 55 a5 1a 3e
       -0.25345802 -0.04761561 -0.057010625 0.15102132
0002e0 82 2e 8a 3d 7e 88 7a be 2e d3 1d bb c1 41 b1 3d
       0.06747152 -0.2446613 -0.0024082172 0.0865512
0002f0 a2 1e 42 3e 5f 50 9e 3c 9c 7c a3 3d 90 a5 af 3d
       0.18956998 0.019325433 0.07982752 0.085765004
000300 d9 1f 6d 3d 1b c5 e1 3d 06 3f 69 3c ff 77 1f be
       0.0578917 0.11023923 0.014236217 -0.15573119
000310 36 f3 25 bd 51 d5 e2 bc 3d 3b 73 3d c0 f1 af bc
       -0.040515147 -0.027689608 0.059382666 -0.02147758
000320 01 4b c1 3d cc 43 e8 bd 02 69 00 bd fc d1 3c 3d
       0.09438134 -0.11341056 -0.031350143 0.046098694
000330 08 51 eb bb 4c 3d be bd e2 55 88 bd 63 2d e8 bd
       -0.0071812905 -0.09289035 -0.06657006 -0.11336782
000340 85 1a cd bc d2 05 97 3c 9a fd b5 bd aa 0b 86 bd
       -0.02503706 0.018435393 -0.08886261 -0.065451935
000350 26 fa 0d bd eb 29 52 bb 13 a0 12 be 73 76 f1 bd
       -0.03466239 -0.0032068442 -0.14318876 -0.117901705
000360 e8 52 21 bd 78 a7 ce bc 29 65 f3 3c f3 b4 06 bd
       -0.039385706 -0.02522634 0.029711323 -0.03288741
000370 dc 0e 57 be 12 3d da bd 3a a9 b7 3b 66 0c 03 3d
       -0.21001762 -0.106561795 0.00560489 0.031994246
000380 25 d0 54 bc b0 26 86 bd c3 b4 4f bc 91 9b d6 3d
       -0.012989079 -0.06550348 -0.012677374 0.10478891
000390 cd 43 7f 3d d7 ec 02 bd 2f cc 78 3c 26 ae 1f 3e
       0.06232052 -0.03196415 0.0151854 0.15593776
0003a0 d3 d7 54 3e 86 e4 3a 3d 3e e3 cf bb 3d 1a a0 3c
       0.20785455 0.045628093 -0.006344228 0.019543761
0003b0 f4 67 16 3d 98 90 fe bc f5 d7 43 bd ee 60 2e bd
       0.03672023 -0.031074807 -0.047813375 -0.042572908
0003c0 01 62 73 be 26 1b 34 be 14 64 9e 3c 48 6c ce 3c
       -0.23767854 -0.17588481 0.01933483 0.025198117
0003d0 b5 05 8f bd 6b 00 69 bd 50 eb 1a 3c c1 ec f9 bc
       -0.069835104 -0.056885164 0.009455517 -0.0305084
0003e0 ac ca b8 3b 9f 2e 7f 3d 61 fc 7b 3d ba 39 34 bd
       0.0056393947 0.06230032 0.061519984 -0.044000365
0003f0 da d6 25 3d 7e 8b 4e 3d 3c 58 40 3d 09 b4 85 bd
       0.0404881 0.050426 0.046959147 -0.065284796

feature_extract.3.bias f4 [64]
000000 58 25 29 bc 77 b0 b6 3c 35 48 e5 bc 13 5d 0f bd
       -0.010323845 0.022300942 -0.027988533 -0.035000872
000010 31 33 e3 bc 1d bb a8 bc 3e 8b 87 bc 85 c5 f8 bc
       -0.02773437 -0.020597035 -0.016545888 -0.030367622
000020 8d 59 cc bc 9c 1f b6 3c 13 40 98 3c 67 f7 0c bd
       -0.024945045 0.02223187 0.01858524 -0.03441563
000030 be 5a 1a bc 39 73 3c 3c 64 a3 9d bc 9f 85 2b 3a
       -0.009421049 0.011502081 -0.01924295 0.00065430434
000040 cd 04 94 3c 5d e2 97 bc 41 0d 16 bc 0b b3 e6 3b
       0.018068695 -0.018540556 -0.009158433 0.0070403866
000050 6d 62 6a b9 d9 98 ad bc 6d ac c5 3b 16 36 10 b9
       -0.00022352645 -0.021191048 0.0060325176 -0.00013753059
000060 6e ea 1c bd cc 05 20 ba 26 a7 e8 ba 55 a1 24 3d
       -0.038309507 -0.00061043794 -0.001775001 0.04019292
000070 6a 7e bb bc 95 25 e3 3c 7b fd dc 3c de 01 be 3c
       -0.022887427 0.027727881 0.026976338 0.02319425
000080 d0 44 85 bc 43 18 db 3c 24 fc 76 3c 55 f2 0e 3b
       -0.016268164 0.026744967 0.015074763 0.0021811922
000090 d5 63 b7 bc 88 07 85 3c a5 9d b9 3c 4d 0e 60 bc
       -0.02238647 0.016238943 0.022658179 -0.013675285
0000a0 84 8f 07 3d ea 8a ee bb 7c 69 66 3c 59 07 d6 3c
       0.03309585 -0.0072797434 0.014063235 0.02612655
0000b0 3a 31 14 3c 2f 4d 1b 3c 31 d3 6e 3b 8c 10 39 bc
       0.00904494 0.009478851 0.0036441798 -0.011295449
0000c0 a4 67 0a bc 9d b0 0d 3d 13 e7 09 3d c4 a2 0b bd
       -0.008447561 0.03459226 0.033667635 -0.034090772
0000d0 86 f6 c8 3a f4 09 02 3d 8d e6 f4 bc 61 5f 1e 3b
       0.0015332259 0.031747773 -0.029895091 0.0024165737
0000e0 bc 0c cd bc a0 37 30 3c 19 95 90 3c 56 b8 a9 3c
       -0.025030486 0.0107554495 0.01764922 0.020717781
0000f0 a0 02 24 3c ac bc 1d bc 1a 53 d1 3c 90 6f d5 3c
       0.0100103915 -0.009627502 0.025552321 0.026054174

feature_extract.4.weight f4 [64]
000000 4f 04 7c 3f 47 78 5d 3f ba 4a 95 3f 31 fd 81 3f
       0.98444074 0.86511654 1.166343 1.0155393
000010 1b 3c 41 3f c9 17 83 3f ad 08 8a 3f 41 87 9d 3f
       0.7548234 1.0241634 1.0783898 1.2306901
000020 68 40 48 3f dc 25 65 3f fe a3 70 3f 1c 18 70 3f
       0.78223276 0.89510894 0.9400023 0.9378679
000030 ff a7 42 3f a0 fd a9 3f 9c 6b 7b 3f ec 63 8f 3f
       0.7603759 1.3280525 0.98211074 1.1202369
000040 ae 80 81 3f 2f d1 8b 3f 02 ab 7d 3f 4a b0 8f 3f
       1.0117395 1.0923213 0.9908906 1.1225674
000050 0d 60 6e 3f 56 7e 68 3f c2 e1 68 3f 8d cc 8a 3f
       0.9311531 0.90817773 0.9096948 1.0843674
000060 22 47 73 3f 2b 88 67 3f b0 5e 90 3f 21 be 42 3f
       0.95030415 0.9044215 1.1278896 0.76071364
000070 65 f3 8c 3f 9a 60 6b 3f 3d 68 97 3f 5f 09 6e 3f
       1.1011778 0.9194428 1.1828686 0.9298305
000080 48 73 5a 3f a6 b8 8d 3f 75 21 56 3f 0a 17 6d 3f
       0.85332155 1.1071975 0.836448 0.9261328
000090 52 e1 45 3f 46 e8 97 3f 66 7c 65 3f 27 aa 8d 3f
       0.77296937 1.1867759 0.8964294 1.1067551
0000a0 69 85 92 3f 07 f6 6b 3f 16 5e 80 3f 15 3c 80 3f
       1.1446964 0.9217228 1.0028713 1.0018336
0000b0 9f 2a 74 3f 42 b5 83 3f 75 5a 89 3f c0 33 69 3f
       0.95377535 1.028969 1.073073 0.9109459
0000c0 2e 5b 63 3f 1e 93 96 3f 7e 40 90 3f 58 8e 57 3f
       0.88811004 1.1763647 1.1269681 0.84201574
0000d0 b8 41 83 3f 5c c0 6d 3f af ea 7e 3f 83 c4 87 3f
       1.0254431 0.9287164 0.9957685 1.0606846
0000e0 5f 65 4b 3f 1e aa 79 3f a6 a6 8c 3f 5b 31 81 3f
       0.79451555 0.97525203 1.0988357 1.0093187
0000f0 bd cd 76 3f 69 bd 88 3f 3c b1 89 3f 8f a8 8a 3f
       0.9640768 1.0682803 1.0757213 1.083269

feature_extract.4.bias f4 [64]
000000 6e 01 50 be a8 6f ac be 20 ef 65 be 18 61 44 be
       -0.20313045 -0.33678937 -0.224545 -0.19177663
000010 92 b6 a3 bd 62 d4 26 be 37 ae 83 be 79 59 3e be
       -0.07993807 -0.16291955 -0.25718853 -0.18588819
000020 f9 25 33 be c6 bf 54 be 9b 07 19 be b4 7d 59 be
       -0.17494954 -0.20776281 -0.14944308 -0.21239358
000030 bc e2 05 be 96 11 9e be 27 a9 72 be d9 f7 8c be
       -0.13074774 -0.30872792 -0.23697339 -0.27532843
000040 99 33 f6 bd b3 f5 16 be 22 8c 89 bd 0f 87 98 be
       -0.1202156 -0.14742164 -0.06716181 -0.29790542
000050 db cb 49 be 0d c2 6b be d4 a9 10 be fd 0f 2c be
       -0.19706671 -0.23023243 -0.14127284 -0.16802974
000060 19 a2 85 be 6c 8f 84 be 3b e3 a7 be 23 58 26 be
       -0.26100233 -0.25890672 -0.3279055 -0.16244559
000070 e9 20 79 be 21 c7 90 be c0 4a 68 be c6 6b 1e be
       -0.2432896 -0.28276923 -0.22684765 -0.154708
000080 53 b2 51 be 46 8d 8b be c3 67 8a be 47 95 58 be
       -0.20478182 -0.2725622 -0.2703229 -0.21150695
000090 b9 2d b8 be 1b 38 7f be 59 c7 29 be fe 9c 84 be
       -0.35972384 -0.24923746 -0.16579951 -0.25901026
0000a0 0d 30 59 be 0a 36 ad be 23 0f 95 be dc a3 ab be
       -0.21209736 -0.3383029 -0.2911311 -0.33523452
0000b0 61 8a 76 be c0 bb 1e be 2c 98 8c be 23 f3 52 be
       -0.24076225 -0.15501308 -0.27459848 -0.20600562
0000c0 70 f2 63 be 18 0f 5a be 19 4a bd be 98 67 a1 bd
       -0.22260451 -0.2129482 -0.36970595 -0.07881087
0000d0 ab 28 af be 9b 82 77 be 05 0b 99 be 01 5c 98 be
       -0.34210715 -0.24170916 -0.2989122 -0.29757693
0000e0 00 95 44 be 82 a6 82 be 24 79 47 be a7 bf 80 be
       -0.19197464 -0.2551766 -0.19479805 -0.2514622
0000f0 7e ae 2a be a4 a9 cb be 1f c2 84 be 85 12 b6 be
       -0.16668126 -0.39777863 -0.25929353 -0.35561004

feature_extract.4.running_mean f4 [64]
000000 e9 ee 45 c0 9b fd e0 bf 30 97 2a c0 60 6d 3b c0
       -3.092707 -1.7577394 -2.6654778 -2.9285507
000010 9e f0 b0 40 fa 2c 80 3f d0 01 e2 bf 5a cb 6a c0
       5.529372 1.0013726 -1.7656803 -3.6686616
000020 b3 77 37 bf 4b 7c 52 c0 fa 89 98 c0 7b 92 2a c0
       -0.7166702 -3.2888362 -4.766843 -2.6651905
000030 8e 9f 9a c0 83 92 cb bf 7a b9 49 c0 78 9e a4 bf
       -4.831977 -1.5904087 -3.1519456 -1.2860861
000040 76 a5 79 c0 f3 67 0f c0 35 85 90 bf 6d 1e 05 bf
       -3.900724 -2.2407196 -1.1290652 -0.5199955
000050 62 6f 8d c0 ab a9 8c c0 6f e3 e4 bf 57 9e 93 be
       -4.4198465 -4.3957114 -1.7881907 -0.2883174
000060 9e d0 95 3e 7c 0f 1e c0 fd c4 f0 bf 7e 44 29 40
       0.29260725 -2.469695 -1.8810116 2.6448054
000070 ec 03 80 c0 f9 58 6c bf e7 93 8b c0 0a c8 c1 bf
       -4.0004787 -0.9232326 -4.3618045 -1.5139172
000080 80 6e 73 3f 0e d3 41 c0 b8 1a 21 bf 9c c2 1f c0
       0.95090485 -3.0285068 -0.62931395 -2.496253
000090 6c 83 01 3f 26 a3 1a c0 2a 28 99 c0 eb 0b 83 c0
       0.5059116 -2.4162078 -4.786153 -4.095205
0000a0 f2 8a 81 c0 e1 10 aa bf 82 cf 62 bf e8 aa 63 c0
       -4.048211 -1.3286401 -0.8859788 -3.5573063
0000b0 0f 35 12 c0 fc bd 31 c0 aa 99 10 c0 de 6d 9f bf
       -2.2844884 -2.7772207 -2.259379 -1.2455404
0000c0 57 94 54 40 98 b8 b2 c0 0e 90 14 c0 8c 1b be 40
       3.321554 -5.5850334 -2.3212924 5.9408627
0000d0 00 de 3a bf e8 2a 24 c0 fd 1a 67 bf 00 26 66 c0
       -0.72994995 -2.5651188 -0.90275556 -3.5960693
0000e0 82 c3 59 c0 82 49 89 bf 06 2a 1a c1 90 a3 c0 bf
       -3.4025578 -1.0725558 -9.63526 -1.5049915
0000f0 cd df b0 bf 85 97 1c c0 19 48 da bf c8 f0 c1 bf
       -1.3818299 -2.446748 -1.7053252 -1.5151606

feature_extract.4.running_var f4 [64]
000000 74 d1 4d 42 46 ee 19 42 da 3f 4c 42 a6 eb 60 42
       51.454544 38.48269 51.062355 56.230125
000010 85 27 64 42 ab 14 27 42 59 32 3c 42 db 75 5e 42
       57.038593 41.770184 47.049168 55.615093
000020 e0 a1 5a 42 f3 0f 81 42 c2 cc 7c 42 37 43 35 42
       54.65808 64.53115 63.19996 45.31564
000030 c4 e6 52 42 f6 0b 19 42 1f 23 51 42 b7 c2 0c 42
       52.725357 38.26168 52.284298 35.19015
000040 69 11 a8 42 46 f3 2a 42 16 50 17 42 a3 1d 01 42
       84.034004 42.73757 37.82821 32.278942
000050 fe 5a 8b 42 b4 4e 77 42 f8 89 6e 42 a5 8d 11 42
       69.67772 61.82686 59.634735 36.388325
000060 7a da 2e 42 b3 93 51 42 b4 c7 1d 42 12 cb 11 42
       43.713356 52.394238 39.445023 36.44831
000070 96 3c 67 42 3c bd 30 42 a6 95 85 42 eb d0 2d 42
       57.809166 44.1848 66.79228 43.45402
000080 ef 99 4d 42 b5 8e 38 42 3c a6 0a 42 d7 86 2e 42
       51.400326 46.139362 34.66234 43.63168
000090 e1 34 59 42 f8 45 09 42 a8 87 8e 42 fc 75 83 42
       54.30164 34.31833 71.26495 65.73044
0000a0 b9 f6 80 42 22 1b 83 42 5a 96 66 42 a8 23 99 42
       64.48188 65.55299 57.646828 76.56964
0000b0 97 00 2b 42 d5 73 85 42 fe 05 22 42 fc 23 88 42
       42.750576 66.726234 40.50585 68.07028
0000c0 d4 a2 20 42 7b fc 92 42 e5 0a 42 42 db 60 61 42
       40.15901 73.493126 48.51064 56.344585
0000d0 f2 02 29 42 de 80 34 42 7d 79 56 42 c8 28 71 42
       42.252876 45.125847 53.61864 60.289825
0000e0 a5 c8 26 42 04 50 03 42 c2 36 d9 42 7a aa 25 42
       41.695942 32.82814 108.60695 41.41648
0000f0 f5 e9 0c 42 c7 54 3f 42 12 4a 17 42 1a eb 28 42
       35.228474 47.83279 37.822334 42.22959

feature_extract.6.weight f4 [32, 64, 3, 3]
000000 93 3a 16 be c4 d9 da bd d2 c9 0e be c2 f3 da 3c
       -0.14670782 -0.10686067 -0.13944176 0.02672756
000010 a8 dd 63 bb ea 40 a5 3d b2 bc a4 ba 5c 86 90 3d
       -0.0034769569 0.08069022 -0.0012568443 0.07056877
000020 46 18 9f 3d 4c f2 18 3d 13 80 bd 3c 80 47 6f bb
       0.07768302 0.037340447 0.02313236 -0.0036511123
000030 4d 04 85 3d 2f f3 18 be 27 ff 42 3d 08 1a 10 3e
       0.06494961 -0.14936517 0.047606613 0.1407243
000040 09 73 d6 3c b8 76 57 bd 36 0d 3f 3d e0 8c b5 3c
       0.0261779 -0.052603453 0.04664346 0.022161901
000050 14 38 29 bd 11 9b b6 bd 9a aa 78 3d f1 4c 78 3c
       -0.041313246 -0.08916295 0.060709573 0.015155063
000060 59 08 2a bc 62 8f 0f 3e 29 91 af 3a 21 5f 46 3d
       -0.010377967 0.1401954 0.0013394702 0.048430566
000070 b0 8e dd 3c 6b 74 1f 3c 32 f8 06 3e 95 94 f1 bd
       0.027045578 0.009732346 0.13180616 -0.11795918
000080 27 66 fb 3d 96 f8 f0 3d 74 4c 19 bd ba 64 bd 3d
       0.122753434 0.11766164 -0.037426427 0.09247728
000090 72 ea 14 3d ec f9 41 bd 6f b3 36 bd 02 44 66 3d
       0.036356397 -0.047357485 -0.044604715 0.0562172
0000a0 e6 e0 ea bc 7f 29 b4 bd 35 e9 03 be ff dd 0a be
       -0.028671693 -0.08796977 -0.1288193 -0.13561247
0000b0 06 ff 18 be 75 e4 ab 3d f8 1c 03 be 96 76 47 bd
       -0.14941034 0.08393184 -0.1280402 -0.048697077
0000c0 a8 e3 14 be bf 18 af 3d 8b a4 9b 3d df 83 6e 3c
       -0.14539969 0.08549642 0.075997435 0.014557808
0000d0 9d 6e b6 3d 55 32 ed 3d 35 d5 43 be 53 3e 73 bb
       0.089078166 0.11581866 -0.19124301 -0.0037116006
0000e0 cd be 22 3e 7f 1e 9d bd a1 57 d7 3d a7 91 e9 3d
       0.15893097 -0.07671832 0.10514761 0.11404734
0000f0 42 fc 1c bd 9c de d2 bc f5 6b 51 3c 87 fc ab bd
       -0.03832651 -0.025740914 0.012782087 -0.08397775
000100 2d 81 2b bd 81 eb 0c bd 24 f5 f3 3d 79 7b 44 3e
       -0.04187124 -0.03440428 0.11911991 0.19187726
000110 44 c0 1a 3e fd b9 92 bd 6f ce 73 3a 9c e1 0b bc
       0.15112406 -0.07164381 0.00093004754 -0.008537676
000120 a1 75 62 3d b5 85 39 bd 74 31 14 be 00 47 7c 3e
       0.05528796 -0.04529353 -0.1447199 0.2463646
000130 fd 33 84 3d 0c 7d 3e 3d e5 e8 5f 3d b2 9e 1c 3d
       0.064552285 0.046505973 0.054665465 0.03823728
000140 49 4e 00 bd d0 aa 35 bd d7 da 49 3b c8 b6 eb 3d
       -0.03132466 -0.044352353 0.0030800605 0.11509472
000150 d8 31 73 3e 46 c2 5e 3d ba c3 cb 3d 8c 72 55 3e
       0.23749483 0.054384492 0.09949441 0.20844477
000160 4f 6a b0 3d 60 7a 98 3e 71 83 15 bd 75 e8 74 bc
       0.08614027 0.29780865 -0.036502305 -0.014948
000170 3f 58 14 3c 16 88 b2 bd 41 28 1b 3d b9 60 44 bc
       0.009054243 -0.087173626 0.037880186 -0.011985951
000180 20 0c fc 3d 4a 65 a5 3d 6c b4 26 3e bf c2 54 be
       0.12307 0.0807596 0.16279763 -0.20777415
000190 98 6f 12 be f0 f4 fb bd 29 dc e5 bd ec 88 93 3d
       -0.14300382 -0.123025775 -0.11223633 0.0720385
0001a0 d0 09 79 bc 16 d0 bf 3d 39 1a 96 3d 2f 11 3c be
       -0.015200093 0.09365861 0.0732922 -0.1836593
0001b0 59 2a 2a 3d be 5b 76 bd b9 bc 8e 3c 41 e1 0a bd
       0.041544292 -0.060146086 0.017423974 -0.033906225
0001c0 18 de 71 bd 7d 61 2d bd 2f f1 5d 3e 3c d2 ff bb
       -0.059049696 -0.0423293 0.21674035 -0.0078070443
0001d0 07 ac cd 3c 15 43 7d 3c 01 6d c8 bc da 06 d2 3c
       0.025106443 0.015457888 -0.02446604 0.025638033
0001e0 33 7e 4d 3d c4 17 ca 3b 46 47 c5 bc 2a f5 98 bd
       0.05016918 0.006167384 -0.024081837 -0.07468636
0001f0 f1 e0 af bd 2b 54 8c bd 92 17 cb bd 23 89 39 3d
       -0.08587826 -0.06851991 -0.09916605 0.0452968
000200 9c 23 e8 3c 53 fe c6 3d 65 38 94 3e 9e 44 02 3e
       0.028337292 0.09716477 0.28949276 0.12721488
000210 a1 18 bc bd 87 73 80 3e 45 55 e9 3c 23 5e 47 3d
       -0.09184385 0.2508814 0.028483042 0.04867376
000220 fe df 94 3d 27 9a 6b be b0 fd 12 3e 61 11 e8 3c
       0.072692856 -0.23008023 0.14354587 0.0283286
000230 cb ca 24 3e a6 d8 73 bd a1 e9 3a bd 38 f3 c3 bd
       0.16092984 -0.059532784 -0.045632962 -0.09567875
000240 28 9b 9c 3d 5f c1 d1 bc 11 69 08 3e c6 ad 27 be
       0.07646781 -0.025604902 0.1332133 -0.16374883
000250 73 1d 73 3d b1 ce 39 3d 77 76 ad bd d4 f4 2b 3e
       0.059354257 0.045363132 -0.08469861 0.16792613
000260 94 23 58 3d a2 24 8f bc 75 67 70 bd c8 33 ff bc
       0.052768305 -0.017473523 -0.058692414 -0.03115262
000270 2c 4e 87 3e 36 09 5d 3c 38 99 c3 bc 50 e8 0b 3e
       0.26426828 0.013490966 -0.023876771 0.13662839
000280 42 25 07 be 51 15 eb 3d be fe a1 bd 1a eb 79 3d
       -0.13197806 0.11478675 -0.07909916 0.061015226
000290 31 b6 b0 3d 88 cf a5 3d d3 d2 2f 3e b0 80 3e 3e
       0.086285 0.08096224 0.17170267 0.18603778
0002a0 35 93 29 3c 29 25 bb bd 54 cb 65 3b 6c 00 fc 3d
       0.010350038 -0.09137947 0.003506382 0.12304768
0002b0 e8 63 6a 3d 31 4c 68 bd 63 d9 3b be 4e 42 10 be
       0.057224184 -0.056713287 -0.18344645 -0.14087793
0002c0 63 a8 43 bd 82 c7 03 be bf b0 ab bd 9e a8 40 be
       -0.047768008 -0.12869075 -0.08383321 -0.18814322
0002d0 cc fd 78 3e c2 aa da 3d 0c d6 00 3c 40 46 c2 3e
       0.24315566 0.10677101 0.007863533 0.37944221
0002e0 cc f0 a2 3d 63 47 8a 3c 32 eb 54 3e 30 7f 06 3b
       0.079560846 0.016879743 0.20792845 0.0020522587
0002f0 dd a5 d9 bc 34 db 96 bd ab 1d b8 bd 05 dd 4c bd
       -0.026568348 -0.073660284 -0.08990034 -0.05001547
000300 1f 2b 5b 3d a5 51 a9 3c b1 fe 1f bd 71 c3 c5 3d
       0.05350792 0.020668814 -0.039061252 0.09656418
000310 9c d8 0e 3e 47 32 9a 3c c9 75 4c 3e 97 7c 1c 3e
       0.13949817 0.018822802 0.19966806 0.15281902
000320 c8 69 11 3c 37 35 aa 3e 65 87 08 3d 65 fe 89 bd
       0.008875318 0.33243725 0.033332247 -0.06737975
000330 17 d2 5c 3d 85 22 01 be b6 89 0d be 03 84 81 3d
       0.053911295 -0.12610824 -0.13822064 0.06324007
000340 1d 3d 86 3d 92 78 fe 3d 39 a3 75 3b af f1 9c 3d
       0.06554625 0.12425341 0.0037481321 0.07663285
000350 18 b1 67 3d a9 33 34 3e 22 e1 26 3e 10 be 82 3a
       0.056565374 0.17597832 0.16296819 0.0009974856
000360 31 3b cd 3d f3 7c d9 3c c4 af f1 3d 38 d1 0a be
       0.100210555 0.026548838 0.11801103 -0.13556373
000370 77 b8 8f bc ac b0 f2 bc da 75 02 3d 1f 92 ff 3d
       -0.017544014 -0.02962526 0.031850673 0.12479042
000380 03 64 17 3d 36 59 02 bd 62 f3 96 bc 0e 60 e0 3d
       0.036960613 -0.03182336 -0.0184266 0.10955821
000390 ed 16 94 bd 61 27 ff 3c 9b 8d 61 3e 9c 85 5b bd
       -0.07230935 0.031146707 0.22026674 -0.053594217
0003a0 c5 50 84 3d 0e 2f 0d 3e 4f a3 3f be 4d c0 43 be
       0.06460718 0.13787481 -0.18714641 -0.19116326
0003b0 66 f1 aa 3c 79 7c 45 be 8a 9d 01 3e e0 d6 14 3e
       0.02086706 -0.19285764 0.12657753 0.14535093
0003c0 98 0f b5 bd 0a 74 77 bd de 88 a7 3d 5e 2d df 3d
       -0.08840865 -0.060413398 0.08180402 0.10897325
0003d0 28 02 0f 3d 3e 0b a2 bd 27 09 26 3e 7a fd be bc
       0.034914166 -0.079123005 0.16214429 -0.023314226
0003e0 e1 c8 ea 3c d7 a6 b2 3c ff 08 d9 bd 31 b9 3c be
       0.02866024 0.021808071 -0.10597419 -0.1843002
0003f0 a8 77 e6 3c b2 7e eb bc c9 71 3a bd d1 ee 3d 3d
       0.028133228 -0.028746936 -0.04551867 0.04637033

feature_extract.6.bias f4 [32]
000000 62 e2 10 bd d1 e8 f1 3b 42 43 53 3c aa 46 f8 3c
       -0.035372145 0.00738249 0.0128944535 0.030307133
000010 90 0e 09 3d b8 f2 d8 3c 74 d6 e0 3c e5 ca 9a bb
       0.033461154 0.026482925 0.02744601 -0.004723894
000020 bd dd 64 bc 65 3c 4f 3d 16 c2 29 bb a1 ee 8a bc
       -0.013968882 0.050594706 -0.0025903038 -0.01695949
000030 58 92 a5 3c 8a cd 22 bc a8 3a af 3c 36 75 0b bd
       0.020211384 -0.0099367 0.021390274 -0.034047328
000040 16 20 d8 bc c3 31 ac 3c e9 e7 01 3d f3 b1 97 bc
       -0.026382487 0.021019822 0.031715307 -0.01851747
000050 e2 b7 03 bd 71 e8 a5 bc 90 58 b6 3c f1 00 d6 3c
       -0.032157786 -0.020252438 0.022259027 0.026123496
000060 14 fa 2d bd 8b d5 99 bc 68 94 1c 3b 53 11 e2 bc
       -0.04247482 -0.018778583 0.0023892168 -0.027596151
000070 09 a9 fc 3c 83 e0 91 bc 5c 54 08 3d 96 63 8e bc
       0.030842321 -0.01780725 0.033283576 -0.01738147

feature_extract.7.weight f4 [32]
000000 4d 58 55 3f c0 be 42 3f 07 3b 69 3f c8 00 64 3f
       0.8333786 0.7607231 0.91105694 0.8906369
000010 22 35 7d 3f 1a a9 40 3f f1 be 74 3f 5e 4e 66 3f
       0.989092 0.7525803 0.95603853 0.8996333
000020 fb 49 58 3f 7d 58 64 3f 5f 05 5a 3f 8f 95 42 3f
       0.84487885 0.8919752 0.85164446 0.7600946
000030 75 68 5e 3f 42 61 54 3f f5 02 50 3f 0a a9 5e 3f
       0.8687814 0.82960904 0.8125451 0.86976683
000040 d5 7d 4a 3f e6 9f 75 3f f3 4d 74 3f db ee 4c 3f
       0.79098254 0.9594711 0.9543144 0.80051965
000050 d0 5f 6b 3f ec 76 47 3f 8b 9c 6e 3f d6 74 49 3f
       0.91943073 0.77915835 0.93207616 0.786939
000060 bd 86 4f 3f 32 a9 71 3f 7b 38 23 3f 33 6e 6c 3f
       0.8106497 0.94398797 0.6375806 0.9235565
000070 17 35 61 3f 11 db 56 3f da d3 8b 3f fa 94 5f 3f
       0.87971634 0.8392802 1.0924027 0.87336695

feature_extract.7.bias f4 [32]
000000 5e 0f ea be 0d c9 df be 02 3c 17 bf e9 7b e9 be
       -0.4571485 -0.43708077 -0.5907594 -0.45602348
000010 f9 e2 dc be ef d2 c8 be 68 df c1 be 8c d6 b3 be
       -0.43141916 -0.3922343 -0.37865758 -0.35124624
000020 b1 d4 c8 be 25 51 b3 be a5 23 a5 be 46 0b 40 be
       -0.3922477 -0.35022846 -0.32253757 -0.187543
000030 ab d6 d5 be 84 c1 e2 be 07 6e 93 be a3 29 c5 be
       -0.4176534 -0.44288266 -0.28794882 -0.3850833
000040 c0 19 ea be fe c4 a2 be 7f f1 a2 be d7 d1 c0 be
       -0.4572277 -0.31790918 -0.31824872 -0.37660095
000050 d6 5b eb be 06 81 bf be a6 0d c0 be 0b b6 9c be
       -0.45968503 -0.37403125 -0.37510413 -0.30607638
000060 47 39 54 be 2a 56 f5 be ae 32 b1 be ff 3f dc be
       -0.20724975 -0.479173 -0.34608978 -0.43017575
000070 b5 b2 d4 be 6e 24 94 be 63 bc c0 be e5 3b d6 be
       -0.41542593 -0.28934044 -0.37643728 -0.4184257

feature_extract.7.running_mean f4 [32]
000000 cd aa 26 40 6d b9 0d 3e 00 23 c8 bf da b8 61 40
       2.6041749 0.13840266 -1.5635681 3.5269074
000010 a8 aa 25 bf 54 a7 5e c0 81 8a ac c0 c4 ca c4 be
       -0.64713526 -3.478963 -5.391907 -0.38435948
000020 ba bb e5 bf a6 40 19 c0 a6 c0 4a c0 42 6a 03 c1
       -1.7947915 -2.3945708 -3.1680083 -8.213442
000030 1c 58 79 40 5d d4 20 40 61 9c 05 40 a9 ad 8a c0
       3.8960028 2.5129616 2.0876696 -4.3336987
000040 99 9e 25 40 e6 5d 45 3f 25 6f 38 c0 50 cd d8 3f
       2.587805 0.770964 -2.8817837 1.6937656
000050 99 f1 66 bf bd 5d 29 40 4f 2d d5 3f 18 0b 28 bf
       -0.902124 2.6463463 1.6654452 -0.6564193
000060 16 dd 19 bf a4 97 e6 bf 50 ca 9a 3e 95 b1 5a c0
       -0.60102975 -1.8015027 0.30232477 -3.4170887
000070 0d d8 40 40 16 25 84 c0 76 99 f5 3f 1e 8c 26 c0
       3.0131867 -4.129527 1.9187458 -2.602302

feature_extract.7.running_var f4 [32]
000000 ef 1a e0 41 49 d0 e2 41 87 23 cf 41 bd 2b be 41
       28.013151 28.351702 25.892347 23.771357
000010 98 24 b8 41 4f 9c d0 41 31 0f bd 41 31 f0 1a 42
       23.017868 26.076323 23.632418 38.734562
000020 5f 2f f1 41 6b 94 c9 41 2c 29 0f 42 71 53 e6 41
       30.14813 25.19747 35.790207 28.790743
000030 d7 71 ca 41 43 fd c9 41 f6 b5 d3 41 cd 55 cf 41
       25.305586 25.248663 26.463848 25.916895
000040 9e 89 cf 41 64 85 00 42 5d b6 eb 41 71 2d ca 41
       25.942196 32.130264 29.464045 25.272188
000050 0d a9 ad 41 09 f0 bd 41 0b e1 fe 41 18 70 d9 41
       21.707544 23.742205 31.859884 27.179733
000060 79 6f ff 41 7a ae ec 41 33 4e d6 41 62 b9 f6 41
       31.92943 29.585194 26.788183 30.840519
000070 1d 4e fb 41 61 66 d7 41 10 9e b6 41 12 54 21 42
       31.413141 26.92499 22.827179 40.3321

classifier.0.weight f4 [128, 512]
000000 62 d5 2c bc 23 94 04 bd 26 e6 a6 bd 38 d1 11 bd
       -0.010548921 -0.032367837 -0.08149366 -0.035599917
000010 8f 0e c8 3c df 01 75 bd fb 18 be bd 7d 1a d1 bd
       0.024421005 -0.059816238 -0.092821084 -0.1021013
000020 e1 87 b2 bd ab bd 2c be 12 16 b2 bd 1e 34 cb bd
       -0.08717323 -0.16869228 -0.08695616 -0.0992205
000030 b0 9c 33 bd 77 9d 16 3e ff 26 64 3e cd 45 a8 3e
       -0.0438506 0.14708506 0.22280501 0.32865754
000040 a5 86 b4 3d 02 0c 0c be b6 0b 1f 3d 49 cc 3a 3e
       0.08814744 -0.13676456 0.038829528 0.18241991
000050 ab ee 76 bd 95 77 12 be 03 ef ae bd 67 2a 1d be
       -0.060286205 -0.1430343 -0.085416816 -0.15348206
000060 6a eb 44 3d 28 6d 97 bc 68 09 ca 3c f0 c9 80 3e
       0.04807607 -0.018484667 0.024662688 0.25154066
000070 2f bd 27 bd b0 4e de 3c b6 16 8e 3e fd 0b 70 3d
       -0.040951904 0.02713713 0.27751702 0.058605183
000080 a9 b1 bf bd 04 df 15 bc 24 8d a7 bd 70 3d f1 bd
       -0.09360058 -0.009147409 -0.08181217 -0.117792964
000090 86 a8 7e bd 94 b0 79 3c c8 32 5e 3c d2 d5 29 be
       -0.062172435 0.015239853 0.013561912 -0.16585472
0000a0 3c b9 a8 bd 37 b9 c7 3c 13 f0 25 be 6a d1 6a be
       -0.08238456 0.02438031 -0.16204862 -0.22931448
0000b0 93 31 1b 3d bd 6f e4 3c aa db 05 bd 73 86 ad 3e
       0.037889075 0.027885312 -0.03268019 0.3389164
0000c0 a5 89 d3 bd 86 2f 42 be 76 28 15 be 25 a6 d3 be
       -0.10328988 -0.18963441 -0.14566216 -0.41337696
0000d0 e9 c3 23 be 1d f0 85 bd 72 58 cf 3d 82 f2 80 be
       -0.15992703 -0.065399386 0.101242915 -0.2518502
0000e0 73 67 34 be 18 4c 00 be 26 d8 d2 bb 4e 6c 26 be
       -0.17617588 -0.12529027 -0.0064344583 -0.16252252
0000f0 83 db 91 3e 3b a3 93 3d e5 d3 3a be ef ce 67 be
       0.28487787 0.07208868 -0.18244894 -0.22637533
000100 b6 ea 5e be 89 4e 49 be 7f d9 7b be ff 5a 4d be
       -0.21769223 -0.19658865 -0.24594687 -0.20054244
000110 de 15 87 bd 3d 6a f8 3d e3 fc 0b 3e aa 35 ba 3b
       -0.06595968 0.12129638 0.13670687 0.005682667
000120 ef 4a 22 3d cd c5 87 3c ee 27 db 3d 60 f1 f4 3d
       0.039622243 0.016573811 0.10700975 0.11960101
000130 b9 b2 79 3e 50 fb 9d 3c f2 f2 9c 3d bb 05 95 3c
       0.24384584 0.019284874 0.07663526 0.018191209
000140 6a ad d8 3d 49 c2 1e 3e f6 0e 02 3e df 1e d0 3d
       0.10579951 0.15503801 0.1270102 0.10162138
000150 d8 dc 00 3e a0 2d c0 bd e2 05 4e bb 89 c5 7c bd
       0.12584245 -0.09383702 -0.0031436612 -0.06171182
000160 17 2b 0f 3e a3 60 e4 3d 09 15 26 3d c8 07 0e 3e
       0.13981281 0.111512445 0.040547404 0.13870156
000170 4e 5d d3 3d 15 25 cb 3d ab 3f 12 3e f9 f1 ed 3d
       0.10320531 0.09919182 0.142821 0.11618418
000180 4f 5a e7 3d 36 89 8a bc 6a 57 21 be 93 5f e6 bd
       0.11296522 -0.01691113 -0.15756002 -0.11248698
000190 20 70 63 bd 17 56 84 3d 52 c6 12 3e d8 8a 22 be
       -0.055526853 0.06461733 0.14333466 -0.15873277
0001a0 50 67 62 3c 33 4b 3e 3e c6 01 dc 3d 06 81 36 be
       0.013818577 0.18583374 0.10742526 -0.17822656
0001b0 00 e8 94 3d ae 68 96 bd f7 12 02 3e a2 83 33 bd
       0.07270813 -0.07344185 0.12702547 -0.043826707
0001c0 4c 73 c1 bd 99 eb 1f be 61 3c 41 be 86 a6 36 be
       -0.09445819 -0.15617217 -0.18870689 -0.17836961
0001d0 5c 2d 03 be f3 ca cd 3d 41 0b 7a 3d 3c 99 11 be
       -0.12810272 0.10048475 0.06104589 -0.1421861
0001e0 fe a2 1f be c7 f3 37 3d ff 40 13 bd 37 0d 86 bd
       -0.1558952 0.04491022 -0.035950657 -0.06545489
0001f0 52 68 30 3d 89 cd 67 3d 6b 53 21 3e 53 bb 4b bd
       0.043068238 0.056592498 0.15754478 -0.049739193
000200 a7 23 56 3e 83 ec 5a 3d 39 97 9d 3d 43 a0 15 bc
       0.20912038 0.05344821 0.07694859 -0.009132448
000210 64 f2 ed bd 6c 98 27 be da d4 04 3e 33 b1 fe 3d
       -0.11618498 -0.16366738 0.12971821 0.12436142
000220 b2 b2 93 bd 13 8c d9 bd 1f bd ab 3d be 15 ab bd
       -0.07211818 -0.1062242 0.08385681 -0.08353756
000230 2c 89 8c 3d 45 2c 33 bc 81 24 a3 bd 71 8f 2d be
       0.06862101 -0.010935848 -0.07965947 -0.1694925
000240 11 7f da 3c 19 96 16 be c0 69 91 3c 61 f1 e2 bc
       0.026671918 -0.14705695 0.01775062 -0.027702989
000250 f9 1d b1 3d 48 d7 a8 3a c8 bc ce 3d 9e 14 0b 3d
       0.08648295 0.0012881542 0.10094601 0.03395521
000260 5c 24 6e bd 1b b3 ab bd de 8b bb 3d d1 5a ff 3c
       -0.058140144 -0.08383771 0.09157537 0.031171234
000270 6d 46 5a bd df 93 c7 bd 66 c5 22 be 46 a3 0a be
       -0.05328982 -0.09745001 -0.15895614 -0.13538846
000280 8f 6c 3c be 77 90 b8 bd 1a 91 2d 3b 6d 1e 14 bd
       -0.18400787 -0.090119295 0.0026484192 -0.03616183
000290 70 25 67 3d df e0 8b 3d 4a 8a 27 3c b4 64 01 be
       0.056432188 0.0683 0.010225842 -0.12636071
0002a0 ee 45 8e 3d 9b 3b 12 3e 36 d2 3c 3c ea bc f6 bd
       0.06946932 0.1428055 0.011524728 -0.12047751
0002b0 78 db 20 be 30 07 0d bc 41 5e 0e 3d 82 f5 cd bd
       -0.1570872 -0.008607671 0.034757856 -0.100565925
0002c0 52 87 17 3e bf af 5e 3e bf 93 87 3e fb fe d7 3d
       0.14797714 0.2174673 0.2647991 0.105466805
0002d0 d3 cf d2 3c d9 5d 1e 3d 58 0b 70 3d 99 bf 90 3e
       0.025733864 0.03866372 0.05860457 0.28271177
0002e0 3a 2b 3e bc 33 07 b4 3c fd 9f 59 be 93 36 21 ba
       -0.011606986 0.02197609 -0.21252437 -0.0006149795
0002f0 f6 a8 7e 3d b8 5e 3b 3b 49 ae 5f bd 59 dd 0a 3e
       0.062172852 0.0028590392 -0.05460957 0.13561
000300 17 f3 88 3d 8c 8d 90 bd 6d 6d 1d 3e 75 cd 6b 3e
       0.06686991 -0.07058248 0.15373774 0.23027594
000310 78 6c dc bd 40 e1 20 be 55 fd 2e be 3f 41 51 be
       -0.10762876 -0.15710926 -0.17088826 -0.20435046
000320 42 4d 47 3d 0f 70 c2 3c 68 bb c9 bd fc 1b b6 bd
       0.048657663 0.023735074 -0.09850198 -0.08892056
000330 4e 97 5b bc fa 34 b5 bc 4f 33 5a 3d e3 6b 87 3d
       -0.013402773 -0.022119988 0.053271588 0.06612375
000340 6e 03 ad 3c 7f 2c 87 bd 69 ac 28 3d 40 31 7d bc
       0.0211198 -0.06600284 0.04118005 -0.015453637
000350 74 9e f6 bc be 47 2b 3e 41 da df 3d b8 4f 9e 3c
       -0.030104853 0.16726586 0.109303005 0.019325122
000360 71 2a 5d bd 74 ec 6c 3d 49 b4 55 3e ed b9 80 bc
       -0.053995553 0.057842687 0.20869555 -0.015713656
000370 b8 7b ad bc 67 1c 95 3d de 1a be bd 6d ef 18 be
       -0.021177158 0.07280808 -0.09282468 -0.14935084
000380 1b 8a 53 3c 63 36 38 3d 02 ab 00 3d 2d 8c 11 3e
       0.012911345 0.044973742 0.031413086 0.14213629
000390 31 c7 4b 3e 07 3a 7c bb 37 3e b2 3d 61 f2 71 3d
       0.19900204 -0.0038486735 0.08703273 0.05906904
0003a0 d5 53 06 be c0 a6 24 bd 92 de c7 bc 1f 62 0d be
       -0.13117917 -0.040198088 -0.024398122 -0.13806961
0003b0 c9 57 12 be 8c a2 91 3d 43 12 85 bd 63 ea d4 bd
       -0.142913 0.071110815 -0.06497624 -0.10396268
0003c0 bf 93 8d bc 00 0b b3 3d c3 05 8c 3d f1 f9 c6 3d
       -0.017282365 0.087423325 0.068370365 0.09715641
0003d0 57 28 f8 3c f0 6d 45 bd 61 ab ac 3d ca cf 94 3d
       0.030292673 -0.048200548 0.084311254 0.07266195
0003e0 de 93 38 be 12 c2 26 3c c1 84 3c be 51 2c 15 bd
       -0.18025157 0.010178106 -0.18410017 -0.036419217
0003f0 24 03 53 be 4f 5d 2f be ee 6c ca bd 3c 18 8d bd
       -0.20606667 -0.17125438 -0.09884058 -0.06889388

classifier.0.bias f4 [128]
000000 de da 99 3c 61 b0 11 3d 51 2d 19 bd 47 68 b7 bd
       0.018781122 0.0355686 -0.037396733 -0.08955436
000010 69 37 14 be cd 0c ae bc 45 f1 6c bd 98 09 a7 bd
       -0.14474262 -0.021246338 -0.05784728 -0.08156127
000020 92 57 77 bd c8 e4 40 3d 7c f5 57 bd 97 10 a0 bc
       -0.060386248 0.047093183 -0.052724347 -0.01953916
000030 17 c6 4e bd 6c c8 00 be 5c fb e9 bd e7 7a 3a bd
       -0.050481882 -0.12576455 -0.11424896 -0.045527365
000040 ad 89 42 be b3 f7 f8 3d ea 28 0f 3e dd 69 9b bd
       -0.18997832 0.1215662 0.13980451 -0.07588551
000050 73 71 08 be 67 3d 88 bd 5e 1f a9 bc 81 53 ed bd
       -0.13324527 -0.066523366 -0.02064484 -0.11588193
000060 c9 e9 87 3c dc e9 f3 bd 78 34 34 3d 04 9b 22 be
       0.01659097 -0.119098395 0.04399535 -0.15879446
000070 b0 9c 49 3d c0 c2 09 bc d5 ef 82 bd 7e ca 8e bd
       0.049221694 -0.008408248 -0.063934006 -0.06972216
000080 67 b8 32 3d 17 e3 b6 bd c0 e8 37 3e 44 de c9 bd
       0.04363289 -0.08930033 0.17959881 -0.09856847
000090 3b 96 0f bd 6a 52 d6 3c fe 12 ae bd a9 41 0e be
       -0.03505538 0.026162345 -0.08499716 -0.13892235
0000a0 29 9a 1f bb c2 44 15 3e bc 85 b0 bd 22 14 3d bc
       -0.0024353361 0.1457701 -0.08619258 -0.011540445
0000b0 3a 70 83 bd fc e9 17 3c b6 db a8 3d bf 3a 2f be
       -0.0641789 0.009272095 0.082450315 -0.17112254
0000c0 d7 6c 49 bc 35 22 8d bd 55 2f e1 bd 53 3a 68 bd
       -0.012294016 -0.0689129 -0.10995356 -0.056696247
0000d0 b6 76 5c 3c 0c 01 89 3d 0d 0d d6 bc 8e 5d e7 bd
       0.013456037 0.06689653 -0.02612927 -0.11297141
0000e0 f7 7d 63 be c2 e3 8e 3d 90 0b 60 3d 54 e9 46 bc
       -0.2221602 0.06977035 0.054698527 -0.012140591
0000f0 c8 b7 86 be 40 df 7b 3d 6c 48 e2 bd fc 81 ca bd
       -0.2631209 0.061492205 -0.110489696 -0.09888074
000100 be 6d ce 3d 7a c7 77 bc d2 26 de bd 31 cf 4c bc
       0.100795254 -0.0151232425 -0.10847248 -0.01250057
000110 d9 34 28 3d 61 52 ae bd fd ca 15 bd 1a fc 6d 3d
       0.041066024 -0.08511806 -0.036570538 0.05810175
000120 79 7e 03 3e 99 9b a6 3d 5f 71 2b 3c 09 83 3c be
       0.12841214 0.08135147 0.0104640415 -0.18409361
000130 4c 0c e8 bb 98 05 f8 bd 7f f4 46 3e 64 09 fa 3c
       -0.007081544 -0.12110442 0.19429205 0.030522056
000140 50 5a 56 be a4 9b a0 bd d8 58 2a bd ca 9d 18 be
       -0.20932889 -0.07842186 -0.041588634 -0.14903942
000150 29 b3 6a bd b0 2d 1a 3e 95 f5 97 bd 65 79 ec bd
       -0.057299767 0.15056491 -0.07419888 -0.11546592
000160 25 08 59 bc 76 1c c6 3d 1b 93 2d be f2 cb ce bd
       -0.013246571 0.09673397 -0.16950648 -0.10097493
000170 84 7b 18 bd 6d f3 0b 3e b2 ea 87 bb 23 35 28 be
       -0.03722717 0.13667078 -0.004147851 -0.1642652
000180 85 be ce 3c e5 51 85 bb 5c 4f d4 3d 46 ca 3a 3e
       0.025237331 -0.0040686005 0.10366699 0.18241224
000190 5f ca 0f be 07 35 1f bd 30 96 34 3a d8 63 cc bd
       -0.14042042 -0.03886893 0.0006888835 -0.09979981
0001a0 44 84 fa 3d 52 2c b9 bd 14 1d 2d bd 83 af b2 bd
       0.12232259 -0.090416566 -0.04226406 -0.087248825
0001b0 74 5a cc bd 54 86 8b 3e a4 b3 9a bd b3 98 fc bd
       -0.0997819 0.27250922 -0.07553795 -0.123338126
0001c0 b9 a1 93 3d c5 78 12 be 59 f5 f6 bd 5a d7 b0 bd
       0.072085805 -0.14303882 -0.12058515 -0.08634825
0001d0 1d bd f0 bc 51 40 12 be 82 7d ac bd 93 49 9d 3d
       -0.029387051 -0.14282347 -0.08422376 0.07680049
0001e0 cd a3 3e 3d a0 12 cd bd 37 11 26 bd ef 3b 35 bd
       0.04654293 -0.10013318 -0.04054376 -0.04424661
0001f0 3a e3 a1 bd 56 d5 6a be 73 53 f6 bd ce a8 3f bd
       -0.07904668 -0.22932944 -0.120276354 -0.046791844
