SecondModel.pth (torch, 962177 bytes, 24 tensors)

feature_extract.0.weight f4 [32, 3, 5, 5]
0	0xbdabc3eb	-0.08386978
1	0x3d772eb4	0.060347274
2	0x3e0aa490	0.13539338
3	0xbbb4d0be	-0.005518048
4	0xbdfb845e	-0.122811064
5	0x3d09461c	0.033514127
6	0x3e5af9df	0.21384381
7	0x3d76888f	0.060188826
8	0xbe81c5bb	-0.2534617
9	0xbcf89d6a	-0.030348498
10	0x3e8bbd5a	0.272929
11	0x3d3519eb	0.04421417
12	0xbe842e4b	-0.2581657
13	0xbdadc0c2	-0.08484031
14	0x3c9ada78	0.018903002
15	0xbb12c6f5	-0.002239642
16	0xbd9d3801	-0.076766975
17	0xbd9d59c9	-0.07683141
18	0x3e05cc34	0.13066179
19	0xbd81cb4d	-0.06337605
20	0x3dbf2741	0.09333659
21	0xbd6e7f4f	-0.05822688
22	0x3e32cc11	0.17460658
23	0xbdf07e02	-0.11742784
24	0xbdbbcc37	-0.0916981
25	0xbd531ee3	-0.051543128
26	0xbbdfded4	-0.006831983
27	0x3e3d1e7b	0.18468659
28	0x3d7a27f2	0.06107325
29	0x3d35756d	0.04430144
30	0x3cdb75c7	0.026789559
31	0x3e31da46	0.17368421
32	0xbdae73ce	-0.08518182
33	0xbd9c8b6a	-0.076437786
34	0x398ca6d2	0.00026827172
35	0x3df6d617	0.12052553
36	0x3b980a20	0.004639879
37	0xbe9010de	-0.2813787
38	0x3dcb0f99	0.099150844
39	0x3e415c38	0.18882835
40	0x3d48e9e7	0.04905119
41	0xbe07d83b	-0.13266079
42	0x3d3fb08b	0.046799224
43	0x3e31eb2f	0.17374872
44	0xbd91587b	-0.070969544
45	0xbdddb480	-0.10825443
46	0x3cb37a7a	0.021908987
47	0x3da22188	0.07916552
48	0x3c16350b	0.00916792
49	0xbe11b7f7	-0.14230333
50	0xbd7446d9	-0.059637878
51	0x3c43f5b7	0.011960438
52	0x3ce38ea2	0.027777974
53	0xbce9d8a3	-0.028545683
54	0xbd752cd8	-0.05985722
55	0xbe274f63	-0.16338877
56	0x3dc876c6	0.09788279
57	0xbcb65cce	-0.02226105
58	0xbdfd6f68	-0.12374765
59	0x3d138a50	0.036020577
60	0xbc7bb00b	-0.015361796
61	0xbe045e35	-0.12926562
62	0xbe9ad68c	-0.3024181
63	0xbd82cca1	-0.06386686
64	0x3e77ddee	0.24205753
65	0xbe46c47a	-0.19410887
66	0xbe9bba33	-0.30415496
67	0x3ddd4cc4	0.108056575
68	0x3e7ad2f5	0.24494536
69	0x3e698e72	0.22808245
70	0xbdd5e944	-0.104448825
71	0x3d9dc3c3	0.07703354
72	0x3deb37b7	0.11485236
73	0x3e5300cd	0.20605774
74	0x3e179fb8	0.14807022
75	0x3d7f1468	0.06227532
76	0x3dc97027	0.098358445
77	0x3dde3abc	0.108510464
78	0xbe0266d8	-0.12734544
79	0xbd8b8435	-0.06812326
80	0x3c3640be	0.011123834
81	0x3d3dbdfa	0.046323754
82	0xbe3623e1	-0.17787124
83	0xbe3db1c0	-0.18524837
84	0x3e3daee7	0.18523751
85	0xbba13b10	-0.004920371
86	0xbd538821	-0.051643495
87	0xbccc100d	-0.024909997
88	0x3e5390a8	0.2066065
89	0x3e3ffaa0	0.1874795
90	0xbc14b25f	-0.00907573
91	0xbddbffc8	-0.10742146
92	0x3c36a1c3	0.011146965
93	0x3e287c83	0.16453747
94	0xbcd73a54	-0.02627293
95	0x3c7e46b2	0.015519785
96	0x3e0595dd	0.1304545
97	0x3bb781b2	0.0056001777
98	0x3d5479ec	0.051874086
99	0xbe39c92d	-0.18143149
100	0x3d1e126c	0.038591787
101	0x3e1efce3	0.15526156
102	0x3c199a4b	0.009375165
103	0x3bdaa6c6	0.006672713
104	0xbda971f7	-0.0827369
105	0xbbf25377	-0.0073952037
106	0x3d545f54	0.051848724
107	0xbe744865	-0.23855741
108	0xbe60443f	-0.21901034
109	0x3e1102fa	0.14161292
110	0x3d16c3ce	0.036807828
111	0xbe17a562	-0.14809182
112	0xbe1ed98a	-0.15512672
113	0x3db5b4a9	0.08872349
114	0x3e2678f1	0.16257073
115	0xbe316db0	-0.17326999
116	0xbe2120c1	-0.15735151
117	0x3de341b4	0.11096516
118	0x3d41c37b	0.047305565
119	0xbca85fc7	-0.020553483
120	0xbdad6133	-0.08465805
121	0xbd636dbd	-0.055524576
122	0x3cea7f5a	0.02862518
123	0xbdc51488	-0.09623057
124	0xbdc8fcc6	-0.09813838
125	0x3bd1bc95	0.0064006546
126	0xbd67b279	-0.05656669
127	0x3d74716d	0.059678484
128	0xbdd12e33	-0.1021389
129	0x3d833df2	0.064082995
130	0xbd39e25d	-0.045381892
131	0xbe1ecf86	-0.15508851
132	0xbe76f12c	-0.24115437
133	0xbe3f5742	-0.1868563
134	0x3e2a00cd	0.16601868
135	0xbe09da95	-0.13462289
136	0xbe94c17e	-0.29053873
137	0xbda7f2c9	-0.082006045
138	0x3e731e46	0.23742017
139	0x3e744382	0.23853877
140	0xbc873449	-0.016504424
141	0xbda895b7	-0.08231681
142	0x3e72b147	0.23700438
143	0x3e665a73	0.22495441
144	0x3d94a51b	0.07258054
145	0x3d33170f	0.043723162
146	0x3db8f14a	0.09030397
147	0x3e84fcf8	0.2597425
148	0x3d6b754d	0.057484914
149	0x3d47e6f7	0.04880425
150	0xbdd4875e	-0.10377382
151	0x3d83ffdd	0.064452864
152	0x3e0ed599	0.13948669
153	0x3dad2cf3	0.08455839
154	0x3e0eb29c	0.13935322
155	0xbc948a47	-0.018132342
156	0x3e1dd06f	0.15411542
157	0x3d9be13e	0.07611321
158	0xbd4ee710	-0.050513327
159	0x3db02b6f	0.08602034
160	0x3e366b9b	0.17814486
161	0x3dcaef96	0.09908979
162	0xbcd2b1ba	-0.025719512
163	0x3e094af5	0.134075
164	0x3e32f052	0.17474487
165	0x3db8a4db	0.09015819
166	0xbb847e85	-0.0040434026
167	0x3c403cff	0.011733293
168	0xb9bd87ae	-0.00036149978
169	0x3e1efc05	0.15525825
170	0xbda40cca	-0.08010252
171	0xbc3b4439	-0.01142984
172	0xbdcea7c5	-0.10090593
173	0x3d205e4b	0.039152425
174	0x3dcba001	0.09942628
175	0x3dc13830	0.09434545
176	0xbc65d583	-0.014027956
177	0xbdb533b6	-0.08847754
178	0xbd95dde9	-0.07317717
179	0xbe3c9f30	-0.184201
180	0xbdc11f51	-0.09429801
181	0x3e1e8144	0.15478998
182	0xbe2ea96b	-0.17056815
183	0xbe3c6095	-0.18396218
184	0xbe07f723	-0.13277869
185	0x3e696716	0.2279323
186	0x3e002a86	0.12516221
187	0xbd79754a	-0.06090287
188	0xbe812a87	-0.25227758
189	0xbceccd48	-0.02890648
190	0x3dabc1d4	0.08386579
191	0xbe0c8f97	-0.1372665
192	0xbe9fd423	-0.31216535
193	0xbdf5d7fb	-0.12004086
194	0xbd2a6881	-0.04160357
195	0xbd54b967	-0.051934626
196	0xbe14a063	-0.14514308
197	0xbdf479a2	-0.11937262
198	0xbd2af7d3	-0.04174025
199	0xbe01ba64	-0.12668759
200	0x3de035e8	0.10947782
201	0x3e719eb0	0.2359569
202	0x3e2dda81	0.16977884
203	0xbd5a7be3	-0.053340804
204	0xbd583d7e	-0.05279302
205	0x3e0d16ea	0.13778272
206	0x3da5755c	0.08079025
207	0x3c5be34a	0.013420889
208	0xbdae6d33	-0.08516922
209	0x3b2e8405	0.0026628983
210	0x3e7de102	0.24792865
211	0x3dba9b7e	0.09111689
212	0xbd804067	-0.06262284
213	0xbd7b1670	-0.061300695
214	0xbe02a1b0	-0.12756991
215	0x3d998084	0.074952155
216	0xbb7385e9	-0.0037158674
217	0xbe55d211	-0.20880915
218	0xbda66b7f	-0.08125972
219	0xbdd1ad7d	-0.102381684
220	0x3e14771c	0.14498562
221	0xbd66936e	-0.056292944
222	0xbded4ef1	-0.115873225
223	0x3d4a1733	0.04933853
224	0xbc1b78d2	-0.009489255
225	0xbd2e8d10	-0.042614996
226	0x3e4861ca	0.19568554
227	0xbe12a159	-0.14319362
228	0x3d4855ba	0.04890988
229	0x3d93b5b9	0.07212395
230	0x3d21ed97	0.039533224
231	0xbc34ff03	-0.011047128
232	0xbdee63f9	-0.11640162
233	0x3d4a8884	0.049446598
234	0x3ce8b61e	0.028407153
235	0x3c8d98e8	0.017284825
236	0xbd3c4cff	-0.045971867
237	0xbdfc6f37	-0.123259
238	0x3e56aeb8	0.20965087
239	0x3e5da956	0.21646628
240	0x3db389fb	0.08766552
241	0xbd594c1c	-0.0530511
242	0x3ce851a8	0.02835925
243	0x3e600f2b	0.21880786
244	0x3e02ab3c	0.12760633
245	0xbd8e0342	-0.06934215
246	0xbda70527	-0.081552796
247	0x3c86e034	0.01646433
248	0x3e330787	0.1748334
249	0x3e3649f3	0.17801647
250	0x3e05cc6f	0.13066266
251	0x3e1764c8	0.14784539
252	0xbe670e88	-0.22564137
253	0xbe55d565	-0.20882185
254	0xbe229830	-0.15878367
255	0x3db7e5a0	0.08979344

feature_extract.0.bias f4 [32]
0	0xbd984507	-0.07435041
1	0xbe243ea3	-0.16039519
2	0xbdefc7cf	-0.11708032
3	0xbddb4fa6	-0.10708551
4	0xbde8cf50	-0.11367667
5	0xbe0e727a	-0.13910857
6	0xbd9c9f1d	-0.07647536
7	0xbc4af437	-0.012387327
8	0xbce256a2	-0.0276292
9	0x3d848f87	0.06472688
10	0x3addb3e7	0.0016914577
11	0x3dbdd58e	0.09269248
12	0x3e26f69a	0.16305009
13	0x3d9849e7	0.07435971
14	0x3d98347a	0.07431884
15	0xbd5a79d9	-0.05333886
16	0x3d15f2c1	0.03660846
17	0xbc6b93ad	-0.01437847
18	0xbd6a85f4	-0.057256654
19	0xbd6dd6fe	-0.05806636
20	0xbc9072df	-0.0176329
21	0xbd8285e7	-0.06373196
22	0xbc86f4cc	-0.01647415
23	0xbccd26ef	-0.025042979
24	0xbc83cdf1	-0.016089411
25	0x3d3fe877	0.046852555
26	0xbd487db2	-0.048947997
27	0x3d00f1e6	0.031480692
28	0x3e03f6e9	0.12887157
29	0x3d7f57fc	0.062339768
30	0x3ce1e7ce	0.027576353
31	0xbca16485	-0.019701252

feature_extract.1.weight f4 [32]
0	0x3f966363	1.174908
1	0x3f955435	1.1666323
2	0x3f6673e8	0.9002061
3	0x3f3d50c0	0.7395134
4	0x3f78a842	0.9713174
5	0x3f95d333	1.1705078
6	0x3f814550	1.0099277
7	0x3fa34227	1.2754563
8	0x3fab818a	1.3398907
9	0x3fa121ed	1.2588478
10	0x3f5bc0e0	0.8584118
11	0x3f8df7ec	1.1091285
12	0x3f4c573c	0.7982061
13	0x3f52621a	0.8218094
14	0x3f3c0f71	0.7346106
15	0x3f7399b3	0.951564
16	0x3f706090	0.9389734
17	0x3f831776	1.0241535
18	0x3f6d871b	0.9278428
19	0x3f6d165e	0.92612255
20	0x3f7e07e4	0.9923079
21	0x3f62116e	0.88307846
22	0x3f818a38	1.0120306
23	0x3f7d013b	0.9883
24	0x3fac6c4a	1.3470547
25	0x3f918622	1.1369059
26	0x3f4da255	0.80325824
27	0x3f2e2f8b	0.68041295
28	0x3f58a6d8	0.84629583
29	0x3f973a4f	1.1814669
30	0x3f64ae50	0.8932848
31	0x3fb7c805	1.4357916

feature_extract.1.bias f4 [32]
0	0xbe5a8101	-0.21338274
1	0xbe20c31b	-0.15699427
2	0xbde2d92f	-0.11076581
3	0xbe3276f4	-0.1742819
4	0xbd76908d	-0.060196448
5	0xbe737761	-0.23776008
6	0xbe8eb27f	-0.27870557
7	0xbd9e95d9	-0.07743425
8	0xbe2d8c37	-0.16948019
9	0xbd585e14	-0.052824095
10	0xbd77676f	-0.060401376
11	0xbe2fc556	-0.17165121
12	0xbdf0a3f0	-0.117500186
13	0x3d086a17	0.0333043
14	0xbe23105d	-0.15924211
15	0xbe2b572c	-0.16732472
16	0xbdcb89bd	-0.09938381
17	0x3b5a40c6	0.0033302768
18	0xbca0b606	-0.019618046
19	0x3ce43d04	0.027861126
20	0xbcc26084	-0.023727663
21	0x3dd6d1ac	0.104892105
22	0xbe3abde7	-0.18236504
23	0xbd3f55bc	-0.046712622
24	0xbdda9bc1	-0.10674239
25	0xbe5d363c	-0.2160272
26	0x3d19fcd6	0.03759464
27	0xbdbeb053	-0.09310975
28	0xbe3d8b07	-0.18510066
29	0xbe5da652	-0.21645477
30	0xbdfd5631	-0.12369955
31	0xbdc78f66	-0.09744148

feature_extract.1.running_mean f4 [32]
0	0xbd926342	-0.07147838
1	0xbe18cc17	-0.14921604
2	0xbd8a6ca1	-0.067590006
3	0x3d739ab9	0.059473727
4	0xbdb4f703	-0.08836176
5	0xbde93d80	-0.11388683
6	0xbda34e5d	-0.07973931
7	0xbd8805c4	-0.06641725
8	0xbc9fef85	-0.019523392
9	0x3d5234c3	0.05131985
10	0x3cb63c42	0.02224553
11	0x3e1f0987	0.15530978
12	0x3e17e864	0.14834744
13	0xbdbdc739	-0.09266514
14	0x3e03dc07	0.12876903
15	0xbdc41f78	-0.09576315
16	0xbc0ba479	-0.0085231
17	0xbd3ff60b	-0.046865504
18	0xbd338f9a	-0.04383812
19	0xbdbf64b1	-0.09345377
20	0xbbc69be4	-0.006061064
21	0xbd8f3e8a	-0.0699435
22	0x3b6dad6e	0.0036266702
23	0xbd392548	-0.04520157
24	0xbd320907	-0.04346564
25	0x3d8c4db2	0.06850757
26	0xbde6c36d	-0.11267743
27	0x3e2409bb	0.16019337
28	0x3e1856a7	0.14876805
29	0x3d933ec6	0.071897075
30	0x3d1d9253	0.038469624
31	0xbcb5f656	-0.022212189

feature_extract.1.running_var f4 [32]
0	0x3ef97255	0.4872004
1	0x3f926b60	1.1439018
2	0x3fdbb4d6	1.7164562
3	0x407532b9	3.8312209
4	0x3f79e11a	0.976091
5	0x3ec600af	0.38672397
6	0x3f21c3c6	0.6318935
7	0x3fc00f5b	1.5004686
8	0x3f18f1b4	0.5974381
9	0x3f24a222	0.64309895
10	0x3f600ea1	0.8752232
11	0x3fdd5d6d	1.7294136
12	0x3f535fdc	0.82568145
13	0x40bc8d42	5.8922434
14	0x3f9f6d2a	1.2455189
15	0x3f68914d	0.9084671
16	0x3f9affb4	1.2109284
17	0x3fb6fea5	1.4296461
18	0x3f55a264	0.83450913
19	0x3f18916d	0.595969
20	0x40818a2e	4.0481176
21	0x3f6d8571	0.9278174
22	0x3f17b5fb	0.59262055
23	0x3ec9afe7	0.39392015
24	0x3f3d1cd1	0.73872095
25	0x3ed3e9d5	0.41389337
26	0x4057da6c	3.3727064
27	0x4096d9f8	4.7141075
28	0x3f36b6c5	0.71372634
29	0x3eec4ff9	0.46154764
30	0x3f5f9791	0.87340647
31	0x3e877ddd	0.26463214

feature_extract.3.weight f4 [64, 32, 5, 5]
0	0x3ce0fe80	0.027465105
1	0x3bda8f9b	0.006669951
2	0xbd052365	-0.032504458
3	0xbd6577a5	-0.056022305
4	0xbbf4003d	-0.0074463175
5	0xbe26824e	-0.16260645
6	0xbe47757b	-0.19478409
7	0xbe1e1f2d	-0.1544158
8	0xbdaf7e60	-0.08569026
9	0xbcecfdcd	-0.028929615
10	0xbd9da14b	-0.0769678
11	0xbe6a53b4	-0.22883493
12	0xbe9cd421	-0.30630592
13	0xbe22c332	-0.15894774
14	0x3bb7122d	0.0055868835
15	0xbe111ba3	-0.14170699
16	0xbd1c3e85	-0.03814556
17	0xbd99cfd8	-0.07510346
18	0xbe132b9e	-0.14372107
19	0xbe328deb	-0.1743695
20	0x3d78e4eb	0.06076519
21	0x3e0bc13a	0.13647929
22	0x3da9aa0b	0.08284386
23	0xbd1921f4	-0.037385896
24	0xbdba3259	-0.09091634
25	0xbc0c4125	-0.008560454
26	0x3d57e6e2	0.05271042
27	0xbd9e5dbc	-0.07732722
28	0xbd92a32a	-0.07160027
29	0xbe01546f	-0.12629865
30	0xbd756fea	-0.059921183
31	0xbd215966	-0.039391898
32	0x3ceee54d	0.029162074
33	0x3d09509d	0.033524144
34	0xbd109aee	-0.035304002
35	0xbde7c5d9	-0.11317033
36	0xbd987179	-0.07443518
37	0xbe345645	-0.17611034
38	0xbc8f432c	-0.017488085
39	0xbc6ff6c2	-0.014646234
40	0xbe52c2a4	-0.20582062
41	0xbdbfac8f	-0.09359085
42	0xbdb7f549	-0.08982331
43	0xbda9336c	-0.08261761
44	0xbda6274b	-0.08112963
45	0x3d1e9ea3	0.038725507
46	0x3e1f29ca	0.15543285
47	0x3d672090	0.05642754
48	0xbe142b1f	-0.14469574
49	0xbe50e398	-0.2039932
50	0xbb6c7b5a	-0.0036084265
51	0x3dbbb099	0.09164543
52	0x3c8f45ba	0.017489303
53	0xbd88d05c	-0.066803664
54	0xbd921e11	-0.07134641
55	0x3cb13131	0.021629902
56	0x3d69bb68	0.05706349
57	0x3bbc973c	0.005755333
58	0x3d3d2c4a	0.046184815
59	0xbcd5bd36	-0.0260912
60	0xbc005d18	-0.007834695
61	0xbd7076c9	-0.058707032
62	0xbd2c41b0	-0.042054832
63	0x3d58574a	0.05281762
64	0xbc911557	-0.017710371
65	0x3d0bfa10	0.034174025
66	0xbc653032	-0.013988541
67	0x3c862cd2	0.016378794
68	0xbd5df505	-0.054188747
69	0xbd9835cb	-0.07432135
70	0xbd6422c3	-0.055697214
71	0xbd46f5d7	-0.048574295
72	0xbce3f656	-0.027827423
73	0xbd4b740d	-0.04967122
74	0xbd3b50c7	-0.045731332
75	0x3e015f6f	0.12634061
76	0x3dd14939	0.10219044
77	0x3e01e511	0.12685038
78	0xbb69a397	-0.0035650486
79	0xbd521d75	-0.051297624
80	0x3e39af7b	0.18133347
81	0x3e3bedf7	0.18352495
82	0x3e70deaa	0.2352244
83	0x3e4b17b6	0.19833264
84	0x3e04fa7b	0.12986176
85	0x3e79e13b	0.24402325
86	0x3e3563b1	0.1771381
87	0x3e8329bd	0.2561778
88	0x3e74abf7	0.23893724
89	0x3ddf67b2	0.1090845
90	0x3dfe030b	0.12402924
91	0x3e0a9b65	0.13535841
92	0x3e255ed7	0.1614946
93	0x3e33d280	0.17560768
94	0x3e058d46	0.13042173
95	0x3d29a9f4	0.041421846
96	0x3da14cfe	0.07876013
97	0x3dd5a762	0.10432316
98	0x3cb793b4	0.022409298
99	0x3dcd1a4e	0.10014783
100	0xbc8e1020	-0.017341673
101	0x3b430412	0.0029757065
102	0xbc4c03f3	-0.012452113
103	0x3d0f2ea4	0.03495659
104	0x3d8ba88c	0.06819257
105	0x3e3dddb3	0.18541603
106	0x3e87f3e1	0.26553252
107	0x3de30f1e	0.11086868
108	0x3d1ee2f5	0.03879066
109	0x3cde6a5e	0.02715033
110	0x3e263c2b	0.1623389
111	0x3dce7a51	0.10081924
112	0x3cf60205	0.03003026
113	0x3d907f55	0.07055537
114	0x3dd5acdb	0.1043336
115	0x3d379aa2	0.044825204
116	0x3e3db6ce	0.18526766
117	0x3e8a6eef	0.2703776
118	0x3e5416e2	0.20711854
119	0x3c7b9b64	0.015356872
120	0xbcbdcfdb	-0.023170402
121	0x3cfa1042	0.03052533
122	0x3de856b5	0.11344663
123	0x3df64332	0.12024535
124	0x3dea058a	0.11426838
125	0xbd7ef5f3	-0.062246274
126	0xbd54d454	-0.051960304
127	0x3ccbb7b0	0.024867862
128	0x3c4a69cb	0.012354325
129	0xbc8a6d48	-0.016897812
130	0x3c8b1003	0.016975408
131	0xbd8a0549	-0.06739289
132	0xbc920f01	-0.01782942
133	0xbb8b56fe	-0.0042523136
134	0x3d4007fd	0.04688262
135	0x3d86a2a0	0.06573987
136	0x3d2b874b	0.041877072
137	0xbd10e3da	-0.035373546
138	0xbe0ee201	-0.13953401
139	0xbdae5ef0	-0.08514202
140	0x3d74862c	0.05969827
141	0x3dd9712c	0.10617289
142	0x3e7e39f8	0.24826801
143	0x3e04f14c	0.12982672
144	0xbcd1bd65	-0.025603006
145	0xbd8d26f2	-0.06892194
146	0x3c10e980	0.008844733
147	0x3db15734	0.08659211
148	0xbc615e5c	-0.013755407
149	0xbde367c7	-0.11103778
150	0xbd298f21	-0.041396264
151	0x3ca031e4	0.01955504
152	0x3df1b051	0.11801208
153	0x3bfca36b	0.0077099106
154	0x3d9c7f47	0.07641464
155	0xbda77dd7	-0.08178299
156	0x3b8ff053	0.0043926626
157	0x3b82fdc6	0.0039975373
158	0x3dbf6abc	0.0934653
159	0x3e09c17e	0.13452718
160	0xbdadf7ef	-0.08494555
161	0xbd25356d	-0.040334154
162	0xbd6797f3	-0.056541394
163	0x3b2034bd	0.0024445497
164	0xbda01dd3	-0.078181885
165	0xbdd45c3a	-0.10369153
166	0xbdbd7688	-0.09251124
167	0xbd32dc7d	-0.043667305
168	0xbcfa9c5e	-0.03059214
169	0xbd6e9052	-0.058243103
170	0xbd6d819d	-0.057984937
171	0x3d44487c	0.04792069
172	0xbe0c363a	-0.13692561
173	0xbe2b8612	-0.16750363
174	0xbdffa827	-0.124832444
175	0x3c741c11	0.01489927
176	0x3d490326	0.04907527
177	0x3d9d3dfc	0.07677838
178	0x3bad4c5f	0.005288645
179	0x3bdd5de3	0.006755577
180	0x3d6a0baf	0.05714005
181	0x3d6961b2	0.056977935
182	0xbb8868bc	-0.004162876
183	0xbd20922c	-0.0392019
184	0x3d36c024	0.044616833
185	0x3d7f67d9	0.062354896
186	0xbc4f6243	-0.012657705
187	0x3c5595a7	0.013036168
188	0xbd0a9fc7	-0.03384378
189	0x3c4c7967	0.012480116
190	0xbd12e6d8	-0.03586468
191	0xbd927895	-0.071519054
192	0x3b9ef992	0.0048515284
193	0xbcab595a	-0.02091663
194	0x3c0e1e55	0.008674224
195	0x3c14a2d9	0.009072029
196	0x3bff9008	0.0077991523
197	0x3db2ff01	0.087400444
198	0xbda9b99c	-0.08287355
199	0xbe0ffa62	-0.14060357
200	0x3b9bd672	0.0047557885
201	0x3de2936f	0.11063277
202	0x3ae94664	0.0017797467
203	0x3d22fa6b	0.0397896
204	0x3dcd12a0	0.10013318
205	0x3da23163	0.07919576
206	0x3d2ac155	0.041688282
207	0x3e00c8fb	0.12576668
208	0x3b11afd4	0.0022230046
209	0xbca66465	-0.020311544
210	0x3d0886c7	0.03333166
211	0x3e011a3a	0.12607661
212	0xbceaeb0f	-0.028676538
213	0x3d6d64fd	0.057957638
214	0x3dc59eab	0.09649404
215	0xbda48eb7	-0.08035033
216	0x3dcbfae3	0.09959962
217	0x3eab7918	0.33490825
218	0x3e4bd897	0.19906841
219	0x3db12e59	0.08651418
220	0xbccfdebc	-0.025374763
221	0x3d85e129	0.065370865
222	0x3d551411	0.05202109
223	0x3e24e459	0.16102733
224	0x3dc4098a	0.09572132
225	0xbd35e197	-0.044404592
226	0xbdfdfbbf	-0.124015324
227	0x3d913491	0.07090104
228	0xbd0c7fca	-0.034301557
229	0x3e0006f9	0.1250266
230	0xbdc39cdc	-0.09551403
231	0xbe540419	-0.20704688
232	0xbd5a0d56	-0.053235374
233	0xbd9bd20a	-0.07608421
234	0x3cf06d16	0.029348891
235	0xbe33530c	-0.17512149
236	0xbdae364b	-0.08506449
237	0x3c3c325a	0.011486614
238	0xbe3028f7	-0.17203127
239	0xbdac52e5	-0.084142484
240	0xbe77bcc4	-0.24193102
241	0xbe0a8ee0	-0.13531065
242	0xbd73683a	-0.05942557
243	0xbe20b590	-0.1569426
244	0xbe3d8c65	-0.18510588
245	0xbe1c961f	-0.15291642
246	0x3cbb3212	0.022851024
247	0xbda8d55b	-0.08243819
248	0xbdd7f935	-0.10545579
249	0xbe81fd14	-0.25388396
250	0x3ca2a97a	0.019856203
251	0x3cc4396c	0.023953162
252	0xbc830e6b	-0.015998086
253	0xbde04a24	-0.10951641
254	0xbd3916ee	-0.045187883
255	0x3cc790e1	0.024361076

feature_extract.3.bias f4 [64]
0	0xbc941702	-0.018077377
1	0xbcfa23e4	-0.030534692
2	0xbcffe95e	-0.031239208
3	0xbb5617dc	-0.003266803
4	0x3ca70e18	0.020392463
5	0x3c264367	0.010147906
6	0x3b3edbe5	0.0029122767
7	0xbc6f65d4	-0.01461168
8	0xbb2ec2a7	-0.0026666315
9	0xbd03c89e	-0.032173745
10	0x3d28510b	0.041092914
11	0xbb81033e	-0.003937154
12	0x3d12313b	0.03569148
13	0x3c4e2b4c	0.012583565
14	0xbcecd58d	-0.028910423
15	0xbbdcea4a	-0.0067417966
16	0x3c2dfee5	0.010619854
17	0xbcd32353	-0.02577368
18	0x3cb809d2	0.02246562
19	0xbd306348	-0.043063432
20	0xbc88e9c4	-0.01671303
21	0xbb9c7b31	-0.0047754277
22	0x3c36c0f3	0.011154401
23	0xbbe08e99	-0.0068529365
24	0x3c1e06ee	0.009645207
25	0x3c206ccc	0.009791564
26	0x3d06f867	0.03295174
27	0x3c9fa628	0.01948841
28	0x3c47862e	0.012177987
29	0x3c9a9088	0.018867746
30	0xbbcb5160	-0.006204769
31	0xbbe4e7f8	-0.0069856606
32	0x3d00e26a	0.031465925
33	0xbc178c18	-0.00924971
34	0x3c63ea37	0.013910822
35	0xbcd01cf5	-0.025404433
36	0xbcc8ab8e	-0.024495866
37	0xbcd92749	-0.02650799
38	0x3c99ae62	0.01875991
39	0x3c413531	0.011792467
40	0xbb0a515e	-0.0021105628
41	0xbcb64f45	-0.022254596
42	0x3bfc82f1	0.007706039
43	0x3c5e406e	0.013565166
44	0x3c1b78e6	0.009489274
45	0x3d2407c6	0.040046476
46	0x3cb98edc	0.022651128
47	0xbcc6d8fc	-0.024273388
48	0xbd362148	-0.044465333
49	0xbc91c20a	-0.01779272
50	0xbbf0d1af	-0.007349215
51	0x3c8c8590	0.017153531
52	0x3d104ab3	0.03522749
53	0xbcc20a71	-0.02368662
54	0xbcb83ca0	-0.022489846
55	0xbd0d2604	-0.034460083
56	0xbb684dbc	-0.0035446724
57	0xbcb97a6a	-0.02264138
58	0xbc93b1aa	-0.018029053
59	0xbced861c	-0.028994612
60	0xbce12e78	-0.027487978
61	0x3c4f12cc	0.012638759
62	0x3ad10bac	0.0015948913
63	0x3a98fab5	0.0011671396

feature_extract.4.weight f4 [64]
0	0x3f5db830	0.8660917
1	0x3f40af8c	0.75267863
2	0x3f805e01	1.0028688
3	0x3f908401	1.1290284
4	0x3f8bbcc7	1.0916985
5	0x3f685611	0.90756327
6	0x3f88604e	1.065439
7	0x3f9be02c	1.2177787
8	0x3f736820	0.9508076
9	0x3f84be40	1.037056
10	0x3f56ce5e	0.8390864
11	0x3f67d265	0.9055541
12	0x3f918ebd	1.1371685
13	0x3f5b182f	0.85583776
14	0x3f86046b	1.0470098
15	0x3f20c24f	0.6279649
16	0x3f9ba0a1	1.2158395
17	0x3f8aaaae	1.0833337
18	0x3f836e77	1.0268086
19	0x3f7a47b0	0.97765636
20	0x3f9169f8	1.1360464
21	0x3f9100f1	1.1328412
22	0x3f89b884	1.0759435
23	0x3f4dc590	0.8037958
24	0x3f83c99c	1.0295901
25	0x3f89e8c7	1.0774163
26	0x3f5aa339	0.8540531
27	0x3f6ca941	0.9244576
28	0x3f8752b9	1.057212
29	0x3f3712ec	0.7151325
30	0x3f8c681e	1.0969274
31	0x3f81f92d	1.0154167
32	0x3f45bbe3	0.7723982
33	0x3f7457b2	0.9544631
34	0x3f892f1d	1.0717503
35	0x3f6a510c	0.9152992
36	0x3f405b88	0.75139666
37	0x3f85a74f	1.0441684
38	0x3f8e7a51	1.1131078
39	0x3fa57466	1.2926147
40	0x3f4666ca	0.77500594
41	0x3f3e101a	0.7424332
42	0x3f688fdb	0.90844506
43	0x3f8ca3c0	1.0987473
44	0x3f7891a6	0.9709724
45	0x3f96875a	1.1760056
46	0x3f8e0d25	1.1097761
47	0x3f9033dc	1.1265826
48	0x3f9d12e6	1.2271392
49	0x3f951ce6	1.1649444
50	0x3f7386b2	0.95127404
51	0x3f69291c	0.9107835
52	0x3f32f6c4	0.69907784
53	0x3fa16bfe	1.2611082
54	0x3f51d0a7	0.81959003
55	0x3f82155c	1.0162768
56	0x3f955cb6	1.1668918
57	0x3f3563d5	0.70855457
58	0x3f839a5e	1.0281484
59	0x3f6938af	0.9110212
60	0x3f92bd5c	1.1464038
61	0x3f862e6b	1.0482916
62	0x3f40414e	0.7509965
63	0x3f6b3e1f	0.91891664

feature_extract.4.bias f4 [64]
0	0xbec1fefd	-0.37889853
1	0xbd8ba5ba	-0.06818719
2	0xbe8e3849	-0.27777317
3	0xbe144c33	-0.14482193
4	0xbe52a018	-0.20568883
5	0xbe445ba4	-0.19175583
6	0xbe8121fe	-0.25221246
7	0xbe85043a	-0.25979787
8	0xbea96d30	-0.33091116
9	0xbe4a177f	-0.19735526
10	0xbdfd74ab	-0.12375768
11	0xbe938851	-0.2881494
12	0xbeb73ed7	-0.3579013
13	0xbe8c1a1b	-0.27363667
14	0xbe6250d2	-0.22101143
15	0xbdee059b	-0.11622163
16	0xbe252035	-0.16125567
17	0xbe913723	-0.28362378
18	0xbe6b9fa1	-0.23010112
19	0xbe9f359d	-0.3109559
20	0xbe87f8d6	-0.26557034
21	0xbe442efc	-0.19158548
22	0xbe4a53f5	-0.1975859
23	0xbd932e19	-0.07186527
24	0xbe327e1e	-0.17430922
25	0xbe3fc9eb	-0.1872937
26	0xbea57a20	-0.32319736
27	0xbe7a974d	-0.24471779
28	0xbe81a70d	-0.25322762
29	0xbea69c21	-0.32540992
30	0xbde43654	-0.11143175
31	0xbe48882f	-0.195832
32	0xbe7cf50e	-0.24702856
33	0xbe5b4473	-0.2141283
34	0xbea99865	-0.3312408
35	0xbe848ac8	-0.25887132
36	0xbd676be2	-0.05649937
37	0xbe786c6f	-0.24260114
38	0xbe3041a5	-0.17212541
39	0xbe0c796d	-0.13718195
40	0xbe06bba7	-0.13157521
41	0xbe2afa55	-0.16697057
42	0xbee6d12b	-0.45081457
43	0xbed767ea	-0.42071468
44	0xbeb93a46	-0.36177272
45	0xbea0fec4	-0.3144437
46	0xbe9d4c27	-0.30722162
47	0xbe8aaee4	-0.27086556
48	0xbe9d3033	-0.30700836
49	0xbe663ce3	-0.22484164
50	0xbe954a06	-0.29158038
51	0xbec13e2e	-0.37742752
52	0xbe3c273b	-0.1837434
53	0xbe23c805	-0.1599427
54	0xbe8a1c1c	-0.2697457
55	0xbe12d6f8	-0.14339817
56	0xbe8216c4	-0.25407994
57	0xbe18ac25	-0.14909418
58	0xbdeab656	-0.11460559
59	0xbe45a6c1	-0.19301893
60	0xbe59dae1	-0.21274902
61	0xbe834e41	-0.2564564
62	0xbe3b2b51	-0.18278243
63	0xbdd03048	-0.10165459

feature_extract.4.running_mean f4 [64]
0	0xbfb3b54d	-1.4039704
1	0x3ee34360	0.4438734
2	0xc0265f02	-2.5995488
3	0xc074bf65	-3.8241818
4	0xc0961abb	-4.690763
5	0x3ed76b0e	0.42073864
6	0xc0b91e81	-5.7849736
7	0xc052e705	-3.2953503
8	0xc0452aec	-3.0807447
9	0xc1446f0e	-12.277113
10	0x40d7a9fe	6.739501
11	0xc0112a61	-2.2682116
12	0xc0103207	-2.2530534
13	0x3e938b00	0.28816986
14	0xc0368cdd	-2.8523476
15	0x40799609	3.8997824
16	0xbf2aaf91	-0.66674143
17	0xbfadb8fd	-1.3572079
18	0xc0bd9896	-5.924876
19	0x3ea95366	0.3307144
20	0xc0874f44	-4.228426
21	0xc03f6150	-2.9903145
22	0xc0831e7c	-4.097471
23	0xc10c501a	-8.769556
24	0xc0316a72	-2.772122
25	0xc051a7e9	-3.2758734
26	0xc0781a5c	-3.8766088
27	0xc0bea4c3	-5.9576125
28	0xbf10e962	-0.56606114
29	0xc02f5e7b	-2.7401416
30	0xbfa3b2c2	-1.2788928
31	0xc0a48ef0	-5.1424484
32	0x3fbf0c08	1.4925547
33	0xc073755e	-3.8040385
34	0xbee8fac1	-0.4550381
35	0xc011a05b	-2.2754123
36	0x40f90f55	7.7831216
37	0xbf06283b	-0.52405137
38	0xc08f4fb9	-4.478482
39	0xc03bab39	-2.9323256
40	0x410ae740	8.6814575
41	0xbff16b72	-1.8860915
42	0x3f06c246	0.5264019
43	0xc0a1d2cf	-5.0569835
44	0xc017aeea	-2.370051
45	0xbfed0281	-1.8516389
46	0xc072fa44	-3.796525
47	0xc01f4d80	-2.4891052
48	0xc06f7309	-3.7413962
49	0xc01d6d55	-2.459798
50	0xc068b349	-3.6359427
51	0xc01d183d	-2.4546044
52	0x3eba537d	0.36391822
53	0xbf984406	-1.1895759
54	0xc06fd516	-3.7473807
55	0xc093657e	-4.606139
56	0xc037cd6a	-2.8719125
57	0x3fa18c66	1.2620971
58	0xc1351efd	-11.3200655
59	0xbfd4e803	-1.6633304
60	0xc0a9226b	-5.2854514
61	0xbfb0f198	-1.3823729
62	0x3ee9dd30	0.45676565
63	0xbf5f0c7b	-0.8712842

feature_extract.4.running_var f4 [64]
0	0x42ace337	86.44378
1	0x41ffd310	31.978058
2	0x42a9ca95	84.89567
3	0x42458ab5	49.385456
4	0x42b157dc	88.6716
5	0x4235845d	45.37926
6	0x428aaa29	69.332344
7	0x426bdd98	58.9664
8	0x4281ff61	64.99879
9	0x42f2ea9a	121.458206
10	0x428462e5	66.19315
11	0x423cdfe7	47.218655
12	0x4251949a	52.39512
13	0x422341e4	40.814346
14	0x422692e5	41.64345
15	0x424cd6cd	51.209766
16	0x424040ba	48.06321
17	0x422812db	42.018414
18	0x42aab126	85.34599
19	0x4232fbe6	44.745995
20	0x4287aca5	67.8372
21	0x426c1375	59.019
22	0x42698bb1	58.386417
23	0x42c7e289	99.94245
24	0x42895760	68.670654
25	0x42933008	73.59381
26	0x4236e3ab	45.722332
27	0x429721ff	75.5664
28	0x42590873	54.25825
29	0x42a71bd3	83.554344
30	0x423ca3f9	47.16013
31	0x4290fa89	72.48933
32	0x4248c870	50.19574
33	0x421583e9	37.37882
34	0x4280fa95	64.48942
35	0x42be036f	95.00671
36	0x42c28529	97.26008
37	0x42489dbe	50.154045
38	0x42979a16	75.80095
39	0x4237003c	45.75023
40	0x4278f1fc	62.236313
41	0x4251d4d1	52.45783
42	0x4284b106	66.34575
43	0x42a12ab4	80.583405
44	0x4258a0b2	54.15693
45	0x426a1c74	58.527786
46	0x428d055f	70.51049
47	0x42550d6b	53.263103
48	0x4275b831	61.429874
49	0x42852f27	66.592094
50	0x428fb686	71.85649
51	0x42471ecb	49.78007
52	0x42e91fb4	116.56192
53	0x4230fbc8	44.24588
54	0x42454edc	49.32701
55	0x42901414	72.039215
56	0x42751bc0	61.2771
57	0x422e9f68	43.65567
58	0x42ca0d1d	101.02561
59	0x426e8763	59.632214
60	0x427d8dda	63.388527
61	0x424a09ad	50.50945
62	0x42a8dae7	84.42754
63	0x4272b34d	60.6751

feature_extract.6.weight f4 [32, 64, 3, 3]
0	0x3deb8f5f	0.11501955
1	0x3e3c741c	0.18403667
2	0x3e2f946b	0.1714646
3	0x3de25785	0.11051849
4	0x3d014fa8	0.031570107
5	0xbb552958	-0.0032525863
6	0x3da11c25	0.07866696
7	0x3ce25a3c	0.027630918
8	0xbcd76cd1	-0.026297005
9	0x3d9d56f8	0.076826036
10	0x3c8a2269	0.016862111
11	0xbd345ddd	-0.044034828
12	0x3d8b4f11	0.0680219
13	0x3d18bef7	0.037291493
14	0x3bb14e47	0.0054109427
15	0xbe650667	-0.22365724
16	0xbd606f7c	-0.05479382
17	0xbddfa642	-0.10920383
18	0x3c089232	0.008335637
19	0xbbafa71d	-0.0053604976
20	0xbd1c5e4c	-0.038175866
21	0x3dfad43d	0.122475125
22	0x3e06314e	0.13104746
23	0x3dcddf59	0.10052366
24	0xbde70bd9	-0.11281557
25	0xbdb7f18a	-0.08981617
26	0xbd5b188b	-0.053490203
27	0xbd5804d0	-0.052738965
28	0xbdbf3e6b	-0.09338077
29	0xbd12d4fb	-0.035847645
30	0xbe0c6579	-0.13710584
31	0x3e5f4721	0.21804477
32	0x3e601f9d	0.2188706
33	0xbe84b44a	-0.259188
34	0x3bd0dbdc	0.0063738655
35	0x3e05248e	0.13002226
36	0x3db6d0af	0.08926522
37	0x3d509aaa	0.05092875
38	0xbd8549b6	-0.065082
39	0xbd6997c4	-0.0570295
40	0x3d48a444	0.04898478
41	0x3bab6399	0.005230379
42	0x3d93c39a	0.072150424
43	0xbd9d6aaf	-0.07686364
44	0xbcf757f0	-0.030193299
45	0xbb83df67	-0.0040244344
46	0x3cbf3777	0.023341877
47	0x3ddc4419	0.10755176
48	0xbd74c477	-0.059757676
49	0xbcf1d5c5	-0.029520879
50	0xbdca9532	-0.09891738
51	0xbd1f9029	-0.03895584
52	0xbdf8e246	-0.12152533
53	0xbd9bf79f	-0.07615589
54	0xbd6e7c5d	-0.05822407
55	0xbe025e0c	-0.12731189
56	0xbb5e7856	-0.0033946238
57	0x3e6e84ed	0.23292895
58	0x3e1dd301	0.15412523
59	0x3d249e04	0.040189758
60	0x3e0c9cee	0.13731739
61	0x3ca8a13b	0.020584693
62	0x3cbd47a8	0.023105457
63	0xbde7a38b	-0.1131049
64	0xbc9bac55	-0.019003073
65	0xbd130978	-0.035897702
66	0x3e1c7338	0.15278327
67	0x3d4f4f2a	0.050612606
68	0xbd8c6a8f	-0.06856262
69	0x3e368dfd	0.17827602
70	0x3e2fbacc	0.17161101
71	0xbd101dd0	-0.03518468
72	0x3da93a75	0.08263103
73	0x3e0aaa42	0.1354151
74	0x3d8cc88a	0.06874187
75	0xbd6db985	-0.058038253
76	0x3cffee7c	0.031241648
77	0x3e0889a1	0.13333751
78	0x3d05a71b	0.032630067
79	0x3d3e5732	0.046469875
80	0x3de7d895	0.113206066
81	0xbd95d862	-0.07316662
82	0xbd55eb6a	-0.05222646
83	0xbc2488b9	-0.010042363
84	0xbde8b8ca	-0.11363371
85	0xbc00c85d	-0.00786027
86	0x3d601f90	0.0547176
87	0x3de8ec8e	0.11373244
88	0x3dfd30d1	0.123628266
89	0x3e26b71e	0.16280791
90	0xbd88afa4	-0.06674126
91	0xbd438da0	-0.047742486
92	0xb90a302c	-0.00013178651
93	0xbdb394fa	-0.087686494
94	0xbcc452e4	-0.023965307
95	0xbdfd1c4a	-0.12358911
96	0xbd0ba03b	-0.034088355
97	0xbd96a8b4	-0.07356396
98	0xbdda0ef9	-0.10647387
99	0xbe81e11d	-0.2536706
100	0xbe9bbc95	-0.30417314
101	0xbdec90e1	-0.11551071
102	0x3c2d5f42	0.010581793
103	0x3d341d99	0.04397354
104	0x3dab4a04	0.08363727
105	0x3e02ee84	0.12786299
106	0x3d8c1e48	0.06841713
107	0xbdb1849d	-0.08667872
108	0x3d3e0e4d	0.046400357
109	0x3ddad5dc	0.10685322
110	0x3d5e07e3	0.05420674
111	0x3e85e82d	0.261537
112	0x3cd8af89	0.02645089
113	0x3d1da1fe	0.038484566
114	0x3d0e5877	0.034752335
115	0xbd0418ce	-0.032250218
116	0xbc57791f	-0.013151436
117	0xbd1c34aa	-0.038136162
118	0xbd145a24	-0.036218777
119	0x3cf6cacb	0.030125996
120	0xbd3862f1	-0.045016233
121	0x3d8a9ffa	0.06768794
122	0x3dc1e140	0.09466791
123	0xbbafaba2	-0.0053610364
124	0xbd9d898f	-0.07692253
125	0xbd1cc37f	-0.038272377
126	0x3c6f4bc2	0.014605464
127	0xbd57c3e1	-0.05267704
128	0x3ca18d21	0.019720616
129	0xbca0a15c	-0.019608192
130	0x3d9b5320	0.07584214
131	0x3e0c8f6e	0.13726589
132	0x3c9eb028	0.019371107
133	0xbab8678e	-0.0014068948
134	0x3d253728	0.040335804
135	0xbd820bd9	-0.06349916
136	0xbd11a4c3	-0.03555752
137	0x3e0513d9	0.12995853
138	0x3cb2c6d4	0.021823324
139	0x3c55c157	0.013046584
140	0xbcda09e0	-0.026616037
141	0xbdb39c8f	-0.087700956
142	0xbe285502	-0.16438678
143	0xbe380d74	-0.17973882
144	0x3e9fe2cb	0.31227717
145	0x3ed88758	0.4229076
146	0x3e869701	0.26287082
147	0xbda19cf9	-0.07891268
148	0xbce5760d	-0.028010393
149	0xbe14b916	-0.1452373
150	0xbc6a071f	-0.014283924
151	0xbd3e6554	-0.046483353
152	0xbe3ec112	-0.18628338
153	0x3e36b17b	0.17841141
154	0x3dca1bbe	0.09868573
155	0xbce9ef6b	-0.028556546
156	0xbcd09700	-0.025462627
157	0x3dc4dde9	0.096126385
158	0x3da75fdb	0.0817258
159	0xbe046ed5	-0.12932904
160	0xbe32a2ee	-0.17444965
161	0xbd1573ee	-0.036487512
162	0xbdc3e3d5	-0.0956494
163	0xbcc1dc25	-0.023664543
164	0xbcf987ba	-0.030460227
165	0x3df91a75	0.121632494
166	0x3e382f71	0.17986847
167	0x3d5b53dc	0.05354677
168	0x3e78162e	0.24227211
169	0x3ea951b2	0.3307014
170	0x3e8424fe	0.25809473
171	0xbd4f2b59	-0.05057845
172	0x3d28a9fe	0.041177742
173	0x3dd0fca1	0.10204435
174	0xbe0487f1	-0.12942483
175	0xbda1ce8d	-0.079007246
176	0xbdafae9e	-0.085782275
177	0x3d048740	0.032355547
178	0xbd58ad16	-0.052899443
179	0xbe0e8383	-0.13917355
180	0xbdf87323	-0.121313356
181	0xbca7d87f	-0.020488976
182	0xbda572fb	-0.080785714
183	0x3e7625d7	0.24037872
184	0x3da43fe2	0.08019997
185	0x3dca1a17	0.098682575
186	0xbe0acd22	-0.13554814
187	0xbd96a8ac	-0.0735639
188	0xbd2e374e	-0.04253321
189	0xbd773e4d	-0.06036215
190	0xbdc076f3	-0.09397688
191	0xbe2c1d2d	-0.16808005
192	0xbe10165b	-0.14071028
193	0x3da79f25	0.08184651
194	0xbc333dee	-0.010940058
195	0x3d401691	0.04689652
196	0x3e5594fa	0.20857611
197	0xbd9d75fc	-0.07688519
198	0x3e3b7df2	0.18309763
199	0x3d2dfda2	0.04247821
200	0xbde9b9bb	-0.114123784
201	0x3deb2d5a	0.114832595
202	0x3e03ef54	0.12884265
203	0xbc4fab9e	-0.012675194
204	0xbd8cf31a	-0.068823054
205	0xbd6094b9	-0.054829333
206	0xbe048864	-0.12942654
207	0xbe09f76f	-0.13473295
208	0xbd3cfddd	-0.04614054
209	0x3d9fd478	0.07804197
210	0xbce6ca03	-0.028172499
211	0x3d096490	0.03354317
212	0x3d2c6e59	0.042097423
213	0x3e43ae80	0.19109535
214	0x3e9f904e	0.31164783
215	0x3e756a2e	0.23966286
216	0xbe209248	-0.15680802
217	0x3b2108b0	0.0024571829
218	0x3c0ba578	0.008523338
219	0xbcdd4a90	-0.027013093
220	0x3d3591f6	0.044328652
221	0x3d6809ff	0.056650158
222	0x3da121db	0.078677855
223	0x3d3d7dcb	0.046262544
224	0x3e47841d	0.19483991
225	0x3ba674bb	0.0050798333
226	0xbd7d3b0d	-0.061823893
227	0xbe417b72	-0.18894747
228	0xbdfbb7a1	-0.12290884
229	0x3dbc1db8	0.09185356
230	0x3e3328d3	0.17496042
231	0xbd939f6c	-0.07208142
232	0x3ccd4245	0.025056014
233	0x3da7f529	0.082010575
234	0x3c15df65	0.0091475
235	0x3da8b39e	0.08237384
236	0x3dc2b5cb	0.095073305
237	0x3cbd8203	0.023133283
238	0x3ce10669	0.027468877
239	0x3d6f0d20	0.058362126
240	0xbd900005	-0.07031254
241	0x3d2b761e	0.041860692
242	0x3cf79fa1	0.030227484
243	0xbdea26ec	-0.11433205
244	0xbdeacf66	-0.11465339
245	0x3c97c0c6	0.018524539
246	0xbc3d1c72	-0.011542426
247	0x3dd2a8ce	0.10286103
248	0x3d97282f	0.07380711
249	0x3e0f7ef4	0.14013273
250	0x3e4c9896	0.19980082
251	0x3d8ecc27	0.06972533
252	0x3cd1c587	0.025606884
253	0x3d70acfb	0.058758717
254	0xbcd84cb9	-0.026403772
255	0xbd7874fb	-0.060658436

feature_extract.6.bias f4 [32]
0	0xbd527d13	-0.05138881
1	0xbcaa64c4	-0.020800002
2	0xbbd8d144	-0.0066167433
3	0xbd01d0b6	-0.031693183
4	0xbb2204fa	-0.0024722205
5	0x3d2d0c42	0.042248018
6	0x3c0e04c6	0.00866813
7	0x3c991f4b	0.01869168
8	0x3d44616f	0.047944482
9	0x3d63426b	0.055483263
10	0xbc6e773d	-0.014554796
11	0xbcb821d6	-0.022477072
12	0xbcabddbe	-0.020979758
13	0xbb6bc6ab	-0.003597657
14	0x3d0e3733	0.03472061
15	0x3cc6957b	0.0242412
16	0x3bfaac94	0.0076499674
17	0x3c6e2ab6	0.01453655
18	0xbc49d214	-0.012318153
19	0xbd3998b9	-0.045311663
20	0xbce0ef31	-0.027457805
21	0x3d0fc87c	0.035103306
22	0xbc6cf741	-0.014463247
23	0xbd20d4b2	-0.039265342
24	0xba0e9d92	-0.000544035
25	0xbc18da94	-0.009329457
26	0xbcab75a9	-0.020930128
27	0x3cd581d2	0.02606288
28	0x3ced2b4c	0.02895131
29	0x3cfa088d	0.030521655
30	0x3d0c9812	0.034324713
31	0x3d0e8f38	0.034804553

feature_extract.7.weight f4 [32]
0	0x3f5cff1d	0.8632677
1	0x3f4a3039	0.7897983
2	0x3f72f7e0	0.9490948
3	0x3f55879c	0.8341005
4	0x3f4ce2f8	0.80033827
5	0x3f3af7d7	0.73034424
6	0x3f404ecd	0.7512024
7	0x3f3f473a	0.7471806
8	0x3f567ce7	0.83784336
9	0x3f520ff5	0.820556
10	0x3f64c78f	0.89367
11	0x3f59b2ff	0.8503875
12	0x3f66c801	0.9014893
13	0x3f54e014	0.83154416
14	0x3f56eed4	0.8395817
15	0x3f650a04	0.8946841
16	0x3f66011e	0.89845455
17	0x3f7502ad	0.9570721
18	0x3f4f61c3	0.8100855
19	0x3f46e4cc	0.77692866
20	0x3f3e8833	0.74426574
21	0x3f5fc1c0	0.87405014
22	0x3f6e301c	0.9304216
23	0x3f5b2802	0.8560792
24	0x3f4d427f	0.8017959
25	0x3f4a3c9a	0.7899872
26	0x3f67be63	0.9052488
27	0x3f56f51a	0.83967745
28	0x3f4fff64	0.8124907
29	0x3f4a7822	0.7908956
30	0x3f483709	0.78208977
31	0x3f64422f	0.8916349

feature_extract.7.bias f4 [32]
0	0xbf090923	-0.53529567
1	0xbea1b3ef	-0.3158259
2	0xbe9b374a	-0.3031562
3	0xbebf527c	-0.37367618
4	0xbe8f3ae6	-0.27974623
5	0xbeb48254	-0.35255682
6	0xbe773b7f	-0.2414379
7	0xbe81c4bd	-0.25345412
8	0xbe6516f8	-0.22372043
9	0xbeca87e0	-0.3955679
10	0xbec42684	-0.38310635
11	0xbeb5550a	-0.35416442
12	0xbf0f67ff	-0.5601806
13	0xbeaa3c21	-0.33249
14	0xbe92b1bb	-0.28651223
15	0xbeaf5ef6	-0.34252137
16	0xbed0bc6f	-0.40768763
17	0xbf12c119	-0.57325894
18	0xbe861ad5	-0.26192346
19	0xbead1cfd	-0.3381118
20	0xbeb13077	-0.34607288
21	0xbec52772	-0.38506657
22	0xbecd1fe9	-0.40063408
23	0xbec924db	-0.3928593
24	0xbeaef880	-0.34173965
25	0xbe7ec349	-0.24879183
26	0xbeb71b4a	-0.35763007
27	0xbee78ba3	-0.45223722
28	0xbebefab3	-0.37300643
29	0xbee40f37	-0.44542858
30	0xbeb79bd3	-0.35861072
31	0xbed57f67	-0.41698763

feature_extract.7.running_mean f4 [32]
0	0x3f1d583b	0.61462754
1	0xbfda4a36	-1.7053897
2	0x403faaf7	2.9948099
3	0xc0916410	-4.5434647
4	0xbf559be1	-0.8344098
5	0xc0b3e5dd	-5.6218095
6	0xc0efd97b	-7.495298
7	0xc1179d69	-9.47593
8	0xc06381be	-3.5547938
9	0xbe8cbca0	-0.2748766
10	0x407c1341	3.9386752
11	0x4044a6db	3.072684
12	0xbdfc7eda	-0.123288825
13	0xbf1986dc	-0.59971404
14	0x406d3969	3.706629
15	0x4004363d	2.0658104
16	0x3f76dd5a	0.96431506
17	0xc02eb3d2	-2.7297254
18	0xc10e5869	-8.8965845
19	0xbc16a729	-0.0091951275
20	0xbfe26c50	-1.7689304
21	0x401a414a	2.410235
22	0x3fc9ed61	1.5775567
23	0xc023695a	-2.5533051
24	0xbec29147	-0.38001463
25	0x401b5580	2.4270935
26	0x3ff20db0	1.8910427
27	0x3e82c113	0.2553793
28	0xbfafc671	-1.3732435
29	0xc0d675e0	-6.701889
30	0xc06e8b3d	-3.7272484
31	0x403c7a33	2.9449584

feature_extract.7.running_var f4 [32]
0	0x41eb67ef	29.425749
1	0x41ec107d	29.50805
2	0x41be942d	23.822351
3	0x41de9715	27.82377
4	0x42019d58	32.403656
5	0x41f2ac7f	30.334227
6	0x41e337a0	28.40216
7	0x41cbb66e	25.464077
8	0x41fad47f	31.353758
9	0x42413cde	48.30944
10	0x41ef87d3	29.94132
11	0x41be6756	23.800457
12	0x41dcd9be	27.60632
13	0x41ecf516	29.61967
14	0x420fbda6	35.935204
15	0x41f78a76	30.942608
16	0x41f8490e	31.035671
17	0x42061e00	33.529297
18	0x420abfbe	34.68725
19	0x41fea4a7	31.830397
20	0x41faac52	31.33414
21	0x420aa5b5	34.661823
22	0x420d2279	35.283665
23	0x420a355b	34.552105
24	0x420fe318	35.97177
25	0x42224f89	40.57767
26	0x41f6498c	30.785912
27	0x41eb5a48	29.419083
28	0x41f79a5f	30.950377
29	0x41d2248b	26.267843
30	0x4214ba5b	37.181988
31	0x41ca1b89	25.263445

classifier.0.weight f4 [256, 512]
0	0xbdf3ceb3	-0.11904659
1	0xbe062cc5	-0.13103016
2	0xbe329b84	-0.17442137
3	0xbc06fb3e	-0.008238612
4	0xbdbce334	-0.09223023
5	0xbe3dd19c	-0.18536991
6	0xbdbfe3c7	-0.09369617
7	0xbe29ca11	-0.16580988
8	0x3e141069	0.14459385
9	0x3ddd61ac	0.10809645
10	0x3d2e3510	0.042531073
11	0x3d97d15b	0.07412978
12	0x3d9b7990	0.075915456
13	0x3e58ab4e	0.21159098
14	0x3e396a7a	0.18107024
15	0x3df0b890	0.117539525
16	0x3e261f60	0.16222906
17	0x3d835869	0.06413347
18	0x3dc2dd8d	0.09514914
19	0x3cca9bb7	0.024732454
20	0x3d65908b	0.05604605
21	0x3b324bd0	0.0027205832
22	0xbd833d70	-0.06408203
23	0xbccabf98	-0.024749562
24	0x3d0f1a15	0.034936983
25	0x3d057da7	0.032590535
26	0xbdb7522c	-0.0895122
27	0xbd3e63d4	-0.046481922
28	0x3ce41a66	0.027844619
29	0x3dbfd71b	0.093672
30	0x3c9c2a92	0.019063268
31	0xbc843fef	-0.016143767
32	0x3bec00a0	0.007202223
33	0xbe13c772	-0.14431551
34	0xbe18650a	-0.14882293
35	0xbc200510	-0.009766832
36	0x3dce05cd	0.100597
37	0xbd77e916	-0.060525022
38	0x3d7bb009	0.061447177
39	0xbcc4997b	-0.023998966
40	0x3cfbd491	0.030741008
41	0xbcb9e481	-0.022691967
42	0xbc9fe44c	-0.01951804
43	0xbd7d23f8	-0.06180188
44	0xbcb1a0c3	-0.021683102
45	0xbd018266	-0.0316185
46	0xbcf8f1b4	-0.03038869
47	0xbd65eecc	-0.056135938
48	0xbd5233ec	-0.051319048
49	0x3d396574	0.04526277
50	0x3d990d09	0.074731894
51	0x3db96eac	0.09054312
52	0xbde5b4f8	-0.11216158
53	0xbe69f7ab	-0.22848384
54	0xbdd5ea9d	-0.104451396
55	0x3c9febc1	0.019521596
56	0xbe4a8f0f	-0.19781135
57	0xbe499174	-0.19684392
58	0xbd5de16c	-0.054170057
59	0xbd7e9d3e	-0.062161677
60	0xbdc9d16e	-0.09854399
61	0xbe2dd81e	-0.16976973
62	0xbe509e53	-0.20372896
63	0x3b7b989d	0.0038390525
64	0x3cdf6d48	0.027273789
65	0x3db575ff	0.088603966
66	0x3dded08f	0.10879623
67	0x3e0896ee	0.13338825
68	0x3d500222	0.050783284
69	0xbcf84ddc	-0.030310564
70	0x3df4bb17	0.11949747
71	0x3c20edc4	0.009822313
72	0x3d451326	0.048113964
73	0x3d58f208	0.052965194
74	0x3de20b99	0.11037368
75	0x3e15b555	0.14619954
76	0xbda7c80b	-0.08192452
77	0x3ba7a9b7	0.005116667
78	0x3d2bf9a5	0.041986126
79	0x3d3f5d1a	0.046719648
80	0xbdd2bff2	-0.10290517
81	0xbce87deb	-0.028380355
82	0xbdbb0727	-0.091322236
83	0x3d91d028	0.07119781
84	0xbda2a34f	-0.07941305
85	0x3d14905c	0.036270484
86	0xbd81ba0a	-0.06334312
87	0x3d82b920	0.06382966
88	0xbde84bd6	-0.113425896
89	0xbe2ab705	-0.16671379
90	0xbdd1b151	-0.102388985
91	0xbcbf9b7e	-0.023389574
92	0xbcd32b69	-0.025777536
93	0xbe56c311	-0.2097285
94	0xbd8101d8	-0.0629918
95	0x3cea1a87	0.028577102
96	0xbd23e678	-0.040014714
97	0xbca06e04	-0.01958371
98	0xbc98285c	-0.018573932
99	0x3d4afcfa	0.049557664
100	0x3dff42bc	0.124639004
101	0xbe0c2703	-0.13686757
102	0xbd51e4cc	-0.05124359
103	0x3e052e29	0.1300589
104	0x3d83a473	0.064278506
105	0x3c9e24b7	0.019304616
106	0x3bd2cdbf	0.0064332183
107	0xbc32989a	-0.010900641
108	0x3d99e495	0.07514302
109	0xbd3fb0e7	-0.046799567
110	0xbd771197	-0.06031951
111	0xbe50a3bf	-0.20374964
112	0x3dc1706e	0.094452724
113	0x3d140cd8	0.03614506
114	0x3e054f15	0.13018449
115	0x3e4d524e	0.20050928
116	0xbded5d3b	-0.11590048
117	0xbdb87310	-0.090063214
118	0xbd980af2	-0.07423963
119	0x3cf399e5	0.029736469
120	0xbda257ca	-0.07926901
121	0xbde6b66b	-0.11265262
122	0xbdee795b	-0.116442405
123	0x3c9f7689	0.019465702
124	0x3d5ddb62	0.054164298
125	0x3d2dc0c7	0.042420175
126	0xbd00cc81	-0.03144503
127	0x3c8ad05c	0.016945057
128	0xbdebd3f8	-0.11515039
129	0xbb70629a	-0.0036679865
130	0xbdf9b41f	-0.121925585
131	0xbe27fca9	-0.16404976
132	0xbd88d72a	-0.06681664
133	0x3d85095b	0.06495925
134	0xbd7a6bc4	-0.06113793
135	0x3c9dc72e	0.019260015
136	0xbe23b46d	-0.15986796
137	0xbd5f2ac1	-0.054484133
138	0xbdee2a57	-0.116291694
139	0xbd34be01	-0.044126514
140	0xbdba849d	-0.09107325
141	0x39248692	0.0001569039
142	0xbbc5cf2a	-0.006036659
143	0xbda84fff	-0.08218383
144	0xbd94f217	-0.072727375
145	0x3bed0af4	0.0072339717
146	0x3ddb01fb	0.10693737
147	0x3da61aae	0.081105575
148	0x3df9dcaf	0.12200295
149	0xbdf80f58	-0.121123016
150	0x3c117cfb	0.008879895
151	0x3e26445b	0.16237013
152	0xbd763e14	-0.060117796
153	0xbddbc5fd	-0.10731123
154	0x3d9b97fd	0.07597349
155	0x3a475df8	0.000760525
156	0xbd73f6a0	-0.05956137
157	0x3d221f50	0.039580643
158	0xbb1e1af8	-0.0024124961
159	0x3d535769	0.051597033
160	0xbe701c97	-0.23448406
161	0x3cbce9f7	0.023060782
162	0xbccb4d10	-0.02481702
163	0x3c4e9b06	0.012610203
164	0xbdf0adc5	-0.11751894
165	0x3df11852	0.11772217
166	0xbdaa1527	-0.08304816
167	0x3daf6c0a	0.08565529
168	0xbde9b157	-0.11410778
169	0x3d335a37	0.043787207
170	0x3c7bf53e	0.0153782945
171	0x3e118077	0.14209162
172	0xbdd2f8a6	-0.10301332
173	0xbdae4e02	-0.085109726
174	0xbe434525	-0.19069345
175	0xbdfa2759	-0.12214536
176	0xbe048867	-0.12942658
177	0xbd523ec7	-0.0513294
178	0x3e5c7913	0.21530561
179	0x3dd6ac5e	0.10482095
180	0x3c33b2a5	0.010967885
181	0x3d85d305	0.065343894
182	0xbb745a04	-0.0037285099
183	0xbd0ecdf2	-0.034864374
184	0xbbc5cfec	-0.006036749
185	0x3dc3acb9	0.095544286
186	0x3ea87410	0.3290105
187	0x3d5fa607	0.054601695
188	0xbe325dd2	-0.17418602
189	0xbcba533d	-0.02274477
190	0xbd80df6d	-0.06292615
191	0xbde968e4	-0.113969594
192	0x3cc91384	0.024545439
193	0x3e3c0798	0.18362272
194	0xbda4dfe3	-0.080505155
195	0xbe524843	-0.20535378
196	0x3b972ef5	0.004613752
197	0x3c40bf42	0.011764349
198	0xbe207d90	-0.15672898
199	0xbe4d4db1	-0.20049168
200	0xbb8d650b	-0.004315024
201	0xbc6c751c	-0.014432218
202	0x3daadb5c	0.08342621
203	0x3d87af3e	0.06625222
204	0x3e470c13	0.194382
205	0x3d539949	0.051659856
206	0x3d0ff46e	0.035145216
207	0x3e3d0955	0.18460591
208	0xbd819b97	-0.063285045
209	0xbb6363d5	-0.0034696956
210	0x3d7d1131	0.061783973
211	0xbe0a6f6d	-0.13519068
212	0xbd3cefd6	-0.046127163
213	0x3e0b9f0c	0.1363489
214	0x3e9ae166	0.3025009
215	0x3d5339ca	0.051568784
216	0x3d2a4919	0.041573618
217	0x3de5df36	0.11224215
218	0x3e1da939	0.15396585
219	0xbccc2169	-0.024918275
220	0x3ae37730	0.0017354246
221	0x3cc3da3c	0.023907773
222	0x3c34649b	0.011010314
223	0xbdd50f56	-0.10403316
224	0x3d2544d1	0.04034883
225	0x3dd9947d	0.10624025
226	0x3d9ea560	0.077463865
227	0xbd867441	-0.065651424
228	0x3dccfa77	0.1000871
229	0x3daef6a7	0.08543139
230	0xbe0f3fe0	-0.1398921
231	0xbdeab407	-0.11460119
232	0x3dda2c86	0.106530234
233	0x3e07907f	0.13238715
234	0x3e1c4930	0.15262294
235	0xbd71c62d	-0.059026886
236	0x3d182931	0.03714866
237	0xbd14ee20	-0.036359906
238	0xbde3aac8	-0.11116558
239	0xbdc87f27	-0.097898774
240	0xbc3ea394	-0.01163568
241	0xbdce04fe	-0.10059546
242	0x3e1cf22c	0.15326756
243	0x3dea4c80	0.114403725
244	0xbe0c4f01	-0.13702013
245	0xbe06be9c	-0.13158649
246	0xbdf813c3	-0.12113144
247	0x3de06b18	0.109579265
248	0x3e600bcc	0.218795
249	0xbc8fe9e5	-0.017567584
250	0x3def6d4f	0.11690771
251	0x3cbb8db0	0.02289471
252	0x3d7e4123	0.062073838
253	0xbde2e9b5	-0.11079732
254	0x3cfe95dc	0.031077318
255	0x3c5f8104	0.0136416

classifier.0.bias f4 [256]
0	0xbda41806	-0.080123946
1	0xbcac817d	-0.021057839
2	0xbb5476b4	-0.0032419385
3	0x3d18fc97	0.037350263
4	0xbcb148b2	-0.02164111
5	0x3d2143d6	0.039371334
6	0xbdc53311	-0.09628881
7	0xbe1f6260	-0.15564871
8	0xbd05f760	-0.03270662
9	0xbd706589	-0.05869058
10	0xbe575146	-0.21027097
11	0xbe045dde	-0.12926432
12	0xbe5c84e2	-0.21535066
13	0xbdf2b23b	-0.11850401
14	0xbc7d2975	-0.015451779
15	0xbe556d15	-0.20842393
16	0x3df60218	0.12012118
17	0xbdf3739b	-0.11887284
18	0xbe33af73	-0.17547397
19	0xbd599bb1	-0.053126995
20	0xbcd2f31c	-0.02575069
21	0xbc165149	-0.009174653
22	0xbd149b23	-0.036280762
23	0xbe378f77	-0.17925821
24	0xbd8518dc	-0.06498882
25	0x3dd41776	0.10356037
26	0xbe3eb0e5	-0.18622167
27	0x3d42270c	0.04740052
28	0xbdffcc0e	-0.12490092
29	0xbd598b71	-0.053111497
30	0xbd5909ab	-0.052987736
31	0xbdb98f8a	-0.09060581
32	0xbe078a3d	-0.13236327
33	0xbce81d58	-0.028334305
34	0xbb9ed589	-0.0048472327
35	0xbe26158d	-0.16219158
36	0xbc4a498b	-0.012346636
37	0xbd03af62	-0.03214968
38	0xbe583491	-0.21113802
39	0xbe0511c6	-0.12995061
40	0xbde5a84d	-0.112137415
41	0xbd84e651	-0.06489242
42	0x3d461d3d	0.048367728
43	0xbc8f8117	-0.01751761
44	0xbda85952	-0.082201615
45	0x3dd00499	0.10157127
46	0xbd5ba50c	-0.053624198
47	0x3d71384c	0.05889158
48	0xbdae4d27	-0.085108094
49	0xbdaebbcc	-0.08531913
50	0xbd39bcbc	-0.045346007
51	0xbe0fb3d6	-0.14033446
52	0xbd45353a	-0.048146464
53	0x3d24c4d1	0.04022676
54	0xbdc690bc	-0.09695575
55	0xbe7bcfb2	-0.24590948
56	0xbe160931	-0.14651944
57	0xbde8e308	-0.11371428
58	0x3c8b8f86	0.01703621
59	0xbe86bc80	-0.2631569
60	0xbe69f1cc	-0.22846144
61	0xbd37c86c	-0.04486887
62	0x3d38c60b	0.045110743
63	0xbe527299	-0.20551528
64	0xbdf4cbe2	-0.1195295
65	0x3d4aeeb6	0.04954406
66	0xbda025b5	-0.07819692
67	0x3e03c519	0.12868156
68	0xbdea4962	-0.11439778
69	0xbcb61c52	-0.022230301
70	0xbce79753	-0.0282704
71	0xbddca8ff	-0.10774421
72	0xbda1b8a2	-0.07896544
73	0x3dcf4ff7	0.10122674
74	0xbdb45288	-0.08804804
75	0xbe57a275	-0.21058066
76	0x3cfb182f	0.03065118
77	0xbdbf6b39	-0.09346623
78	0xbe1d3c6b	-0.15355079
79	0x3d44c017	0.048034754
80	0x3cce4f35	0.025184253
81	0xbd4af2e7	-0.049548056
82	0xbc6da6f9	-0.014505141
83	0xbd21fe81	-0.039549354
84	0xbe15d29c	-0.14631122
85	0xbda7249d	-0.0816128
86	0xbdea2f1b	-0.11434766
87	0x3d76c091	0.06024224
88	0xbde1264f	-0.10993635
89	0xbc62a7f1	-0.013833986
90	0x3d141519	0.036152933
91	0xbdafdcce	-0.08587037
92	0xbe230644	-0.15920359
93	0xbe05e09a	-0.1307396
94	0xbe01f72a	-0.12691942
95	0xbdb48915	-0.08815209
96	0x3d0eba76	0.03484579
97	0x3e1154ec	0.14192551
98	0xbe3c42cd	-0.18384857
99	0x3d564288	0.052309543
100	0xbd340b13	-0.043955874
101	0xbe316d05	-0.17326744
102	0xbda45037	-0.08023112
103	0x3ccaa6c5	0.024737725
104	0x3d23cb07	0.039988544
105	0x3d9d7a1b	0.076893054
106	0xbce124a6	-0.027483296
107	0xbdfb9118	-0.12283534
108	0xbd2af2bd	-0.0417354
109	0xbe5c6e9d	-0.2152657
110	0x3d351bb6	0.04421588
111	0x3de09e37	0.10967677
112	0x3be22fc4	0.0069026668
113	0xbdd0a2d9	-0.10187311
114	0xbd37707b	-0.044785004
115	0xbd73446d	-0.059391428
116	0xbc39e3fd	-0.011345861
117	0xbe1ae8d7	-0.15127884
118	0xbd38b246	-0.04509189
119	0xbd32fc52	-0.043697663
120	0xbe58eff3	-0.21185283
121	0xbe581b00	-0.2110405
122	0x3ae024da	0.0017100826
123	0x3db70f1e	0.0893843
124	0x3e301ed4	0.1719926
125	0xbe41afec	-0.18914765
126	0x3df2020a	0.11816795
127	0xbd91f900	-0.07127571
128	0xbd7412b6	-0.059588157
129	0xbdc13b5f	-0.09435152
130	0x3d5c8b75	0.053843934
131	0xbcf74dd1	-0.030188473
132	0x3cbf1bef	0.02332875
133	0x3e26ae0e	0.16277334
134	0xbdef1ccf	-0.11675417
135	0x3d8efcde	0.06981824
136	0xbd68b795	-0.056815702
137	0xbcbd2e85	-0.023093471
138	0xba8b4177	-0.0010624368
139	0x3c0f617c	0.008751269
140	0xbe541f2f	-0.2071502
141	0xbb04c54a	-0.0020259195
142	0x3d8326ce	0.06403886
143	0xbe2100fa	-0.15723029
144	0xbdadaaed	-0.08479867
145	0xbe36a80f	-0.17837547
146	0xbdd0c15a	-0.10193129
147	0xbd9ec839	-0.07753033
148	0xbe66e128	-0.22546828
149	0x3cecf0ff	0.02892351
150	0xbdcfa513	-0.10138907
151	0x3c6cc7a0	0.014451891
152	0xbdd2c873	-0.10292139
153	0xbdc996c6	-0.09843211
154	0xbcb3e786	-0.021960985
155	0xbe01d92a	-0.12680498
156	0x3c7ddcea	0.015494565
157	0xbaf00f40	-0.0018315092
158	0xbe1ac3d4	-0.15113765
159	0xbd8c385e	-0.06846689
160	0x3cc999b7	0.02460943
161	0x3c8fca64	0.017552562
162	0xbd9cadfe	-0.07650374
163	0xbde6216b	-0.11236843
164	0x3d99eccc	0.075158685
165	0x3ac89efc	0.001530617
166	0xbd34eb05	-0.044169445
167	0x3e5244e1	0.20534088
168	0xbcdc3c36	-0.02688418
169	0xbe0fad51	-0.14030959
170	0xbdfc7698	-0.123273075
171	0xbbc89d75	-0.006122286
172	0xbd271f13	-0.04080112
173	0x3d16ccc9	0.036816392
174	0xbdb56a95	-0.088582195
175	0xbe3632f7	-0.17792879
176	0xbda5215c	-0.080630034
177	0xbd44b470	-0.04802364
178	0x3e356d11	0.17717387
179	0xbddc3b46	-0.10753493
180	0x3e17c542	0.14821342
181	0xbe08d57c	-0.13362688
182	0x3d0b88ce	0.034066014
183	0xba97aa66	-0.0011571168
184	0xbdc909fb	-0.09816357
185	0xbda4c569	-0.080454655
186	0xbd0b56a2	-0.034018166
187	0xbe3e7aa7	-0.18601476
188	0xbded209c	-0.11578485
189	0xbe1fa6b2	-0.15590933
190	0xbe202dfb	-0.1564254
191	0xbe1dae9f	-0.15398644
192	0xbca23693	-0.019801414
193	0xbe05733f	-0.13032244
194	0x3d961502	0.07328226
195	0xbc976f49	-0.018485682
196	0xbd7b87aa	-0.061408676
197	0xbcd726c1	-0.026263596
198	0xbd2b68a7	-0.04184785
199	0xbcbd4088	-0.02310206
200	0xbe0e286b	-0.13882606
201	0x3d31b6d0	0.043387234
202	0xbd61a37e	-0.05508756
203	0x3db7746d	0.08957753
204	0xbe2fc3e5	-0.17164572
205	0xbe59074a	-0.21194187
206	0xbd7d1a6d	-0.06179278
207	0xbc872af8	-0.016499981
208	0x3d0419b3	0.03225107
209	0xbd9d922f	-0.07693898
210	0x3bdafe82	0.0066831717
211	0x3db4963d	0.08817718
212	0xbcbdb0d8	-0.023155615
213	0x3d80f8b6	0.06297438
214	0xbca9bcf5	-0.020719985
215	0x3dde8938	0.10866016
216	0x3c8a05cd	0.01684847
217	0xbcbb987e	-0.022899862
218	0xbd1e3619	-0.03862581
219	0xbcdfd883	-0.02732492
220	0xbe56afce	-0.20965502
221	0xbdc27755	-0.09495417
222	0xbde638e4	-0.1124132
223	0xbd78bfea	-0.0607299
224	0xbd1656ec	-0.03670399
225	0xbabc2efb	-0.0014357263
226	0xbdc37108	-0.095430434
227	0xbdcb0cd2	-0.09914555
228	0xbdf5e0fb	-0.12005802
229	0x3d52f88e	0.05150657
230	0xbe170e7d	-0.1475162
231	0xbe5e7957	-0.21725975
232	0xbe6e440e	-0.23268148
233	0xbe1066ec	-0.14101762
234	0xbdfd248f	-0.123604886
235	0xbe21f74e	-0.15816996
236	0x3d5a6bc3	0.053325426
237	0xbe103dce	-0.14086077
238	0x3dca4649	0.09876687
239	0xbd8087ed	-0.06275926
240	0x3d4b2674	0.04959722
241	0xbd52e34f	-0.05148631
242	0xbd9ab144	-0.07553342
243	0x3d6e6835	0.05820485
244	0xbd4afe90	-0.049559176
245	0xbcf4f817	-0.029903455
246	0xbdb96c4b	-0.09053858
247	0x3d39b36f	0.045337137
248	0xbe46ca99	-0.19413222
249	0x3cd1b65d	0.025599653
250	0x3d92cad1	0.071675904
251	0x3c762abc	0.015024837
252	0xbd3a5c89	-0.045498405
253	0xbe031cd1	-0.12803961
254	0xbde07e8a	-0.109616354
255	0x3c70a222	0.014687093
