SecondModel.pth (torch, 962177 bytes, 24 tensors)

feature_extract.0.weight f4 [32, 3, 5, 5]
00000000: 2ea6 033e 88b1 f23d 278b cf3d 428e 083d
00000010: 6b09 dfbd 653b 06bd b255 473d 790a 833e
00000020: 5149 dc3c 3e8d 18be a6a5 64bb c4bb d73d
00000030: e501 613e 4845 85bd faec 7cbe 41f5 cdbd
00000040: 7a19 e13d 0566 483e fd53 8fbc 3752 65be
00000050: b15e 0ebc bbb2 133d 6d2a 1a3e 5b07 ea3c
00000060: 09ec 8abe 6870 5fbd 62c1 073d c48f 093d
00000070: f0f3 3dbd 1018 4bbd f953 3bbe 8632 19bd
00000080: c8b6 713d bb4b 17bc d616 bdbd 461a 38be
00000090: cb00 ea3d e14c 1f3e 6649 013e 4612 44be
000000a0: e72a 24be 1f05 c83d b406 863e 87c6 363b
000000b0: 81e7 6cbe 7524 233d 1cd0 083d d328 623d
000000c0: f679 3e3d dc45 28bd d33a d6bd eaff 66bb
000000d0: dfce 41bd 4896 a33d 0d48 d63d 80a2 6d3c
000000e0: 1de7 953d 7623 473d 3d51 473d 8a3f 03be
000000f0: bb9c 2bbe f9eb 803d 6749 0d3e 404b 523c
00000100: 9c68 f5bd 9019 07be f1e3 e2bd 5374 403e
00000110: 8857 f23d 7c29 30be b3da 91bd e811 d33c
00000120: 36c4 bc3d 0bbf a73d 8615 f6bd a33b 943c
00000130: d44a 543c cd63 143e 8282 eb3d 372c 51bd
00000140: 03c9 a8bd 52a6 2ebe 3828 3bbc f118 a73e
00000150: 8d18 473d a091 453b 1d0d f8bc a93e 41be
00000160: c6db 4d3e 4726 b43e aaf0 5fbe 542d 6f3d
00000170: e8fd 0bbe bbee 2ebe 4977 943d 697d 06be
00000180: d2f3 7bbe 0151 d2bd 5da5 b53d 6cdb 993c
00000190: 40ca 6c39 cd79 2abd a874 28bd 00ae b1bc
000001a0: 5d39 9bbc 49e1 06bd e179 2f3b 0373 0bbd
000001b0: 2ccc ac3d fd31 47bd 08bf f73d 24b1 a2bd
000001c0: fd2c 09be 66ce d2ba 4a26 c43d ec77 76bc
000001d0: 93e4 623e 99b7 813d 042d 8fbe 51b1 903d
000001e0: 4795 d2bc 401e fe3c 7adf 6b3e 3882 903c
000001f0: 49a2 57bd 9e92 a2bd 3123 cd3c 20ea 773d
00000200: 57ff 26be e9a6 76ba 7551 2f3e 110d 4f3d
00000210: 6915 88bd 2ddf 95bd 4102 4abe f63c a83d
00000220: b927 5a3e bf20 4cbe 4110 f2bd ac6d 89bd
00000230: 28e9 9e3d 7451 8f3e 858b 933c 4e15 84be
00000240: 1268 24be 7553 073e 8d21 1e3e c28b 5c3e
00000250: 80c2 273d 7ec4 1cbe 71c5 32bd 788d bd3d
00000260: bf7a 423e 3b09 20bd 2a2d 1a3c 26de ba3c
00000270: beb9 4d3e e333 ccbd aa95 5fbe 2b21 a2bd
00000280: ef89 19bc 2023 65be cd8f 86be 600e f13d
00000290: 12ee ca3d 6977 fdbd 4aa6 cbbd b83d 023e
000002a0: 9720 723d 8730 31bd d7ad 903d 3c8b c23d
000002b0: c7a4 63bc e40f 6d3d 0735 5abb 9680 243d
000002c0: e0df f93d 468c 3d3e 94ef f8bc 46fe 9cbc
000002d0: 750b 633e 8f47 013e 8999 33be 0570 7abe
000002e0: 8a44 863d 8068 1d3c 5c93 74be 92e1 87be
000002f0: fc0e 6ebd 41ee 963d 18ed 50ba a866 b8bd
00000300: 8527 1d3d 9a0d 2a3e e469 28bd d4ca cfbd
00000310: e31e 85bd d185 3f3d 642d a5bd 1927 60bd
00000320: 260e 08be 6f3b 9dbb e25a 393e 2d94 f7bc
00000330: 5909 38be a80a 503e 45d3 1c3e 1763 5d3b
00000340: 0ec1 52be 3a87 4d3d d5d6 373e 6494 82bd
00000350: d3b7 3dbe 7b6c cd3d fcb1 023e deb1 02be
00000360: e028 6ebd 53d6 fd3d e275 2b3e 03ef 63bd
00000370: 3e23 72bc c4d0 1b3e 2f8a 783c 4b15 b4bd
00000380: 053a 38bd 365b 3a3e 1377 ce3b 73da 0ebe
00000390: 6b76 d23c 2693 8abd 1212 f1bc 7e21 b43d
000003a0: 4784 19bd 8668 3ebe bd44 8e3d e728 f1bd
000003b0: 7271 9abd 0bb3 103e 5e9e cfbc cb5b 8bbe
000003c0: bdf7 f0bd 6879 00be 478a e93d 75c9 1dbd
000003d0: c534 dcbd b239 91bd bb6c 0e3d 0414 e73a
000003e0: 5af0 fbbd 125b b6bd 5921 083c 1854 cebd
000003f0: 89fa 70bd 65c9 853d 5e99 47bd 54de dd3d
0.12856361 0.11850268 0.10133963 0.033338793 -0.10890468 -0.032771487 0.04866571 0.25593928
0.026890429 -0.1489763 -0.0034888773 0.1053386 0.21973379 -0.06507355 -0.24699774 -0.10056544
0.109911874 0.19570167 -0.017496103 -0.22394644 -0.008689568 0.036059123 0.15055247 0.02856796
-0.27133206 -0.05455056 0.03314341 0.03358437 -0.046375215 -0.049583495 -0.18293752 -0.0374017
0.059012204 -0.009234364 -0.09232871 -0.17978773 0.114259325 0.1555667 0.12625656 -0.19147596
-0.16031991 0.09766602 0.2617699 0.0027889328 -0.23135187 0.03982969 0.033401594 0.055214714
0.04650303 -0.041082248 -0.104604386 -0.0035247752 -0.04731643 0.07987648 0.10462961 0.014504075
0.07319472 0.048617803 0.04866146 -0.12817207 -0.16759007 0.06295008 0.13797532 0.012835324
-0.11982843 -0.13193345 -0.110786326 0.18794374 0.118331015 -0.17203325 -0.07121792 0.025765374
0.09217112 0.081907354 -0.12015824 0.018094843 0.012957294 0.14491196 0.11499502 -0.051067557
-0.08241465 -0.17055634 -0.011423163 0.32636216 0.048607398 0.0030146614 -0.03027969 -0.18871559
0.20103368 0.35185453 -0.2186915 0.058392838 -0.13671076 -0.17083256 0.07249314 -0.13133778
-0.24604729 -0.102693565 0.08869431 0.018781386 0.00022582058 -0.041620065 -0.041126877 -0.021689415
-0.018948251 -0.032929692 0.0026775526 -0.03404523 0.0843738 -0.048631657 0.12096983 -0.07943943
-0.13396068 -0.001608324 0.095776156 -0.01504324 0.22157507 0.063338466 -0.27964032 0.070650704
-0.025705947 0.031020284 0.23034468 0.017640218 -0.052645 -0.07938121 0.025041195 0.060526013
-0.16308342 -0.0009409027 0.17120917 0.05054957 -0.06644709 -0.07317958 -0.19727422 0.082147524
0.21304215 -0.19934367 -0.118195064 -0.067103714 0.07759315 0.2799183 0.018010864 -0.25797504
-0.16055325 0.1321543 0.15442486 0.21537688 0.040956974 -0.15309331 -0.043645326 0.09255499
0.18992136 -0.039071303 0.009410182 0.022811007 0.20090386 -0.09970834 -0.21834436 -0.079164825
-0.009371265 -0.2237668 -0.26281586 0.1177032 0.099086896 -0.12376291 -0.099438265 0.12718856
0.05911311 -0.04325917 0.07064407 0.09499213 -0.013894266 0.057876483 -0.0033295767 0.04016169
0.12200904 0.18510541 -0.030387677 -0.019164216 0.2217234 0.12624954 -0.17539038 -0.24456795
0.065560415 0.009607434 -0.23884338 -0.26539284 -0.05811976 0.07369662 -0.00079699 -0.09003955
0.038367767 0.16606751 -0.04111661 -0.10146108 -0.06500032 0.046758477 -0.08065298 -0.054724786
-0.13286647 -0.004798345 0.18101075 -0.030222023 -0.17972316 0.20316565 0.15314968 0.0033780986
-0.20581457 0.05017779 0.17953046 -0.063759595 -0.18527155 0.10030457 0.12763208 -0.12763163
-0.05814445 0.12394395 0.16744187 -0.05564786 -0.01477891 0.15216357 0.015169664 -0.08793124
-0.044977207 0.18198857 0.006300816 -0.1395052 0.025691232 -0.067663476 -0.029427562 0.08795451
-0.037479665 -0.1859456 0.069467045 -0.1177538 -0.07541169 0.141308 -0.02534407 -0.2721847
-0.11766002 -0.12546313 0.114033274 -0.038522203 -0.107522525 -0.07091083 0.034771662 0.0017629866
-0.12301703 -0.08904089 0.008308732 -0.10074633 -0.05883268 0.065325536 -0.048730247 0.10833421

feature_extract.0.bias f4 [32]
00000000: 5ea2 9f3d 2e22 793d 4880 863d 2f3d e1bd
00000010: facd 8e3d 9e6c 083d 0147 e93d 4c3f b5bd
00000020: 04ac ad3d 9f38 47bd d4e2 08bd f25b 943d
00000030: de13 c23d a103 883d 661f bc3c 2033 c43d
00000040: 6135 acbd 7e74 2fbc 5225 e6bd 4e51 42bd
00000050: 6558 3b3d 8b15 39bc d465 493c 1346 e73c
00000060: 8dd7 17be 4a9c 013c bdcd ef3d e042 11bd
00000070: 7f63 8ebd e6a7 803d 7baa 0ebe 2114 b53c
0.07794641 0.060823612 0.065674365 -0.10997998 0.06972881 0.03330671 0.11390496 -0.088499635
0.08480075 -0.048637982 -0.033419445 0.072441 0.094764456 0.06641317 0.02296419 0.09580064
-0.08408619 -0.010708926 -0.11237587 -0.04744082 0.045738596 -0.01129664 0.012292344 0.028231656
-0.1482832 0.007910797 0.11709163 -0.035464168 -0.06952571 0.06282024 -0.1393222 0.022104325

feature_extract.1.weight f4 [32]
00000000: 838b 873f b705 be3f 220d 863f 99c5 503f
00000010: b435 4b3f 95ed 8b3f 1980 4a3f 5d2c 753f
00000020: 6a1b 2b3f bcf0 223f 098e 9c3f cda6 463f
00000030: a20f 843f b297 9f3f e5dc 683f 7f8a 973f
00000040: 869a c53f 8a64 873f 6e5b 8c3f 3aff 343f
00000050: aa12 823f b353 563f d8fb 933f 7258 863f
00000060: 40d2 a93f 9eac 7d3f ee05 293f 849f 3e3f
00000070: 4966 793f b7f2 7f3f ecbb 753f 8118 823f
1.0589451 1.4845494 1.0472758 0.8155151 0.7937882 1.0931879 0.7910171 0.9577082
0.66838706 0.6364858 1.2230846 0.7759827 1.0317271 1.2468169 0.9096206 1.1839141
1.5437782 1.0577557 1.0965402 0.70701945 1.0161946 0.83721465 1.1561232 1.0495741
1.3267288 0.9909152 0.66024673 0.7446215 0.974217 0.9997973 0.9598987 1.0163728

feature_extract.1.bias f4 [32]
00000000: 3a49 26be 658b 08be b90a 14be abb7 c2bd
00000010: 471b 4abe eef6 aebb e042 0abe 925e d5bc
00000020: 3b7e b0bd e5b1 91bd 6b61 82bc c855 8abd
00000030: 3833 17be 1001 49be 162b fabd 222b 8fbe
00000040: 1fe5 9d3d 23e5 11be 599e 63bc 051e 42be
00000050: 2ae1 eabd 88dc bfbd ebf4 9ebe ca74 10be
00000060: 47fb 17be b269 05be b776 19be d106 4cbe
00000070: 8cc0 0ebe 3f2e 9ebd 9a44 8bbd ac4f d7bd
-0.16238871 -0.13334425 -0.14457215 -0.09507688 -0.19736968 -0.005339495 -0.13502073 -0.026046071
-0.086178266 -0.07114009 -0.015915593 -0.06754643 -0.14765632 -0.19629312 -0.12215249 -0.27962595
0.07709717 -0.14247565 -0.0138927335 -0.18956764 -0.11468728 -0.09368235 -0.31046233 -0.14107051
-0.14841948 -0.13028601 -0.14986692 -0.19924475 -0.13940638 -0.077236645 -0.06800194 -0.10513243

feature_extract.1.running_mean f4 [32]
00000000: 0b18 243c 3f06 753d edfe c83d 57e7 27be
00000010: 4089 943c 34ee 27bd 75fa 883d 7394 04be
00000020: bb86 ee3d 3530 3e3e 0beb 9bbc b234 213e
00000030: 2cbf d13d c281 1a3d c906 463d 2924 d03d
00000040: 11b2 bebd 63d6 1e3c 09ce eebd 51cd 2dbd
00000050: 1c36 c93d f665 a9bd 839e b1b9 bbf3 0b3d
00000060: 70ba 1cbe 973f c33b e4bf 043e 4550 783e
00000070: 1dec 0cbd 9757 4b3d ccf8 fbbd 4639 aa3d
0.010015498 0.05982041 0.09814248 -0.16396843 0.018131852 -0.040998653 0.06688396 -0.12947254
0.116467915 0.18573077 -0.019032976 0.15742758 0.10241541 0.037721403 0.048346315 0.10163147
-0.09311307 0.009694668 -0.11660392 -0.042432133 0.09824774 -0.08271401 -0.0003387817 0.034167986
-0.15305495 0.0059585082 0.12963825 0.2424937 -0.034404863 0.04964408 -0.123033136 0.08311705

feature_extract.1.running_var f4 [32]
00000000: 2889 e23f 41c3 b03e 7863 1b3f c672 783f
00000010: 2193 ec3f 3b3b a63f 146c 833f e88d 703f
00000020: cc7d ba3f c389 a640 5e00 463f 3d1d e43f
00000030: b3a7 193f bb83 3e3f cea9 a83f 290f 343f
00000040: 4985 f23e 215c 3e3f 97d4 6c3f badd 5a40
00000050: 12e6 2b40 db4a 2c40 bf82 6d3e b63b 223f
00000060: 1be8 bd3e 98a2 cd3e 426e 4f40 fe7b 2141
00000070: eee6 163f a5df 813f 4443 543f f1c7 8c3f
1.7698107 0.34523967 0.6069865 0.9705013 1.84824 1.2986826 1.0267358 0.9396653
1.456964 5.2043166 0.7734431 1.7821423 0.60021514 0.74419755 1.317682 0.7033563
0.47367314 0.7435933 0.92511886 3.419783 2.6859174 2.6920688 0.23194407 0.6337236
0.37091145 0.40163112 3.2411046 10.092772 0.5894612 1.0146376 0.8291514 1.0998517

feature_extract.3.weight f4 [64, 32, 5, 5]
00000000: e636 f43c 1a86 48ba 3050 cd3d a4a3 3ebe
00000010: 2472 ce3d b898 19be 7a44 06be e292 dd3c
00000020: 70df 51be 595b afbd 5d84 0cbe 47f6 98bd
00000030: f4cb 043c 2e79 20bd 5bee 8abd 2e38 603d
00000040: b5cb 6c3c 5eaa fabc c32a 69bd 6201 bebc
00000050: 87de 4d3e 9623 203e 359c 343d 6d39 00be
00000060: cf6a e23d 9bbb 273e 2f7b 483e fc14 993d
00000070: e271 4bbe fabe 75be ba77 e13c 97ea a03d
00000080: 8dc1 143e f216 1b3c 868e 76bd 3310 3ebe
00000090: 73bb e1bd 6feb 533d 838a 0fbd 054f ac3d
000000a0: 01b7 e4bd 86f8 0cbe 6d14 06bc 811e 8a3d
000000b0: 46e5 333d a6c0 14bd ecff 9cbd 5817 403d
000000c0: bcd0 103e c68f b6ba 832f e9bd a634 fabd
000000d0: e0f0 12be 9e0d 90bd 6517 39bd 7d27 e1bd
000000e0: 606a b4bc c702 68be 1520 42be 3b7d 9ebe
000000f0: 70d1 883d efb7 993d 1fcf 723d 50e1 a73d
00000100: 32f0 613d 1f76 73bc ce59 ff3d 4cce f53d
00000110: 2b14 c93d c3df 623d cb95 61bd ba80 3d3d
00000120: e762 a33c 2a94 5d3d 383a 09be bcff 0b3e
00000130: ca8e 193d 0f59 393d 14da b3bd 5f8e 023e
00000140: 494c 8c3d 1979 a33d 7844 0f3e 061f 18bd
00000150: 3ebd abbd 6186 cdbb a667 c63c 424b b13d
00000160: b293 b93d 2114 0c3d 096b 49bd 4532 bdbd
00000170: 32c3 fdbd 8406 463d e8f5 a13d 3c37 b13b
00000180: 50df 443d 72ab f43d 90a9 1abd 4f04 153d
00000190: d17b a8bd c90b 54bc 6d14 18be 70af 21be
000001a0: 0850 1cbe 38b6 153e 4840 5a3e 2de5 483e
000001b0: 965f 173e 0a19 08bd aa58 6bbc dd28 263e
000001c0: e740 133e a61c 183e 6892 873d 639b 14be
000001d0: 8bfb cabd 5686 2abe 63ee 80bd 9ff6 23bd
000001e0: d074 99bd 4a9c e03c 2c1f 02bd b9f8 02bd
000001f0: fc6c 06be 0738 06be bbd1 10be c20e 5bbe
00000200: 8d67 0fbe 710f 0bbe 5cfa 073e 3ae3 653e
00000210: 3677 5e3e ed5a c73d b738 bdbd dcbc ba3b
00000220: 2525 953d 6cd1 433e 6aaa ad3d 9642 5bbc
00000230: ca34 babd 8501 8fbd f9c2 5fbc 6cf3 99bc
00000240: 047f 83bd a6d3 20bd a35b 593d c0cb 863c
00000250: 98da 7b3d 0738 c1bb a789 a6bc 950f 4fbd
00000260: 9fe4 d93d a6f9 03be e98e 703d 814c 3abe
00000270: 28aa bbbd a536 3ebd 94ce 2abe a884 c5bd
00000280: 0d65 e4bd 1ffc 35bd 857e d93b b216 8e3d
00000290: cbd6 c7bb 105a 0dbd 7b7b 203c b786 d13d
000002a0: d209 fc3c e480 183d 7a6f d93d 5c52 063e
000002b0: 78af b63d a9cb 00be 6093 42bd dc7f 33be
000002c0: 6f04 91bd 37d6 ccbd 53de 86bd c9b9 5abd
000002d0: c87b ddbd 6b83 333c 0e66 a9bd d4ee 9dbd
000002e0: 1eab 95bd 7230 57be 6c8b 39be 396b 13be
000002f0: 7a59 febd 4530 92bd 1486 96bd f146 8bbb
00000300: 6b0f 5ebd d9a7 ec3c ada5 033d c51d 23bd
00000310: 3dcb 6b3d bb37 ba3d 76fb 0d3e 87ea 593d
00000320: 659c 5fbd 7782 dfbc ee94 afbd f80e bbbd
00000330: dd4d 1ebe df85 12be 29cc 10be 2562 7ebe
00000340: 2aaa 2abe 9408 e5bd dc08 11bd 318c b73d
00000350: 178a 103e 781a 653d ce88 bdbc 3612 e5bc
00000360: ef37 4a3d d75b 3a3d 60b9 bd3d 2469 933d
00000370: 1afb a5bd bdaa 6cbd 08e1 debd 8e9f 8bbd
00000380: d4dd 42bd 28b8 42bd 70b0 ed3d 2371 a23d
00000390: 2f0b c73d 44de 8a3d 7137 febd 6441 5abd
000003a0: 6277 d6bd 6696 80bd 5727 9dbd 8292 1ebe
000003b0: 8834 0fbe 9c6f 40be a32d 30be 9e1f c1bd
000003c0: 9e64 25be 75a3 01be dad0 f7bd 2dbb c6bd
000003d0: aa77 93bd 426f 9fbd 5044 c9bd 5c6e ffbd
000003e0: 66cb c0bd 46d0 09bd 9719 c43c c233 4dbd
000003f0: d0bd 613d 32bd e53c c953 75bb 3615 b43c
0.029811334 -0.0007649377 0.1002506 -0.18617111 0.10080364 -0.14999664 -0.13112059 0.027047578
-0.20495391 -0.08562345 -0.13722368 -0.07468849 0.008105267 -0.039178066 -0.06783744 0.054741077
0.014452864 -0.030598816 -0.056925546 -0.023194019 0.20104419 0.15638575 0.044094283 -0.12521906
0.11055528 0.1638016 0.19578241 0.074747056 -0.19867662 -0.23998633 0.02752291 0.078572445
0.14526959 0.00946592 -0.060194515 -0.18560867 -0.11022081 0.0517382 -0.035044204 0.08413509
-0.11167718 -0.13766679 -0.008183581 0.067440994 0.043919824 -0.036316536 -0.07666001 0.046897262
0.14142126 -0.0013928346 -0.11386015 -0.12217073 -0.14349699 -0.07033847 -0.045188326 -0.1099386
-0.02202338 -0.2265731 -0.18957551 -0.30954918 0.06680572 0.07505786 0.059279557 0.08197272
0.05516071 -0.014859705 0.12468301 0.12002239 0.098183 0.055389177 -0.055074494 0.04626534
0.019944621 0.05409638 -0.13401115 0.13671774 0.03748969 0.04525095 -0.087818295 0.12749623
0.06850488 0.07982082 0.13990963 -0.03713896 -0.083857045 -0.0062721227 0.024219345 0.086569324
0.09061374 0.034198884 -0.049174342 -0.09238104 -0.12390746 0.048346058 0.07908231 0.005408196
0.04806453 0.11946763 -0.037759364 0.036381062 -0.08226741 -0.012942263 -0.14851542 -0.1578958
-0.15264904 0.14620292 0.21313584 0.19618674 0.14782557 -0.033227004 -0.014364401 0.16226526
0.14380227 0.14854679 0.06619722 -0.145124 -0.09911259 -0.16652808 -0.06295469 -0.040030118
-0.07492983 0.027418274 -0.03176801 -0.03197548 -0.13127512 -0.1310731 -0.14142506 -0.21392348
-0.14004345 -0.13580109 0.13279098 0.22449961 0.21725163 0.097341396 -0.09239333 0.0056987833
0.072824754 0.19122857 0.084797695 -0.013382575 -0.090921 -0.06982712 -0.013657325 -0.01879283
-0.06420711 -0.039264344 0.053065907 0.016454577 0.061487764 -0.0058965716 -0.02032931 -0.05055197
0.10639309 -0.12888202 0.05873004 -0.18193246 -0.09163314 -0.04643883 -0.16680366 -0.09644443
-0.111520864 -0.044429895 0.0066373968 0.069379225 -0.0060986034 -0.03450972 0.009795065 0.10230773
0.030766401 0.037232295 0.106169656 0.13117355 0.08920187 -0.1257769 -0.04750383 -0.17529243
-0.07080924 -0.10001796 -0.06585374 -0.053399835 -0.10814625 0.010956625 -0.082714185 -0.077115685
-0.07308029 -0.21014574 -0.18119591 -0.14396371 -0.1241941 -0.07138113 -0.07349792 -0.0042504002
-0.054213922 0.02888863 0.032140423 -0.039823312 0.05756687 0.09092661 0.13865456 0.05320218
-0.05459251 -0.02728389 -0.08573328 -0.091337144 -0.1545939 -0.1430888 -0.14140381 -0.24842127
-0.16666475 -0.11183277 -0.03540884 0.08962286 0.14115177 0.055933446 -0.023136523 -0.027962785
0.04936975 0.04549774 0.09263873 0.07197788 -0.081045344 -0.057780016 -0.10882765 -0.06817542
-0.047574833 -0.047538906 0.116059184 0.07931735 0.0971893 0.06780675 -0.12412918 -0.053285018
-0.10471989 -0.06278686 -0.07673519 -0.15485576 -0.13984883 -0.18792576 -0.17204909 -0.094298586
-0.16151664 -0.1266001 -0.12100382 -0.0970367 -0.072005585 -0.077848926 -0.09827483 -0.12472221
-0.09413795 -0.03364589 0.023937983 -0.05009819 0.05511266 0.028044317 -0.0037433973 0.02198277

feature_extract.3.bias f4 [64]
00000000: e60c f0bc 0274 3fbc 144b 50ba 25bd 7ebc
00000010: 36f0 693c af87 45bb 3971 7e3b c4f6 943c
00000020: dba0 1dbd d184 1f3c 8b3c 16bc db40 24bc
00000030: 5c95 013d cdf1 7d3c dc69 2b3c 1b97 fa3c
00000040: b58f bd3c 297e 29bc 46b5 94bc 8082 9c3b
00000050: 30e4 2bbc e52b 263c d830 0b3d 07e3 07bd
00000060: 0448 c33c 935a 0abc 1c94 843c e7f0 77bc
00000070: 29e2 32b9 6e03 903c 6d4b 833a 9279 36bd
00000080: a7a2 82bc 96a1 df3b c807 c23c 1204 da3c
00000090: 7485 f4bc 3d85 93bc a667 423c 94e1 ca3c
000000a0: baec e5bb 24b9 183c 267c 173d 2e5a 5b3c
000000b0: e64e 85bc 5ed9 f33b 4c38 2dba 03d5 fabc
000000c0: eb00 d13c f543 c3bc 6c8c 7f3a 260d 83bc
000000d0: 268c 2f3d 3fb0 52bc e525 a3bc 7e3a e43b
000000e0: e313 47bc 2c62 31bd e063 f9bc 03a6 cd3c
000000f0: ab27 04bd f0ee 5a3b 7999 46bc c527 bc3b
-0.029303025 -0.011685373 -0.0007945758 -0.015548025 0.014278462 -0.0030140688 0.003882481 0.018184073
-0.03848348 0.009736256 -0.009169708 -0.010025228 0.03163658 0.015499544 0.010462251 0.03058963
0.023139814 -0.01034502 -0.018152844 0.004776299 -0.010491416 0.010142301 0.033982128 -0.033175495
0.02383805 -0.008444446 0.016183905 -0.015133119 -0.00017059654 0.01757976 0.0010016985 -0.044549532
-0.0159467 0.0068246825 0.023685351 0.026613269 -0.029848792 -0.018007869 0.011865532 0.024765767
-0.0070167454 0.009321485 0.03698363 0.0133882 -0.016272973 0.0074416837 -0.0006607815 -0.03061915
0.025513133 -0.023836115 0.00097484025 -0.01599748 0.042858265 -0.012859403 -0.01991553 0.0069649806
-0.012150737 -0.043306515 -0.030443132 0.025103575 -0.032264393 0.0033406578 -0.012121552 0.0057420456

feature_extract.4.weight f4 [64]
00000000: 7b5b 803f 0842 513f f82e 7d3f 8a60 3e3f
00000010: 39d0 6a3f ea3c 5d3f 2419 923f 99b7 673f
00000020: b88c 493f 1c81 7d3f f529 7b3f 9d9b 573f
00000030: c9fb 7b3f 2206 643f 0c18 803f fa42 913f
00000040: d7ad 7e3f 8b27 533f b67b 8c3f 1e30 813f
00000050: cdd9 803f 0060 883f db19 903f 8f27 5d3f
00000060: c894 913f 144c 783f ab24 7e3f 57b4 743f
00000070: 6a81 7f3f 0d61 953f cc4e 873f db85 783f
00000080: f2b2 8b3f 4a95 873f c3b3 963f 0bd4 423f
00000090: c7a9 2a3f 41fa 8c3f 761f 943f e8ae 593f
000000a0: 7ab6 4d3f 92f7 8d3f 813f 5f3f 2f60 883f
000000b0: 0f83 853f 79cc 663f 91c3 853f 414b 883f
000000c0: 8da5 433f 25e9 803f a49e 833f 8406 8b3f
000000d0: c406 8c3f c961 583f a4ca 8f3f 05d1 7e3f
000000e0: 1268 913f e9d5 963f 2922 7a3f 704e 8e3f
000000f0: 50be 653f 60bb 763f 4934 8e3f b48d a03f
1.0027918 0.8174138 0.98899794 0.74366057 0.9172397 0.8642107 1.1413922 0.9051452
0.78730345 0.9902513 0.98110896 0.8422182 0.9843107 0.8907186 1.0007339 1.1348565
0.9948401 0.8248221 1.0975254 1.0092809 1.0066468 1.0654297 1.125789 0.86388487
1.137353 0.96991086 0.992747 0.95587677 0.99806845 1.1670243 1.0570922 0.9707925
1.0913985 1.0592434 1.1773609 0.761048 0.6666531 1.1013871 1.1572101 0.8503251
0.8035656 1.1091177 0.87206274 1.0654353 1.0430621 0.9015575 1.0450307 1.0647966
0.76424485 1.007115 1.0282788 1.0861363 1.0939565 0.8452421 1.1233716 0.9953769
1.1359885 1.178403 0.97708374 1.1117687 0.8974352 0.9637966 1.1109706 1.2543244

feature_extract.4.bias f4 [64]
00000000: e910 8abe 8301 69be 1ff9 9abe 1816 47be
00000010: 520c 87be cc66 abbe 4f84 a1be 3453 84be
00000020: b8a1 a2be aead 60be 7b1d 2abe 2354 6abe
00000030: 8d63 67be 9b7b e6bd f90e 4ebe fdca 98be
00000040: 45b7 c3be 86b1 96be 70e8 27be 7895 7ebe
00000050: 7411 67be 0f22 8ebe 03cd 19be 323c 79be
00000060: 8ddd 93be 297f 7ebe b624 1abe f039 5abe
00000070: 76fe 9abe 9e68 9abe c10a 7ebe 1893 5ebe
00000080: ef00 5abe 8d6f 81be f06d 54be 8c37 dbbe
00000090: eb69 2dbe 6e15 60be 7713 4cbe ecce 91be
000000a0: 4f50 25be 647d 56be 1406 7abe 3580 a8be
000000b0: f023 29be b490 7ebe bb8c 80be 86c2 96be
000000c0: d6e9 63be 70a9 0cbe 6433 d2be 0c04 b2be
000000d0: 45ea 81be 9cb6 a5be 528d ecbc 33a2 5ebd
000000e0: b112 a9be e555 acbe 30de abbe 699c 7bbd
000000f0: 7c98 d9bd c490 7abe 5e91 2dbe 9724 2ebe
-0.26966026 -0.22754483 -0.3026819 -0.19442022 -0.26376587 -0.33476865 -0.31546256 -0.2584473
-0.31764007 -0.21941254 -0.16612808 -0.22883658 -0.2259657 -0.112540446 -0.20122899 -0.29842368
-0.3822576 -0.29432315 -0.16397262 -0.24861705 -0.22565252 -0.2776036 -0.15019612 -0.24339369
-0.28879967 -0.24853195 -0.15053067 -0.21311164 -0.30272263 -0.30157942 -0.2480879 -0.217358
-0.21289419 -0.2528042 -0.20745063 -0.42815816 -0.16934936 -0.21883175 -0.199293 -0.2847818
-0.16143917 -0.2094627 -0.24416381 -0.32910314 -0.16517615 -0.24859887 -0.2510737 -0.29445285
-0.2225717 -0.1373651 -0.41054833 -0.34768713 -0.25374046 -0.32365882 -0.02887598 -0.054353904
-0.33022073 -0.33659282 -0.33567953 -0.06142846 -0.10624787 -0.24469286 -0.16949984 -0.17006145

feature_extract.4.running_mean f4 [64]
00000000: 7e11 a7bf fdff 91c0 68cd 06c0 d2e4 cabf
00000010: 95b9 afc0 8eb8 61c0 cf58 bebf 879b 2ac0
00000020: 8f9d 1fbf 17ed 16c1 28c4 1ec0 d087 ed3f
00000030: 83c3 88c0 aea1 ab40 1328 79bf b5f3 49c0
00000040: 3af5 c6bf f755 95bf f336 b2c0 c250 02c0
00000050: d61d 6cbf 5b46 56c0 72d5 61bf f613 cdbf
00000060: 018c 56c0 edde 37c0 7b05 a2bf db85 abbf
00000070: 3611 f8bf 9850 32c0 4e42 d8bd 8b71 11bf
00000080: f4f1 59be 3f32 1dc0 59c7 b0c0 afc9 07c0
00000090: 8e1f bc40 c4e0 eabf f726 54c0 a1e2 d7bf
000000a0: bee8 ecc0 dc7a 43c0 53ca f13e 7b03 99c0
000000b0: 0cd7 7dbf 9fd6 19c0 12e1 063f 5583 c6bf
000000c0: df68 2ec0 e936 afc0 c799 45c0 fe35 41c0
000000d0: 602c 28c0 869a 57c0 93bd 5140 26f4 93bf
000000e0: 5fc5 98bf 9195 79bf e26c 633e baed b5bf
000000f0: 130c 9940 6ef0 97bf 2ade 18c0 a721 a3c0
-1.3052213 -4.5624986 -2.106287 -1.585108 -5.491404 -3.5268893 -1.4870852 -2.6657426
-0.6234979 -9.432883 -2.4807224 1.8557072 -4.273866 5.3634863 -0.97326773 -3.1554997
-1.5543587 -1.1666859 -5.5692077 -2.036179 -0.92233026 -3.3480442 -0.88216317 -1.6021717
-3.3522952 -2.8729813 -1.2657923 -1.3400224 -1.9380252 -2.786169 -0.105595216 -0.5681388
-0.21283704 -2.4561918 -5.5243344 -2.1216848 5.878852 -1.8349843 -3.3148782 -1.6866037
-7.403411 -3.0543737 0.47224674 -4.781675 -0.9915626 -2.4037244 0.5268718 -1.5508829
-2.7251508 -5.475453 -3.0875108 -3.0189204 -2.6277084 -3.3688064 3.2771957 -1.1558883
-1.1935233 -0.97493845 0.22209504 -1.4213173 4.782724 -1.1870248 -2.3885598 -5.097858

feature_extract.4.running_var f4 [64]
00000000: 11ef 6142 fc19 b442 688e 4f42 c478 4242
00000010: 668d 9f42 eb75 ae42 5892 1e42 c6a5 7442
00000020: ac97 8e42 5a4d e442 07d5 a842 6ec1 3842
00000030: c803 7b42 6b8c 2842 18af 4d42 956e 8c42
00000040: 3cbc 0c42 878d ec41 677b ab42 30dd 8742
00000050: a312 0b42 f6b7 4042 d048 3e42 0a86 3742
00000060: 9f19 2542 2f49 8d42 c3c7 6e42 b6ab 4c42
00000070: 0d02 5242 c949 4642 b2f0 4642 90f3 6e42
00000080: 23a2 2b42 fc17 6842 14ac 7642 86bf 6c42
00000090: 4d7a 9242 98f4 2842 caad 9942 6bf2 8642
000000a0: c3e4 b042 ee2c a342 a4f0 ae42 b660 4d42
000000b0: 86ec 6842 81ef 8d42 1127 4842 d08c 2242
000000c0: 4ec3 6142 25d8 7542 0351 2442 9370 3e42
000000d0: 5194 7242 f45c 8b42 443b 7c42 9ff5 8042
000000e0: 92ed 6842 ad9d 3142 1519 1842 7449 2942
000000f0: 3c51 6242 9bec 8942 517f 8b42 47ab 7d42
56.483463 90.05075 51.88907 48.617935 79.77617 87.23031 39.642914 61.16189
71.296234 114.15108 84.41607 46.188896 62.753693 42.137127 51.42099 70.21598
35.183823 29.569105 85.74102 67.93201 34.7682 48.17965 47.571106 45.880898
41.27502 70.64294 59.69508 51.167686 52.502003 49.572056 49.735054 59.737854
42.908337 58.023422 61.668045 59.187035 73.23887 42.23886 76.83943 67.47347
88.4468 81.58775 87.47 51.344444 58.23098 70.96778 50.03815 40.637512
56.440727 61.46108 41.079113 47.609936 60.64484 69.68155 63.057877 64.47973
58.232002 44.40398 38.024494 42.32173 56.57933 68.96212 69.748665 63.417263

feature_extract.6.weight f4 [32, 64, 3, 3]
00000000: da99 4bbd a98a 66bd e954 90bd 2153 d63d
00000010: cea2 163d a4c3 ddbd d7c2 153d 181f 303b
00000020: 9715 a13d 426b c03d 912e 83bd 9bd6 b33b
00000030: 4b5f 213e cc89 fdbd 52ce 94bd 5656 163e
00000040: ec7a ed3d a280 f5bc 9987 cfbc 51ca b83d
00000050: e5b0 8239 fc44 5dbc 3d04 1e3e b8d3 53bb
00000060: c776 2fbe 3a8f 243b 3278 b1bb 5ec0 ea3c
00000070: 7819 c0bc 12d3 d73c ec1e f6bb 63a6 d7ba
00000080: a52b d73a fbd8 96bd 3e66 aa3d 9ad9 9dbc
00000090: 60f1 e93d fc6d 0a3e f4f7 aa3d fb83 6d3e
000000a0: 5c55 893e b2ca 263d def0 9c3d 0a74 8e3e
000000b0: 20a9 583e f436 e93d d97d 3dbd 2838 0dbb
000000c0: c023 703e 853a d53d f7c3 92bc acf3 103d
000000d0: e748 a8bd 12c4 b8bd 3524 1e3e 9626 0a3e
000000e0: 6738 cb3b d4bc 103e bc7a 323e 301c 9a3c
000000f0: ec7a 47bc 164c 2c3d 0720 dd3d f720 d03d
00000100: 1a6b 133d 3d55 4dbd b234 f3bb ad5d 143c
00000110: 5e73 aa3c 897a 75be e4ba 743d 32fa 83bd
00000120: 456b bbbc 40c5 e73d 81b2 4f3d 7e6b 05be
00000130: 1ae6 77bd ff18 3ebd 47d9 20be 5a9f 5fbd
00000140: 2f88 8bbd f06a 00bd 9814 9f3d 8903 4e3d
00000150: 465e b539 c9f2 023e fa29 873c 9d65 d3bc
00000160: e0f9 bd3c bd9e 20bd 9e70 cfbd 71cc 813d
00000170: 9179 b73d 4359 90bd 6f8b f93c 2d79 f13d
00000180: aaf4 b5bd 521f a3bd faff 9bbd f567 9c3d
00000190: cef4 583d 2b9d 913d c1e7 823e 3ec6 ad3d
000001a0: 7271 a73a 80f6 a13d fefe 253e 4045 7c3d
000001b0: f066 01be 5311 e1bd bc66 8bbd 0e29 c63d
000001c0: 167b c83d 2e8d c4bd 65ba c73d 8b37 803e
000001d0: dfa8 763e e82a a2bd 147e 183b 1ee1 fa3d
000001e0: 17cc 443c 8aca 38bc 74d7 9cbc 46bc 25bd
000001f0: 4b47 03be 9cb7 48bd 54c7 abbd ab45 a2bb
00000200: ab99 b23c 53b5 c13d 8a05 033e 2211 98bd
00000210: 02e8 2bbd 9a62 7f3d bb13 90bd a8c9 c33d
00000220: 3795 cd3d 0243 613c 64f4 163f f084 bc3e
00000230: 8e83 0f3e 78b3 b33e dc3f 993e b05e a03e
00000240: c2ac 8abd d968 a93d 2716 ac3d 3751 6dbd
00000250: 2229 24be f108 0f3e feb7 c43d e7ef df3d
00000260: d92b 8c3d 7b8e 9f3d f3a4 2abb d0f4 b0bb
00000270: 56fd 1a3e 47aa 453e 7b29 923c 677d 553c
00000280: 6e96 6d3d 41fa fa3d 7993 093e 8207 8bbd
00000290: 8377 14be c624 a53e 2c2c b8bc 1f71 41bd
000002a0: ea38 d63d b676 de3c 074a 6ebd b2e7 e23b
000002b0: 5369 693d d916 e0bd 4812 20be 0eb7 383d
000002c0: 3779 f2bd ed2c 733c 1d7b 9f3c 39ae 96bd
000002d0: 32b0 05bd c6f2 20be a1c0 5a3b cd1e d4bc
000002e0: cfcf 29bb afaa fd3c 53d5 313d 1693 0fbe
000002f0: f051 b2bd b626 283e 7a50 183d c5c5 4d3d
00000300: 26b3 153e f29a 123e 7927 643e a30f 11bc
00000310: b4b4 0b3e a1bd 9dbc 28e8 82bd 57ee b63c
00000320: bcb9 f3bd 3b5f be3d d4a6 7b3e 0fcf adbb
00000330: f6bc c43d e270 06bd 2a1c c5bd e762 0fbb
00000340: a89d dcbd e223 e4bd 7096 283e 261c 593e
00000350: 970b 2ebd 9ee4 c9bd b04a 70bd 1848 adbb
00000360: 1137 803d ec6c 983c 14e0 19bd 5795 253e
00000370: 750b 8b3b e04a 333c c32d d63d b1ed a13e
00000380: 188b a63d a499 48bd d754 07bd 37db 52bd
00000390: 815b 533d e3ad 6f3e 0724 9e3c 5172 9c3d
000003a0: 4f5c cf3b f0db 03bc 06d4 c73c a69a 8c3d
000003b0: 942c ea3d 5fcf 863d d3b4 d33e 1546 133e
000003c0: 3858 2fbd 6c35 873d 941f 183e a088 82bd
000003d0: 29ef cb3d 6cd7 a03a 519b 68bd bcba cc3b
000003e0: 1010 79bc cc8c 5ebd a1ea e2bd bf4a 4abd
000003f0: 9345 13be f52e 7f3d 2b9e db3c cd90 383d
-0.04970727 -0.05628458 -0.07047445 0.10465074 0.036776356 -0.10828331 0.036562767 0.0026874002
0.07865446 0.09395458 -0.06405366 0.0054882294 0.15759008 -0.12379798 -0.07265915 0.14681372
0.11595711 -0.029968563 -0.025333213 0.09022964 0.0002492733 -0.013505217 0.15431304 -0.003232224
-0.17135154 0.0025109784 -0.0054159397 0.028656181 -0.023449644 0.026345763 -0.0075110104 -0.0016452785
0.0016416205 -0.073656045 0.083202824 -0.0192688 0.11422992 0.13518518 0.083480746 0.23194878
0.26822937 0.04072065 0.07663129 0.27822906 0.21158266 0.113874346 -0.046262596 -0.0021548364
0.23451138 0.10411552 -0.017915709 0.035388634 -0.0821703 -0.090217724 0.154435 0.13491282
0.006201792 0.14134532 0.17429632 0.018812269 -0.012175303 0.04206475 0.10797124 0.101625375
0.035990812 -0.050130118 -0.0074220533 0.009055537 0.020806964 -0.23972525 0.059748545 -0.06444205
-0.022878299 0.11316919 0.050707344 -0.13029286 -0.060522176 -0.046410557 -0.15707885 -0.05459533
-0.06813084 -0.031351984 0.077676 0.05029634 0.0003459325 0.12787928 0.016499508 -0.025805289
0.023190439 -0.039213885 -0.10128902 0.06337822 0.08958734 -0.07048275 0.030461995 0.117906906
-0.088845566 -0.07964958 -0.07617183 0.07637016 0.05296784 0.071100555 0.2556744 0.08485077
0.0012774898 0.07908344 0.16210553 0.06158948 -0.12636924 -0.109896325 -0.068067044 0.09675799
0.09789102 -0.095972404 0.09752349 0.25042376 0.24087857 -0.0791834 0.0023268508 0.12249969
0.012011549 -0.011278758 -0.019145705 -0.040462755 -0.12820165 -0.04900323 -0.08387628 -0.0049521527
0.02180179 0.09458413 0.12795082 -0.07425143 -0.041969307 0.062349893 -0.07035013 0.09559947
0.10038226 0.013748886 0.5896666 0.36820173 0.14015028 0.3509786 0.29931533 0.3132224
-0.06771232 0.08271951 0.08402663 -0.05793878 -0.16031316 0.13968255 0.09605406 0.109344296
0.06844301 0.07790848 -0.0026038259 -0.0054002777 0.15135702 0.19303237 0.017842045 0.0130303865
0.05800479 0.122547634 0.13435163 -0.067885414 -0.14498715 0.32254618 -0.022482 -0.04722702
0.10460074 0.027156215 -0.058176067 0.006924593 0.05698521 -0.10941858 -0.15631974 0.04509645
-0.11839526 0.014842254 0.019467885 -0.07357449 -0.032638736 -0.1571761 0.0033378976 -0.025893593
-0.0025911217 0.030965177 0.043416332 -0.14020953 -0.087070346 0.16421017 0.037186123 0.050237436
0.14619121 0.1431692 0.22280683 -0.008853826 0.13643152 -0.019255461 -0.063919365 0.022330446
-0.119006604 0.092955075 0.24575359 -0.0053042243 0.09606354 -0.032822497 -0.096245125 -0.0021879019
-0.10772258 -0.111396566 0.16463637 0.21202144 -0.04249152 -0.098580584 -0.058664978 -0.0052881353
0.06260503 0.018606625 -0.037567213 0.1617025 0.004243309 0.010943145 0.10457947 0.31626657
0.08131999 -0.048974648 -0.033039894 -0.05147859 0.051600937 0.23406176 0.019304289 0.076389916
0.0063281427 -0.008048043 0.024393093 0.06865434 0.11434284 0.06582522 0.41348895 0.14382203
-0.04280874 0.06601986 0.14855796 -0.063737154 0.099577256 0.0012271232 -0.056788746 0.0062478464
-0.0152015835 -0.054333493 -0.11079908 -0.04938769 -0.14382009 0.06230064 0.026808819 0.045059968

feature_extract.6.bias f4 [32]
00000000: 640b fbbc 92e3 aaba ac09 953b 37d9 02bd
00000010: f8e1 48bd 5a12 afbc dddf a7bc 9609 bebb
00000020: 60fe 003d 06c6 11bd 7104 fbbc 9998 5bbb
00000030: caa6 0fbd c8c0 073d 4a57 e03c 7408 83bc
00000040: e3c2 00bd 5af9 29bd 3bc8 80bc 9430 523d
00000050: 0eb3 18bd e0d9 d5bc fecc 9e3b a31c 813c
00000060: 661c cfbb 22b2 9d3b fd85 063d bb02 aa3b
00000070: 64ec d0bc 67c8 bc3c 7198 b23c ea3f 79bb
-0.03064508 -0.0013037792 0.004548272 -0.031945433 -0.049043626 -0.021371055 -0.020492489 -0.0057994826
0.03149259 -0.03558924 -0.030641766 -0.0033507703 -0.03507117 0.033142835 0.027385373 -0.015995242
-0.03143586 -0.041497566 -0.015720477 0.05131586 -0.037280135 -0.026104867 0.0048462143 0.015760725
-0.006320524 0.004812495 0.032842625 0.005188314 -0.025503345 0.023044778 0.021801205 -0.003803248

feature_extract.7.weight f4 [32]
00000000: 3fd1 573f 7766 4c3f 3790 363f 1c68 553f
00000010: 71d3 5f3f 99fa 623f 993f 473f 79f8 613f
00000020: 21ca 593f f48c 633f b6b5 423f 186c 563f
00000030: a3c6 383f b6a6 4a3f c4ff 483f ddbe 5b3f
00000040: 38f9 5f3f 0cd3 693f 2f48 513f eb12 523f
00000050: 9675 633f c639 623f e95c 563f 383a 7d3f
00000060: a7b3 453f ab6d 683f b5a1 5b3f 8666 5f3f
00000070: fb1a 2d3f 9085 583f 5617 3f3f 2602 593f
0.8430366 0.7984385 0.71313804 0.83361983 0.8743201 0.8866363 0.7783142 0.88269764
0.8507405 0.8888695 0.7605852 0.8375869 0.72178096 0.7916063 0.7851527 0.8583811
0.8748965 0.91337657 0.8175077 0.82060117 0.88851297 0.88369405 0.8373552 0.9891696
0.7722725 0.9079234 0.8579362 0.87265813 0.67619294 0.845788 0.7464498 0.84768903

feature_extract.7.bias f4 [32]
00000000: 6a80 89be a085 dbbe cd22 91be 2101 eebe
00000010: bc74 98be 03f6 dcbe ea64 b4be 53f5 fdbe
00000020: cf4f 81be 7bed cabe 0f5f c6be 327e c6be
00000030: 836f 85be a0bf 67be 8a23 c7be 702e 77be
00000040: c4f1 b9be 4236 d1be 2dae b7be 6601 dbbe
00000050: 17f7 b6be 745f d1be 9687 d0be bdd4 08bf
00000060: daa0 9dbe e3a9 c6be f218 7abe ea3e babe
00000070: 4265 5fbe 6876 c3be 709e 9dbe 349d cebe
-0.26855785 -0.42875385 -0.28346863 -0.46485236 -0.2977656 -0.43156442 -0.3523324 -0.4960123
-0.25256202 -0.39634308 -0.387444 -0.38768154 -0.2606164 -0.22631693 -0.38894302 -0.24138808
-0.36317265 -0.40861708 -0.35875073 -0.42774504 -0.3573539 -0.40893137 -0.40728444 -0.5344961
-0.30786783 -0.38801488 -0.24423578 -0.36376125 -0.2181597 -0.38176274 -0.3078494 -0.4035431

feature_extract.7.running_mean f4 [32]
00000000: 4d7b 5640 a39c e7bf 1977 a6bf f155 91be
00000010: f42b a1c0 e712 6240 bd12 abbf b554 ad3f
00000020: e30b 87c0 f66d c8bf c36b cb3f 4020 8c40
00000030: d2f2 96bf d9fc df3f 667d ebbe 910b eb3e
00000040: 8ad4 933f d9a5 a440 d60a 243f c49f 19c0
00000050: 666f 0cc0 5b8c 3d40 1548 0dc1 15f4 58c0
00000060: 6e49 ccc0 4f5e 7abf 9c4e 46c0 1350 8b3f
00000070: 9886 3cc0 b43b 45c0 2d3a 67c0 b75f 6ebf
3.3512757 -1.8094677 -1.3005096 -0.2838588 -5.0366154 3.5324037 -1.3365093 1.3541476
-4.220201 -1.5658557 1.5892261 4.378937 -1.1792853 1.7499038 -0.4599411 0.45907262
1.1549237 5.145245 0.64079034 -2.4003763 -2.1942992 2.9616916 -8.830098 -3.3898976
-6.3839636 -0.97800153 -3.098548 1.0883812 -2.945715 -3.081769 -3.6129258 -0.931148

feature_extract.7.running_var f4 [32]
00000000: 057a 2542 3fdd 0d42 ce5d d341 cbcb fc41
00000010: 308d f741 0c50 cd41 0659 1842 a79f d841
00000020: f824 1e42 ec6c 1142 5ce4 f441 3c75 e041
00000030: 4bd3 2642 2726 f841 3b3f fa41 2751 1d42
00000040: 35e5 f041 372e 0842 c3ed a341 08d6 0b42
00000050: 44ed 0b42 f20e e341 fba3 1342 2ad0 0642
00000060: 4716 0d42 d751 1642 ee3a ef41 2601 d241
00000070: 842f e241 b66c 0342 8dec 0d42 f9be eb41
41.36916 35.46606 26.420803 31.599508 30.94394 25.664085 38.086937 27.077955
39.536102 36.35637 30.611504 28.057243 41.70634 31.01863 31.280874 39.32925
30.111917 34.04513 20.491095 34.959015 34.981705 28.382298 36.910137 33.703285
35.271755 37.57992 29.903774 26.25056 28.273201 32.856163 35.481007 29.468248

classifier.0.weight f4 [256, 512]
00000000: c4e1 c3bd 6671 6ebd c8df 34bc 2db5 93bd
00000010: 3e06 a7bc 93fe 33bc d7bf 9b3c 5fa3 6dbd
00000020: d60b 043e 4432 773e 539a 893e bcf1 f73d
00000030: 4927 f0bb 76bb 873e ea6e 133e 0d0d 6d3e
00000040: bfa0 bd3d f1d0 aabd 97a5 4dbe fe0d 4dbd
00000050: 258d 4c3d 24ae be3d c6b3 d93d 3338 93bc
00000060: e24c 9bbd c841 12bd be45 c63d 4d29 2bbe
00000070: 58ba f5bd 0317 19be f635 12be eb0a bdbc
00000080: b112 97bc 24ab a8bc 7d45 09bd 42e8 6bbd
00000090: 5415 9fbd cfeb d53d 5b25 973d 5f74 e1bd
000000a0: 0bf0 523b 832b 8cbd 7cd9 613d 91b8 a7bd
000000b0: 8a26 593d 2727 f8bd 48bc 6dbc c0cb 31be
000000c0: 71b9 edbd 4443 213a 404f 183d f57e aebb
000000d0: dbe0 b73d 82f8 bcbe bc0e b0be 9056 c6bc
000000e0: d3f2 95bd f088 98be 3fe2 d6bd 0a98 1fbe
000000f0: cb2f d5bd 0b7e 2fbe c8e7 9cbd 88b3 97ba
00000100: 0279 4dbd 830f a23d 57ae 053d 6627 903d
00000110: fc7d 2abb 23c6 06be 3eb3 8fbe 7ef5 96bc
00000120: 45a3 303c 32a3 09bf 0ab5 dcbe 949c 2fbd
00000130: 5d01 123e b0b4 e7bc c7f4 d1bd 3095 ee3d
00000140: d81b d83d dcc5 883d dfc4 853d 2d57 93bc
00000150: 65da e43d 65f2 f73d 4c93 7e3d 9688 c2bd
00000160: 7887 2a3d 8e10 073e 56af b43c 9b42 923d
00000170: dd0e debd 6f03 163d 64ae c93d 77ec a73d
00000180: 90dc de3d a14a 003e d3a2 393e 188d 343e
00000190: f250 163e d156 05be 221c ddbd c48f 2cbe
000001a0: 2897 6e3d 2acb 6abd 01a8 a1be 59a2 1fbe
000001b0: 5410 b6bd f8b8 8ebd 1570 4fbe ed3a f8bc
000001c0: cd88 18be f3ff 333d faa7 0eba 404f 94bd
000001d0: aeed aabd 607c 68be ea1c a3be a32f 97bd
000001e0: 4e2e bbbd 8d42 a9bd 34bb 8abd 470f efbd
000001f0: 59d8 0bbe 75a2 70be 249b 9cbe 9cb3 dfbd
00000200: 514d 903c fa07 b03d bdc0 4a3d dc1d 9fbd
00000210: 2f33 23bc 7ed3 18bd 47af cd3d 479b a93d
00000220: 6aa4 f4bd 6fdc 07bd b81d d03c 51e9 513e
00000230: de29 a9bd 212d 57bd f79d 13be 3031 cdba
00000240: bd5c 4b3d 811e 7d3e 5347 6f3e 97f7 c33d
00000250: a008 633c 53f2 a7bd 5d54 95bd e9d4 bb3c
00000260: 33a1 08be 5c1c b13c 0bd6 e33d 57da 4abe
00000270: 4d63 c73d bd2a a5bd 418d 3cbe 71bc edbc
00000280: 24ea 52bd d9e2 183e 6fc0 1d3e f60b 243d
00000290: eadc 1cbc 74d1 f9bd 4962 ebbd 3eb8 bcbc
000002a0: 8a1a 2e3e b693 7fbd 632c bdbd f099 27bd
000002b0: 160c 6b3d e33c 9abc d460 50be 713b acbd
000002c0: 49be b5bc 038e c03d 1d3e 653c 105d 90bc
000002d0: 2370 6e3b c944 433e 410a 4dbd bd18 e6bb
000002e0: 72e8 15be 733e 3fbd 7cab 3abd e4fa 99bd
000002f0: 454b a0bd 5518 893c 39a4 00be ade8 b3bc
00000300: c3f3 e1bc 2157 c73d 1b08 6d3c 17ab 87bd
00000310: 2a24 f9bd eba9 e73d 9fa8 653c 9aa5 a63d
00000320: 8bcf 1fbd bc8c 07be 6536 c5bb ba58 ee3d
00000330: 5b9a 1ebd 4f4f 83bd 09b1 0bbe 712a 00be
00000340: 5a18 1d3e f97c d3bc f0b3 74bd 0722 44bd
00000350: 8563 5d3d ceed a3bd 8ae7 65bd 30d3 053d
00000360: 954a fdbb 1b07 143d 1e5c b6bc f228 983c
00000370: 7a89 6ebd ba49 b13d 77c4 133e 59f2 c3bc
00000380: 2d31 653d a467 d83c 0666 9a3c 926c d2bd
00000390: 51da 88bc 27db 573d f021 9cbd 1241 3cbe
000003a0: c65f 823d 353d f4bb 9fb3 febd 23eb 8c3c
000003b0: 2a30 2d3c 232a 5c3e e3cb 5dbc 569e 00bd
000003c0: 1143 e7bd 6413 dbbd 8edb bcbd 7b0e 95bd
000003d0: ea05 47bd 32c5 e1bd 74f4 713c 4870 53bc
000003e0: 486f 9bbd 2f57 43bd 1aff b93d 141b 833c
000003f0: b286 84be 2bbc 5b3c 9106 263e 00a3 383b
-0.09564546 -0.058213614 -0.011039682 -0.07212291 -0.020388719 -0.010985988 0.019012375 -0.05801713
0.1289514 0.24140269 0.26875553 0.12106654 -0.007328902 0.2651021 0.14397779 0.2314951
0.092591755 -0.08340634 -0.20082699 -0.050062172 0.049939293 0.093105584 0.10629992 -0.017971134
-0.075830236 -0.035707265 0.09681271 -0.16714974 -0.11998433 -0.14950185 -0.14278397 -0.023076495
-0.01844153 -0.020589419 -0.033513535 -0.057594545 -0.0776774 0.104453675 0.07380172 -0.11008524
0.0032186534 -0.06844237 0.05513905 -0.081895 0.05301527 -0.12116843 -0.014510222 -0.1736288
-0.11607636 0.0006151686 0.037184954 -0.005325193 0.08978435 -0.36908346 -0.3438624 -0.024211198
-0.07321706 -0.29791975 -0.10492372 -0.15585342 -0.104095064 -0.17137925 -0.07661396 -0.001157389
-0.05016423 0.07913115 0.032636967 0.07038765 -0.0026015034 -0.1316152 -0.28066438 -0.018427607
0.010781114 -0.5376464 -0.43106872 -0.042873934 0.14258333 -0.0282844 -0.10251766 0.11649549
0.10552186 0.06678364 0.06531691 -0.017985905 0.11174468 0.1210678 0.062152192 -0.09498708
0.0416331 0.13189909 0.022056263 0.0714161 -0.10842679 0.03662437 0.098477155 0.08199399
0.10881913 0.12528469 0.18128519 0.17631948 0.14679316 -0.13021399 -0.107963815 -0.16851717
0.058249623 -0.05732266 -0.3157349 -0.15589274 -0.08889833 -0.06968874 -0.202576 -0.030301536
-0.14895935 0.043945264 -0.00054419006 -0.07241678 -0.08346115 -0.22703695 -0.31857997 -0.07382133
-0.09139691 -0.08264647 -0.067739874 -0.11672836 -0.13656749 -0.23499472 -0.30587113 -0.1092293
0.017614992 0.085952714 0.049500216 -0.07769367 -0.009960934 -0.03731107 0.10043197 0.0828157
-0.11945422 -0.033169206 0.025404796 0.2049916 -0.08259939 -0.052533273 -0.14415728 -0.0015654918
0.04964899 0.24718668 0.23367052 0.095687084 0.013857037 -0.082005166 -0.07291482 0.022928672
-0.13342743 0.021619968 0.1112481 -0.19809853 0.09735737 -0.08064792 -0.18413259 -0.02902052
-0.051492825 0.14930286 0.15405439 0.04005047 -0.009574154 -0.12198153 -0.11493356 -0.023037072
0.17002311 -0.062396728 -0.09236982 -0.04091829 0.057384573 -0.018827861 -0.20349437 -0.08409775
-0.022185462 0.094020866 0.01399186 -0.0176225 0.0036382757 0.19069208 -0.050058607 -0.007021992
-0.14639452 -0.046690416 -0.045573696 -0.07518557 -0.078268565 0.016735235 -0.12562646 -0.021961534
-0.027582055 0.097334154 0.0144672645 -0.0662443 -0.12165101 0.11311706 0.014017253 0.08137055
-0.039016288 -0.1323728 -0.006018447 0.11638017 -0.038721424 -0.06411611 -0.13641752 -0.1251619
0.1534132 -0.025816428 -0.059741914 -0.047884014 0.054049987 -0.08004342 -0.056129016 0.032672107
-0.007729838 0.03613959 -0.022260722 0.018574212 -0.058236577 0.0865664 0.14430414 -0.023919271
0.0559551 0.026416607 0.018847477 -0.102746144 -0.016705664 0.052699234 -0.076236606 -0.18384197
0.063659236 -0.0074535855 -0.12436604 0.017201966 0.010570565 0.21500449 -0.01353738 -0.031401
-0.11292089 -0.10697058 -0.09221564 -0.072781526 -0.048589624 -0.1102394 0.014767755 -0.012905188
-0.075895846 -0.047690567 0.0908186 0.016004123 -0.25884014 0.013411562 0.16213442 0.0028173327

classifier.0.bias f4 [256]
00000000: 0063 dcbc e780 39bd 0570 2fbe 54ed 063d
00000010: 34e2 debd fd89 16be 2c6c 15be e739 64be
00000020: 4a19 b2bd 39af babb fee0 b3bc 8ad4 ddbc
00000030: 42ba daba 3024 02bc 5c9f 60bd 6b90 26be
00000040: bd51 bebd 256d ffbd 6816 aa3d f675 18be
00000050: 95ca c9bd 84c7 d33c 1ff4 f0bd f6e1 4e3e
00000060: e15d 83bd 292c 82bd b21a 5c3d 5558 5abd
00000070: 3efb 67be 6077 16bd 0b35 873d 24b5 2b3e
00000080: 0528 1ebe f492 7dbc 7e3f 013d a2d3 2c3d
00000090: 2e1a fbbd 8322 b7bd 6987 39be 87a2 9d3c
000000a0: eaa9 cbbd 69c9 0ebe 1a4c 2c3c 43f1 b4bd
000000b0: e347 fbbd 36bd 813d 3920 ffbc 6c09 143c
000000c0: dfb3 4bbe 2a4a 2fbe 27d9 ad3d 1d34 ecbc
000000d0: dd44 01be 5b5c 7f3c e7fc f83c eaa2 f33d
000000e0: 1319 28be 59e6 11bd 5107 3a3d 8bbb 413b
000000f0: f1bf acbd 84f1 16be 0364 673c 2f38 53bd
00000100: f036 dc3d b470 16be 1569 7fbd a80a a8bd
00000110: 53a9 753c b2c5 613d 82f9 92bd accc 343d
00000120: 0426 4abe 87f2 49be 4cbc 14be 0f0c 023d
00000130: d2c9 abbc 5685 a6bd a8f0 dbbd b0be 05be
00000140: bbf6 923c 146a ecbd 55a4 a7bd 0c2c dabd
00000150: c260 09be 8a17 16be 9e41 a2bd bf3f 90bd
00000160: 810c eabd f9ac 23be 7257 503d 6c64 f1bb
00000170: 8893 56bb 5a86 50be c544 3ebe d6e6 f6bd
00000180: 021d e83c a1b9 75bd a01f 12be 080b 8bbd
00000190: d934 adbd 3e75 39be f5c2 6b3c 670d 54bb
000001a0: 0864 e7bd a394 993d 5de3 84bc 7d55 8bbd
000001b0: c39c f13d fa41 cdbd 409b 2cbe 20ab acbd
000001c0: e69d 2bbd 74f6 bbbd 7206 62be 1224 20be
000001d0: c794 e9bd 11c3 4bbd 0551 0dbe c230 05be
000001e0: 6158 95bd 5b76 b13c 6cdf 20be b2e8 10be
000001f0: 4632 06be cbfd 88bd b580 b9bd 50bb c9bc
00000200: 954c 40be 9d70 24bc 36bd 4ebc c9fb 1dbd
00000210: 3f1a 34be db1e 01be e453 a2bd aa73 27be
00000220: de78 23be 4015 0bbe d6df f8bd 8537 a13d
00000230: 108c 1abe 08f8 1b3d 7029 8dbd d847 85bd
00000240: c77c bebd 3a6e 2dbe 2027 98bd 500e b43c
00000250: bc7a 013e 4290 9fbc 4d65 bfbd 8861 b3bd
00000260: d378 2fbe 79af b0bc b000 0bbe c905 8dbd
00000270: dacc ea3b be06 df3d c7e9 9cbd 2e7e 5abc
00000280: 524d 59bd fa41 43bd bd69 36be 603b fcbd
00000290: 9757 2b3d 454b fc3d 639f 7ebb 1673 18bd
000002a0: 8343 acbd aa8b 0fbd 273f d1bd 9008 4ebd
000002b0: 2331 4bbd 0475 bebd b802 01be 439d 13be
000002c0: 40c5 7b3c c5b6 aebb f11d f83c b636 b03d
000002d0: e9ef 5dbe 03ae 0b3e 5ddc 2a3c 430d 95bc
000002e0: 3fe6 57bd 5a1f 6cbe 630f 3c3d e7ba a8bc
000002f0: bb69 10be 6d65 803d 3c40 5a3e 6cb6 bd3c
00000300: 4118 b9bd 7c41 dd3d 4b81 253d a35f e8bd
00000310: a9a9 08bd 2646 dbbd 684b cebb 72fb e53d
00000320: 85b3 88bd 242b dfbd 4e00 643d b4b7 733c
00000330: ed45 5fbe c842 9cbd 5349 edbd c934 07be
00000340: f037 32be 8604 6cbe f65b bbbd a0f4 a3bd
00000350: fa6e e63d f4e2 7cbd d325 07bd 6851 17bd
00000360: 1e3d 383e 0a02 20be 172c 36be f0ad 89bd
00000370: cb64 cdbd 5056 ccbc bb24 873d 7ed2 ab3d
00000380: 1b30 79be 99cb 713b 5581 c0bd c41c 1abe
00000390: 93ab 20bd 6b83 4bbe e487 173e eced f4bd
000003a0: c5c9 983d 368e 92bc 1631 9cbc 37af 1ebe
000003b0: fe70 0cbe e38b 29bc 049e b4bd c924 6dbb
000003c0: 04dd 2dbc ba1a c3ba 4457 af3c adb4 dc3d
000003d0: 67d7 a53c 1af8 b83d e3dc adbb 3af5 36bd
000003e0: 3055 36bd 6d2e 17bd 8f51 70bd b162 0fbd
000003f0: dc26 813b 6380 ac3d b089 89bd d526 523e
-0.026902676 -0.045288946 -0.17132576 0.032941177 -0.108829886 -0.14701076 -0.14592046 -0.22287713
-0.0869623 -0.0056971577 -0.02195787 -0.027078886 -0.0016687589 -0.007943198 -0.054839477 -0.16266029
-0.09292934 -0.124719895 0.08305055 -0.14888749 -0.098530926 0.025851972 -0.117653124 0.20203385
-0.0641439 -0.06356079 0.053736396 -0.053306896 -0.22654435 -0.03673494 0.06601914 0.16768318
-0.15444954 -0.015476931 0.03155469 0.042194016 -0.12260853 -0.089421295 -0.18118061 0.019242538
-0.09944518 -0.1394402 0.010516191 -0.088350795 -0.12269571 0.06334917 -0.031143295 0.0090354495
-0.19892834 -0.17118135 0.08488684 -0.028833443 -0.12623926 0.015585984 0.03039403 0.11896308
-0.16415815 -0.035620067 0.045417134 0.0029561247 -0.084350474 -0.14740568 0.014122966 -0.051567253
0.10752666 -0.1469143 -0.062356073 -0.082051575 0.014993983 0.055120178 -0.07176496 0.044140503
-0.19741064 -0.19721423 -0.14524955 0.03174978 -0.020970259 -0.081309006 -0.10739261 -0.13061023
0.017939916 -0.1154367 -0.08185641 -0.106529325 -0.13415816 -0.14657417 -0.07922672 -0.070434086
-0.11428166 -0.15983953 0.050864644 -0.0073667075 -0.0032741744 -0.20363751 -0.18580921 -0.12055747
0.028334145 -0.059991483 -0.14269876 -0.067892134 -0.084573455 -0.1811113 0.014389743 -0.0032356621
-0.11298376 0.07499053 -0.016221697 -0.06803415 0.11797478 -0.1002235 -0.16856098 -0.08431077
-0.04189863 -0.091778666 -0.22072771 -0.1563876 -0.1140533 -0.049746577 -0.13800438 -0.13006881
-0.072922476 0.021662882 -0.15710229 -0.14151266 -0.13105115 -0.06689032 -0.09057752 -0.02462545
-0.18779214 -0.010036615 -0.012618354 -0.0385702 -0.17588137 -0.12609427 -0.07926157 -0.16352716
-0.15964076 -0.13582325 -0.12152068 0.07871918 -0.15092492 0.038078338 -0.06892669 -0.06507844
-0.09301143 -0.1693658 -0.074293375 0.021979481 0.12644476 -0.019477967 -0.093454935 -0.08758837
-0.17135935 -0.021568047 -0.13574481 -0.06885869 0.0071655335 0.10889958 -0.07661777 -0.013335748
-0.053052254 -0.047670342 -0.17813773 -0.123160124 0.04183158 0.12319044 -0.0038852326 -0.03721913
-0.08411314 -0.035045303 -0.102171235 -0.050301135 -0.049607407 -0.09299663 -0.12598693 -0.1441546
0.015366852 -0.0053318464 0.030287715 0.08604185 -0.2167355 0.13640599 0.010428515 -0.0181948
-0.052709814 -0.23058835 0.04591311 -0.020596934 -0.14102833 0.062693454 0.21313566 0.023158275
-0.09037829 0.10803506 0.040406507 -0.11346366 -0.033364926 -0.10706739 -0.00629561 0.112296
-0.06674866 -0.108969 0.055664353 0.014875341 -0.21804018 -0.07629925 -0.11586251 -0.1320373
-0.17404151 -0.230486 -0.091483995 -0.08005643 0.11251636 -0.061739877 -0.032995056 -0.03694287
0.17992064 -0.15625778 -0.17790256 -0.06722629 -0.1002899 -0.0249435 0.06598803 0.083897576
-0.24334757 0.0036895035 -0.09399668 -0.15050036 -0.039226126 -0.1987435 0.14797932 -0.119594425
0.074603595 -0.017890077 -0.019066375 -0.15496527 -0.13714978 -0.010348293 -0.088192016 -0.0036185256
-0.010611776 -0.0014885284 0.021403916 0.10776649 0.020244313 0.090316966 -0.0053058728 -0.04466746
-0.044514835 -0.03690951 -0.05867153 -0.03500623 0.0039414 0.08422925 -0.06715715 0.20522626
