SecondModel.pth (torch, 962177 bytes, 24 tensors)

feature_extract.0.weight f4 [32, 3, 5, 5]
000000 7b 5f 00 be 7f 13 05 3d c3 38 8c bd 25 30 33 3d
       -0.12536423 0.032489296 -0.06846764 0.043747086
000010 43 c0 07 be e4 69 1f be 39 6a 24 be bb 42 02 3d
       -0.13256936 -0.15567738 -0.16056146 0.03180192
000020 50 d4 67 3d 59 6f 2e be 28 ed 99 bb 54 80 47 be
       0.05659896 -0.17034663 -0.0046974607 -0.19482547
000030 5d 47 6a be 9a b6 fa bd 42 33 81 3d b3 4d 2a 3e
       -0.22878785 -0.1224186 0.06308605 0.16631202
000040 db f1 d1 3d 62 bd 2a bd 91 61 91 3d f1 ee 36 bd
       0.102512084 -0.041684516 0.070986874 -0.044661466
000050 98 08 0b 3e 58 af 4b 3e c5 50 44 3e d0 47 e7 3d
       0.13577497 0.19891107 0.19171436 0.11292994
000060 bc 1c 43 3e 58 19 e2 39 f8 6d 22 3d 87 99 f3 3d
       0.1905393 0.00043124962 0.039655656 0.118945174
000070 1e 9a 9c 3d ea 4a 1e 3d 6b 58 8b 3a 98 34 bd bd
       0.07646583 0.038645662 0.0010631209 -0.09238547
000080 dd 37 f8 3d 4a a5 54 bc 8a c4 b6 3d ea 3d 49 bd
       0.1212003 -0.012978861 0.089242056 -0.04913131
000090 83 92 0b be 7d 51 70 bd ac 26 46 bc 1b b2 df 3d
       -0.13630109 -0.058671463 -0.012094181 0.10922643
0000a0 12 d3 09 3c 51 70 a3 bc 68 c8 18 be 6c 2c 84 be
       0.0084121395 -0.019951018 -0.14920199 -0.2581514
0000b0 8b 05 75 be f4 aa 88 bd 38 55 aa 3c 32 ab 0a bd
       -0.23927896 -0.06673232 0.020792589 -0.03385467
0000c0 d0 ce ca bd 67 0c 19 be fa 4c 4f 3d 7a 2f 27 3d
       -0.099027276 -0.14946137 0.05061052 0.04081676
0000d0 7f 2a 9f 3d 05 28 1e 3e f1 fc 24 3e 63 ef 91 3d
       0.07771777 0.15444954 0.16112114 0.071257375
0000e0 c5 26 73 3e 97 d0 6c 3e 24 f6 89 3e 6d d5 79 3e
       0.23745258 0.23126446 0.26945603 0.24397822
0000f0 cd 8d ea bd 05 55 09 3c f3 50 d3 bd df 92 78 3e
       -0.114528276 0.008382087 -0.10318174 0.24274777
000100 fb 01 44 3e 67 a2 35 be 03 e2 ba bb 27 4d 80 bc
       0.1914138 -0.17737733 -0.005703212 -0.01566179
000110 9d 9f 48 be 7a b0 7c bb c8 c5 91 bd 03 42 19 be
       -0.19592138 -0.0038557337 -0.07117802 -0.14966588
000120 c3 20 ce bc 4c 18 46 3d 40 23 9f bd d7 2a 4b 3b
       -0.025162106 0.048363015 -0.07770395 0.0031000876
000130 43 b2 cb 3b 39 00 19 bd 59 3e 89 3d f1 24 92 bc
       0.006216319 -0.037353728 0.06701345 -0.01783988
000140 e7 0d 47 be 81 4c 97 3c 86 b5 2d 3d c1 22 39 3c
       -0.19438897 0.018469097 0.042409442 0.01129979
000150 e1 b2 d4 bb 8f 13 e6 bd 78 5c 81 bd 8a 0b ba 3e
       -0.0064910506 -0.11234199 -0.06316465 0.3633693
000160 d6 6c 6e bd ce 52 91 3c 64 1b 8e be 99 7c 79 3b
       -0.058209263 0.01773968 -0.27755272 0.003806865
000170 3a 42 98 3e 48 70 af bc 8c 7e 1c bd 7c ca 14 bd
       0.29738027 -0.021415845 -0.038206622 -0.036325917
000180 b5 a6 d3 3d 11 b3 07 3e f2 11 1c 3d a4 a4 9b 3c
       0.10334531 0.13251902 0.03810305 0.018999405
000190 12 16 c2 bd ae 9e 69 3d 43 a8 ee 3d 1f 94 cc 3a
       -0.09476866 0.057036094 0.11653187 0.0015608108
0001a0 b3 bb 69 bd 25 0c a7 bc 3d e0 3f bd 62 4e 29 3e
       -0.05706377 -0.020391533 -0.04684471 0.16533807
0001b0 f9 98 bc bd 8b 40 0d be 5f 16 d1 bd 5c e2 ad 3c
       -0.09208865 -0.13794152 -0.10209345 0.0212261
0001c0 78 ae ad 3e 04 78 2a be 1b b1 4c be 77 b5 6e bd
       0.33922172 -0.16647345 -0.19989435 -0.058278527
0001d0 86 54 ac bc 96 41 46 3e 56 cd 66 be 17 bf d2 bd
       -0.021036398 0.19360957 -0.22539267 -0.10290354
0001e0 36 1b 8a bb 59 5a b9 3d 6e 06 05 3e c9 a6 1a be
       -0.0042146696 0.090504356 0.12990734 -0.15102686
0001f0 57 ec a8 bc 0a 4c 9f 3d 11 8d b2 bd bc 2f e8 3d
       -0.020620508 0.07778175 -0.087183125 0.113372296
000200 6c 24 1a 3c 29 43 9d bc c8 7b 46 bd 8a 46 69 3d
       0.009408098 -0.019197064 -0.04845789 0.056952037
000210 8c 1b 75 3e bd 49 45 3d c6 31 18 be 32 38 ad bd
       0.2393629 0.048166025 -0.14862737 -0.08457984
000220 1c 5b 6f bc 72 61 43 3e 45 aa b4 3c 00 6e 0f be
       -0.0146091245 0.19080141 0.022053847 -0.14006805
000230 82 0d a4 bd 20 70 d2 3d eb 30 63 3e 72 a9 0c be
       -0.08010389 0.102752924 0.2218663 -0.13736513
000240 9a 9f 07 be 58 4f 30 bd 0b 6d 88 3c 11 ed f8 3d
       -0.13244477 -0.043044418 0.016653558 0.12154592
000250 32 ff 4b bd af 37 ec bd 78 35 eb bd 77 72 83 be
       -0.04980392 -0.11534058 -0.11484808 -0.25673267
000260 ff 8f 18 be 25 f1 99 3d a6 5c 08 3e 9b 39 f6 bc
       -0.1489868 0.07516698 0.13316593 -0.030056765
000270 9b 39 67 bd 5a d8 9e be 4f 2d a4 be a4 b7 1e 3d
       -0.05645142 -0.31024438 -0.32065818 0.038749352
000280 17 31 53 bd 07 97 0d 3e 94 0e 28 3d bd 51 8b bc
       -0.051560488 0.13827144 0.041029528 -0.01700675
000290 18 9f fa bd 58 94 e3 bc 30 1f 8b 3d 26 31 14 3e
       -0.12237376 -0.027780697 0.06793058 0.14471874
0002a0 cb d0 95 3e 6e 79 e5 3d f4 74 ff 3d ef 41 3c 3d
       0.2926086 0.112048015 0.12473479 0.045961317
0002b0 53 cc a5 bd fa 9d 42 3e 7e cc f3 3d 14 ca 4e 3d
       -0.080956124 0.19005576 0.11904238 0.050485685
0002c0 ff 6c 3d 3d 9b 13 84 3d d2 27 84 3e 0f 48 83 3d
       0.046246525 0.06449052 0.2581163 0.064102285
0002d0 1c 2e 9c 3d 89 95 af 3d c7 77 a5 bd 4d 62 4f be
       0.07625982 0.085734434 -0.08079486 -0.20252343
0002e0 84 41 74 3d 5c ee 6b 3a 2b 0b 75 3c 0f 92 4a 3e
       0.059632793 0.0009000057 0.014956276 0.1978228
0002f0 78 be 1b be 2c db 8e bd c2 1a e2 bd 19 78 76 bd
       -0.15209377 -0.069753975 -0.1104026 -0.060173128
000300 63 cc 08 3e f7 eb 9e 3d 74 43 a9 bb ba d3 3b bd
       0.13359217 0.077598505 -0.0051655117 -0.045856215
000310 68 04 25 bd 95 a9 29 be 87 72 ec bc 65 92 2e 3d
       -0.040287405 -0.16568597 -0.028863205 0.04262008
000320 ee c7 e1 3d 29 e9 a6 3d 28 e6 ba bd 0a 1a d8 3d
       0.11024462 0.081499405 -0.0912593 0.105518416
000330 08 36 22 bd 01 ba 8c 3c 56 02 59 3d 61 e0 13 be
       -0.03960231 0.017178537 0.052980743 -0.14441063
000340 c0 ba 12 bc b3 d6 c0 3d 2b 60 67 3d 32 36 5f 3e
       -0.0089556575 0.094159506 0.056488197 0.21798018
000350 7d b9 5d 3e 21 e0 4e be e9 6e 1f be 47 c6 e6 3c
       0.2165279 -0.20202686 -0.15569653 0.028170718
000360 0f 11 f3 bd 8d b7 1f 3e 74 aa 16 3e 86 d0 68 be
       -0.11868488 0.15597363 0.1471346 -0.22735795
000370 92 38 18 3c 91 6c e1 bd 13 2e 1a be 58 1a 8e 3c
       0.009290831 -0.110070355 -0.15056638 0.017346546
000380 54 06 d8 bd 85 8e 0e be e7 4d 3d be 52 be d8 ba
       -0.10548082 -0.13921554 -0.18486749 -0.0016536212
000390 b4 32 6f bd c6 da 57 3e c1 1d 7c be 50 8f bb bd
       -0.058397964 0.21079549 -0.24620725 -0.09158194
0003a0 87 fb 4e 3b 22 22 3e 3e 49 7d 29 3e 47 fe 5d be
       0.0031583027 0.18567708 0.16551699 -0.2167903
0003b0 35 6b c9 bd 79 fa 87 3e 43 5b 12 3e 22 65 11 3d
       -0.09834901 0.26558283 0.14292626 0.03549684
0003c0 45 37 c8 3c b8 6a 2d 3e 4f ab 0c 3d dd a7 0b be
       0.024440417 0.16935241 0.03434306 -0.13638254
0003d0 19 2e cf bd 08 4c 35 3c 84 6d fd 3d 18 ff 29 bd
       -0.10116214 0.011065491 0.12374404 -0.041503042
0003e0 33 d9 21 be 00 61 af 3d 68 a9 25 3e 3f 74 a3 3d
       -0.15805511 0.08563423 0.16177905 0.079811566
0003f0 25 e1 b0 bd 6d 91 3f 3d c9 19 eb 3b fa 31 32 3c
       -0.08636693 0.04676955 0.0071747047 0.010876173

feature_extract.0.bias f4 [32]
000000 2f 86 17 3e 4a 9b d2 bd f5 25 86 bd 42 22 9e bc
       0.1479728 -0.10283525 -0.065502085 -0.019303445
000010 e5 c2 40 bd 27 a7 b5 3d 28 9d 04 3e 9c 7e dd 3d
       -0.047060866 0.088697724 0.12950575 0.108151644
000020 73 d0 20 bd 61 6e ed 3c 52 5c 99 3c aa f9 d0 bc
       -0.039261293 0.028983297 0.01872078 -0.025509674
000030 7b bc ab 3b f0 61 2a 3d 20 ad 8f 3d 20 1b 9f bd
       0.0052409745 0.041597307 0.07015443 -0.077688456
000040 55 ba c6 bd bd 81 05 bc 5a 77 1f be d1 63 72 bd
       -0.09703509 -0.008148608 -0.15572873 -0.059177224
000050 e9 32 bc bc cc 7c b2 bd 1b 56 93 3d 9f 20 96 bc
       -0.022973495 -0.08715209 0.07194158 -0.018326102
000060 93 52 8d bc 07 a3 e4 3d 6f 3f ab 3d b3 05 ff bb
       -0.017251289 0.111639075 0.083617084 -0.007782662
000070 20 79 94 bc 99 f8 c9 3d 88 c2 aa 3d 04 fa c3 bd
       -0.018124163 0.09861869 0.08337885 -0.09569171

feature_extract.1.weight f4 [32]
000000 34 db 3f 3f e9 91 8f 3f 20 e6 87 3f 0f 7d 8b 3f
       0.7494385 1.1216403 1.0617104 1.089754
000010 24 f5 96 3f 75 a8 5d 3f c4 6f 89 3f 60 2f 81 3f
       1.1793561 0.8658517 1.0737233 1.0092583
000020 e8 e1 9e 3f 20 e6 72 3f 8c b2 af 3f 78 ed 8d 3f
       1.2412691 0.9488239 1.3726363 1.1088095
000030 10 d2 8d 3f 89 2b 0d 3f f2 f6 7b 3f f4 e6 53 3f
       1.1079731 0.55144554 0.98423684 0.8277428
000040 7e 4c 22 3f a2 58 9f 3f 6d a5 61 3f c5 db 78 3f
       0.6339797 1.2448924 0.88143045 0.9721034
000050 e4 25 8f 3f fa bb 52 3f 4a f7 82 3f a7 05 35 3f
       1.1183438 0.8231808 1.0231717 0.7071175
000060 fa 0e 3a 3f 47 eb 6e 3f 06 94 93 3f 55 f7 45 3f
       0.726791 0.93327755 1.1529548 0.77330524
000070 d2 c8 c2 3f 66 0e 8b 3f 8a 0c 97 3f 17 a2 86 3f
       1.5217535 1.0863769 1.1800702 1.0518216

feature_extract.1.bias f4 [32]
000000 2b 9d df bd 0f e4 dc bd 8d 66 57 be 73 7a 9e be
       -0.10918649 -0.10785686 -0.21035214 -0.30952796
000010 b8 b7 52 be f9 37 0f be e4 7a 35 be 17 74 eb bd
       -0.20577896 -0.13986196 -0.1772266 -0.11496752
000020 d1 e8 46 be ca b4 7e bd 44 31 9c be be fa 19 be
       -0.1942475 -0.062184133 -0.30506337 -0.15037057
000030 77 0b 6c bd b7 6f 84 bc 80 f5 a4 bd b8 c6 f1 bd
       -0.05762812 -0.016166551 -0.08054638 -0.11805481
000040 f1 7c 0d be b7 ae 0a be b2 3c 84 bd 1c 99 f9 bd
       -0.13817193 -0.13543211 -0.06456889 -0.121874064
000050 01 6d 75 be 8e 09 b7 bd b3 a5 0c bd 1c a3 f4 bd
       -0.23967363 -0.08937369 -0.03433771 -0.11945173
000060 8a a9 06 be 9a bd c4 3c e4 1a 4a be 7f ba d8 bc
       -0.13150612 0.02401619 -0.1973682 -0.026456116
000070 06 4c 2c be 6c 59 0e bd 1c 2e 43 be c8 0a 0c be
       -0.16825876 -0.034753248 -0.19060558 -0.13675988

feature_extract.1.running_mean f4 [32]
000000 51 e4 0e 3e 17 39 3f be 8c 95 8b bd 72 c3 07 bd
       0.13954283 -0.18674122 -0.06815633 -0.033145376
000010 7d d7 b8 bc 58 62 68 3c ad 1f e9 3d 42 4d cf 3d
       -0.02256369 0.014183603 0.11382995 0.10122158
000020 d4 ff d3 bd 7e 53 1a ba 03 8b 24 3d fe 8a 94 bd
       -0.1035153 -0.0005887075 0.040171634 -0.07253073
000030 99 42 e3 3c 8d c0 0d bd 4d 46 aa 3c db 67 ca bd
       0.027741717 -0.03460746 0.020785475 -0.0988309
000040 0a 28 9d bd 58 b4 93 bc 17 68 54 be 19 c9 66 bd
       -0.076736525 -0.01803033 -0.20742832 -0.056344125
000050 9a fd bc bb b1 bd 1a bd 0a 9a 8d 3d 82 bd dd 3e
       -0.0057675363 -0.03777856 0.06914146 0.43308645
000060 bb 32 e3 3d a6 e7 45 bd 60 6d 02 3e 82 93 0f bd
       0.110936604 -0.04831662 0.12737036 -0.035052784
000070 67 f5 93 bc 79 b9 e9 3d 9e 61 34 3e 01 8b b5 bc
       -0.018061353 0.11412329 0.17615363 -0.022161009

feature_extract.1.running_var f4 [32]
000000 76 c5 7d 3f b9 57 c0 3f 0d 73 ec 3e 26 4b 29 3f
       0.99129426 1.5026771 0.46181527 0.6613029
000010 2d ef 8a 3f 21 09 b6 3f d0 2a b9 3e 5d 34 05 3f
       1.0854241 1.4221536 0.36165476 0.52033025
000020 e1 dd 22 3f ce 7e 9f 3f 42 6b 15 3f c4 a3 eb 3e
       0.6361981 1.2460573 0.5836679 0.4602338
000030 f9 55 41 3f 46 60 2e 40 76 bc 67 3f 22 28 fa 3f
       0.7552181 2.724626 0.90521944 1.9543498
000040 74 bf 40 40 c5 01 b3 3e 62 6e 4d 3f 22 a7 e6 3f
       3.0116854 0.34962288 0.80246556 1.8019755
000050 30 bf a7 3f 2e 62 8b 3f 98 94 d8 3e e3 63 2c 41
       1.3105221 1.0889337 0.42300868 10.774386
000060 fa bf 4b 40 78 17 14 40 86 02 b2 3f 80 37 3e 3f
       3.1835923 2.3139324 1.390702 0.74303436
000070 b1 5c 9a 3e cc 2d 51 3f da 22 c0 3f a6 d9 f7 3f
       0.30148843 0.81710505 1.5010636 1.9363296

feature_extract.3.weight f4 [64, 32, 5, 5]
000000 6f 12 4c 3d 8b ab 8c 3c 88 67 45 3c 53 97 12 3e
       0.049822267 0.017171642 0.01204861 0.14315538
000010 49 0a 03 3e 4e 54 43 bd 21 41 6c bd f5 3f c3 bd
       0.12796892 -0.04768782 -0.0576793 -0.09533683
000020 54 49 62 bd c6 45 32 3c 1c 6f 47 be ac 4e 3e be
       -0.055245712 0.010880893 -0.19475979 -0.18584698
000030 5d 4d 47 be 3a e1 c9 bd 71 2b 15 bd e7 30 26 be
       -0.19463105 -0.09857412 -0.036418382 -0.16229592
000040 b0 03 22 be 0a 63 26 be f7 03 ea bd 21 c1 18 bd
       -0.15821719 -0.16248718 -0.114265375 -0.037293557
000050 35 d8 a7 bd e3 3f 4e bd 8a 44 49 bd 93 b6 59 bd
       -0.08195535 -0.050353896 -0.04913763 -0.053152632
000060 b1 8c 46 bc a7 1c 06 3d 54 b7 57 b9 62 40 6d 3d
       -0.012118504 0.03274217 -0.00020572293 0.05792273
000070 eb 62 94 bd 62 b1 ef bd 79 75 16 bd 6c 30 e6 bc
       -0.072454296 -0.11703755 -0.036733124 -0.028099261
000080 dd 33 3f 3d 40 64 d2 bb 83 20 2f bd 0d 0f 7d 3d
       0.04668032 -0.006420642 -0.042755615 0.06178193
000090 ac 41 ca bc cd 8c 05 3c 26 41 4e 3d 8b f0 39 bc
       -0.024689518 0.008151245 0.0503551 -0.011348854
0000a0 cf 58 66 3d 8c af 0a bd f9 e5 01 bc 8f fd 93 3c
       0.05623704 -0.03385882 -0.007928365 0.018065242
0000b0 0f 48 16 bd 66 17 24 3b cd 84 84 bd 1c dc 3d bd
       -0.036689814 0.002503836 -0.06470642 -0.04635249
0000c0 00 25 8e bd 85 65 a9 bd 53 d1 ea bc 0a 9e 01 3d
       -0.06940651 -0.082713164 -0.028664267 0.03164486
0000d0 50 36 4b 3d 6a 16 06 3d ed 27 57 be e5 f0 98 bc
       0.049612343 0.03273622 -0.21011324 -0.018669555
0000e0 a5 76 fb 3d 2b ba 43 3a cb 84 26 bd 88 59 bd 3b
       0.12278489 0.0007466401 -0.040653985 0.005778495
0000f0 43 3d d7 bd 8b 16 da bc 50 25 b2 3d b1 66 39 bd
       -0.105097316 -0.026622077 0.08698523 -0.04526395
000100 6f 00 42 3d 7e 57 f8 bd c9 6b 0a 3e 5a c1 85 3d
       0.047363695 -0.12126063 0.1351768 0.065310195
000110 54 98 06 3d 5b 2f 6c 3d b8 6a 1c be 9b be bd 3c
       0.032860115 0.05766235 -0.15275085 0.023162177
000120 2b 6b b3 ba ad 3b 21 bd f9 c2 6f bd 6d 56 0f 3e
       -0.0013688555 -0.039363552 -0.05853555 0.13997813
000130 98 4d 18 bd b6 e6 08 3c e5 2d c7 bb e5 83 05 3d
       -0.037183374 0.008355787 -0.006078469 0.032596488
000140 de 4f 07 bc 1b 0e 8e 3d 82 15 e1 3d b6 11 46 3d
       -0.008258788 0.06936284 0.109904304 0.048356734
000150 30 0f 06 bc bb 22 5a bd 84 f1 7b 3d 45 63 c1 3d
       -0.008182332 -0.053255778 0.061509624 0.09442762
000160 1b e3 b9 3d 1b 4b 4c 3d 49 d0 3b bd 1a 2c a1 bd
       0.0907652 0.049876314 -0.045852933 -0.0786974
000170 a7 25 25 bc b8 87 4c 3d 85 03 b0 3d c9 a2 a6 3b
       -0.010079778 0.04993412 0.08594421 0.0050853235
000180 ef a9 bb bd 37 47 ea bc 16 6e 59 3c e4 9e 0e 3e
       -0.09163272 -0.028598411 0.013270875 0.139278
000190 ea e8 2b bd a0 ad a7 3d 1e eb a8 3c 8f 83 b7 3d
       -0.04197017 0.08187413 0.020619925 0.0896064
0001a0 26 ed ed 3d 5e fb 5f bd 1f 01 c2 3d 6a 28 b3 3d
       0.11617498 -0.05468308 0.0947287 0.08747943
0001b0 96 55 30 3c df 82 da 3d 6e 9a 26 3d 23 c7 5d 3e
       0.010762593 0.10669493 0.04067462 0.21657996
0001c0 c4 23 e4 3d a1 02 39 bd bf 54 b0 3d 3c 79 30 3c
       0.11139634 -0.045168523 0.08609914 0.010771092
0001d0 92 2a 0f 3e 7d 43 7b bc 2e 72 b4 bd 23 3c 3a 3d
       0.13981083 -0.015335915 -0.088108405 0.045467507
0001e0 09 9c 45 bd 21 fc 9f bd ae fd 3d bd d3 eb 06 be
       -0.04824451 -0.07811762 -0.046384506 -0.13175897
0001f0 2e ea f8 bd 8b d9 88 bd 6a 8c b0 bd e1 02 98 bd
       -0.12154041 -0.06682118 -0.08620532 -0.07422424
000200 b1 1c 3f bc 02 88 ff 3c f7 13 21 bd 84 92 4d be
       -0.011664555 0.031192783 -0.03932568 -0.20075423
000210 c7 db 18 be bd d5 de bd 83 e0 b2 bc 35 fa b7 bd
       -0.14927588 -0.10880611 -0.021835571 -0.0898327
000220 89 28 1d be f3 63 f6 bd 9a 2e 08 be 4b f3 1c be
       -0.15347494 -0.120307826 -0.13299027 -0.15327184
000230 3f 23 28 bd d4 82 aa bd aa b0 8f bd cb 52 81 bd
       -0.04104924 -0.08325735 -0.07016118 -0.0631462
000240 64 3b f1 bd 95 81 ba 3d 54 f4 8b 3d bb e6 97 3d
       -0.11778906 0.09106747 0.06833711 0.07417055
000250 4f d7 ed 3d 5a c1 12 3e f7 05 8e bd d4 f8 c0 bb
       0.116133325 0.1433157 -0.069347315 -0.0058890376
000260 62 85 cc 3d e5 6f a0 3d 62 62 45 3c eb 7d f0 3d
       0.09986378 0.07833842 0.012047382 0.11742767
000270 4a d9 6d 3e ae 80 30 3e 3e b8 14 bd 59 b6 8e 3c
       0.2322742 0.17236587 -0.03630852 0.017420935
000280 39 3e 16 3d c7 c0 bf 3d e3 c2 a2 3d 63 30 0d bb
       0.036680434 0.09362941 0.07947328 -0.0021543733
000290 75 d5 04 3e 8b d4 5e be 96 b8 99 bd e9 0a 85 bc
       0.12972052 -0.21760766 -0.0750591 -0.016240554
0002a0 b3 2b 41 bc b8 64 9f 3d 4c 10 f5 bd 1e f2 b7 bc
       -0.011790204 0.077828825 -0.11965999 -0.022454318
0002b0 2c ee 77 3d b9 5e bc 3b 38 72 c3 3d 91 78 dd 3d
       0.060529873 0.0057485965 0.0954327 0.10814012
0002c0 e8 fb 97 bd 10 0b d0 3d 02 3a c8 bc db cc 0d 3d
       -0.07421094 0.1015836 -0.024441723 0.034619194
0002d0 54 40 1a be be cb 6f be b2 2d 89 bd 33 55 34 bd
       -0.15063602 -0.23417565 -0.06698169 -0.044026565
0002e0 0e dc 80 bd 09 94 fa bd d9 7e 38 bd d9 fd 04 be
       -0.06291972 -0.12235267 -0.045042846 -0.1298746
0002f0 7c 49 3b be 0b 69 06 be 29 5e 63 3e a2 00 1d 3e
       -0.18289751 -0.13126008 0.22203888 0.15332273
000300 7a ec 59 3e 47 58 cb 3b 36 0f 0e bd 11 2c 1c 3e
       0.21281615 0.006205592 -0.034682475 0.15251185
000310 10 cb 05 3d ed e2 bd 3d 68 4c 2b 3d 6e 0e 50 bc
       0.03266436 0.09271798 0.041820914 -0.012698753
000320 4c 76 5c 3d 0b 9c 77 3d 5b 68 73 3d bd e1 2e be
       0.053823754 0.06045155 0.059425693 -0.170783
000330 a6 5b 68 bd b1 b5 bf 3b a1 de be 3d b0 98 af bc
       -0.056728028 0.0058505167 0.09319807 -0.021435112
000340 58 66 6f be 48 91 a3 3a ef 7a 3f bb 5b 5b e7 bd
       -0.23378885 0.001247921 -0.0029217561 -0.112967215
000350 37 bc 3a be 99 f2 a8 be 68 46 0c be 7c 44 bd 3c
       -0.18235861 -0.32997587 -0.13698733 0.023103945
000360 6d 90 03 3e 3c a5 83 3d 88 89 a2 bd ba ff f5 bd
       0.12848063 0.06428 -0.07936388 -0.120116666
000370 5e e7 c1 bc de 8a 5a 3d 73 25 ea 3d 41 2d 5a bd
       -0.023669895 0.05335509 0.11432924 -0.053265814
000380 68 fd 80 bd 3d 18 7c 3b 91 13 f4 3d 19 18 62 3d
       -0.062983334 0.0038466596 0.119177945 0.055198763
000390 86 5c 31 3e b1 17 6b 3d 99 30 6b bd c1 d7 e6 3c
       0.17320451 0.05739564 -0.057419393 0.028179051
0003a0 e4 08 08 3e 22 38 b6 3d 37 58 50 3d 3f ab 27 bd
       0.13284642 0.08897425 0.05086538 -0.040934797
0003b0 6f f7 c6 3d 10 95 e1 3c 2a d4 5d 3d 4a cb 4a 3b
       0.09715163 0.027536899 0.054157414 0.0030943924
0003c0 cb 65 61 3c e9 2d 90 3d 5b 11 d9 3d 45 03 06 3d
       0.0137571795 0.07040007 0.105990134 0.03271796
0003d0 35 5c f1 bc 09 51 66 3c 10 20 da 3d 15 67 d5 3d
       -0.029462913 0.014057406 0.10650647 0.10420052
0003e0 04 13 96 3d 08 a9 45 3d a7 34 19 3e 14 e4 56 3e
       0.07327846 0.048256904 0.14961492 0.20985442
0003f0 c5 16 3c 3e 6b 1e c0 3e f7 fa f5 3d 4c 5a 24 bd
       0.18368061 0.37523207 0.12010758 -0.040125176

feature_extract.3.bias f4 [64]
000000 f5 8f 9d bc ca 6c 20 bc 49 ba fa bb 87 ed 0b 3d
       -0.019233683 -0.009791562 -0.0076516015 0.03416207
000010 f4 bc 8c bc e8 24 11 bd f8 d7 fd 3c f8 b2 aa 3c
       -0.017179944 -0.035435587 0.030986771 0.020837292
000020 2f 26 f3 3c 1b 41 8a bb b2 d5 d5 3c ec 23 5b bc
       0.029681293 -0.004219187 0.026102874 -0.013375264
000030 a1 af 9f bb 41 3c f9 bc eb e1 ce 3c 81 9a 85 3b
       -0.0048732315 -0.03042424 0.02525421 0.004077256
000040 7f e9 33 bc c5 18 4c bb f8 71 a2 bc fa d9 9d bc
       -0.010980963 -0.0031142693 -0.019829735 -0.019268978
000050 2c 59 19 bc 41 c2 94 3c 06 ec 71 3c bd a1 99 3c
       -0.009359639 0.018159034 0.014765745 0.01875388
000060 3b 96 63 3c 88 fc 54 3c 45 c0 e0 3c 33 50 bf bb
       0.013890798 0.012999661 0.027435431 -0.005838418
000070 0e 73 00 3d 75 27 2a bc 22 39 c6 bc f3 85 7f 3c
       0.031359725 -0.010385384 -0.024197165 0.015595901
000080 73 e8 53 3c 25 24 13 3b a7 e4 ce 3c 4b cc 22 3d
       0.012933838 0.0022451964 0.025255514 0.03974561
000090 d9 6c 83 3c 42 69 e6 bc 2e 8e 42 3c ea 3f 1c 3c
       0.016043114 -0.028126363 0.011874719 0.009536723
0000a0 e3 66 83 3c 8c 5d ad 3c e6 7d e9 bb 13 3d 3d 3c
       0.016040271 0.02116277 -0.007125604 0.011550206
0000b0 e3 d4 de 3c 97 f9 b5 bb c8 d7 c4 3b 79 a8 0a 3d
       0.027201122 -0.005553435 0.0060071684 0.033852074
0000c0 78 97 25 bc ed e4 e9 b9 11 7a f6 3b ed bb 94 3c
       -0.010106914 -0.00044611786 0.0075218757 0.018156016
0000d0 20 78 42 3c f6 3b 09 bc 53 dd 4a 3c 34 62 86 bc
       0.01186946 -0.008376112 0.012381869 -0.016404249
0000e0 54 1b be bc 5a d1 c8 3c 54 6a b1 bc e1 53 ba 3c
       -0.02320639 0.02451389 -0.021657147 0.022745075
0000f0 08 f4 bf bc 13 f3 ad 3c bc 40 24 3d b2 5c da bc
       -0.023431793 0.02123407 0.040100798 -0.026655529

feature_extract.4.weight f4 [64]
000000 cd 66 6b 3f 7a bd 84 3f 5c 42 73 3f f1 d5 86 3f
       0.91953737 1.0370324 0.9502313 1.053404
000010 4c b0 6a 3f 4f 3c 73 3f db e4 4b 3f 5f 92 7a 3f
       0.9167526 0.950139 0.7964608 0.97879595
000020 97 88 8a 3f ab 33 82 3f 03 2b 3e 3f 8b 93 50 3f
       1.0822934 1.0172018 0.7428438 0.8147513
000030 14 d3 8f 3f a9 9e 9d 3f f0 ce 90 3f 87 10 48 3f
       1.1236291 1.2314044 1.1313152 0.7815022
000040 45 ea 75 3f d6 67 1c 3f 78 da 68 3f 80 9e 59 3f
       0.9606059 0.6109594 0.90958357 0.85007477
000050 e5 1d 8c 3f 9c e9 69 3f 6a 66 6f 3f b5 bc 6e 3f
       1.0946623 0.91372085 0.93515646 0.93256694
000060 58 00 71 3f 06 95 8b 3f 4f 1b 54 3f 8d df 39 3f
       0.9414115 1.0904853 0.8285417 0.72606736
000070 93 5e 69 3f c5 86 a5 3f 1e 7e 87 3f 60 86 6e 3f
       0.91159934 1.2931753 1.0585363 0.9317379
000080 86 f1 7c 3f 14 eb 70 3f 0b cb 90 3f 6e 7b 8c 3f
       0.98806036 0.941087 1.1311964 1.0975168
000090 23 29 8a 3f b5 69 90 3f 50 27 ac 3f 8f 4c 80 3f
       1.0793804 1.1282259 1.3449497 1.0023364
0000a0 83 52 57 3f 10 1b 7c 3f 51 81 4d 3f b9 3e 55 3f
       0.8411028 0.98478794 0.80275446 0.8329883
0000b0 47 49 8b 3f 40 be 77 3f 05 09 9e 3f 3e 68 8f 3f
       1.0881737 0.96774673 1.2346503 1.1203687
0000c0 3a 34 9d 3f c8 0b 94 3f 17 27 84 3f f7 61 61 3f
       1.2281563 1.1566095 1.0324429 0.8804011
0000d0 8d f2 85 3f 81 68 64 3f f4 22 77 3f 3e 01 a7 3f
       1.0464646 0.8922196 0.9653771 1.3047254
0000e0 a2 ca 5c 3f c8 9e 89 3f 4e 0c 7c 3f af 3e 85 3f
       0.86246693 1.0751581 0.98456275 1.0409755
0000f0 27 c2 50 3f cc 80 94 3f 9b 03 81 3f b2 9c 61 3f
       0.8154625 1.1601806 1.0079225 0.88129723

feature_extract.4.bias f4 [64]
000000 e3 2d a6 3d 67 1f 8b be 30 ce 76 be 34 7a 8f be
       0.08114221 -0.27172396 -0.24102092 -0.2802292
000010 0a 30 f0 be 38 7f 62 be d8 b7 ce be af 15 e4 be
       -0.4691165 -0.22118843 -0.40374637 -0.44547793
000020 22 e3 00 bf 3a cd 46 be 03 6b 87 be f7 fd c6 be
       -0.5034658 -0.19414225 -0.2644883 -0.38865635
000030 68 76 97 be ec e6 8b be f2 ba 77 be 55 52 67 be
       -0.29582524 -0.27324617 -0.24192408 -0.22590001
000040 25 d4 c1 be 1a dc 95 be 45 01 5f be b2 4e 96 be
       -0.37857166 -0.29269487 -0.21777828 -0.29356915
000050 d0 b9 13 be 7a 53 6a be 6a 5e 90 be 31 13 0d be
       -0.1442635 -0.22883406 -0.28197032 -0.13776852
000060 69 a0 c7 bd b8 ea 01 be 45 99 59 be eb e8 41 be
       -0.09747393 -0.12687194 -0.21249874 -0.18936507
000070 15 d9 69 be 15 29 92 be 82 23 61 be 13 b1 9e be
       -0.22836716 -0.28546968 -0.21986201 -0.30994472
000080 23 ce 64 be f6 f6 ad be be c2 85 be 8c 85 54 be
       -0.2234426 -0.3397748 -0.2612514 -0.20754069
000090 f7 75 46 be e7 c1 4b be 5c bf 0e be 6d 55 01 be
       -0.19380938 -0.19898187 -0.13940185 -0.12630244
0000a0 a7 55 b0 be f0 54 c9 be 75 3e 1f be a6 0c 6e be
       -0.34440348 -0.39322615 -0.15551169 -0.23247012
0000b0 45 0f b1 bd 84 da 8d be a3 cc 91 be d2 32 5c be
       -0.086454906 -0.27705777 -0.28476438 -0.21503761
0000c0 43 fd b9 be 98 13 35 be 26 a0 2e be d2 55 37 be
       -0.36326036 -0.17683256 -0.1705328 -0.17903832
0000d0 b4 14 39 be 94 ff 84 be 44 98 9f be 65 11 a5 be
       -0.18074304 -0.2597624 -0.31170857 -0.32239833
0000e0 49 95 8a bd 30 34 af bd 79 14 98 be 89 77 b8 be
       -0.06766755 -0.08554876 -0.2970312 -0.36028698
0000f0 d3 62 23 bd fd a9 a4 bd b7 16 54 be 23 82 5a be
       -0.039889168 -0.08040235 -0.2071179 -0.21338706

feature_extract.4.running_mean f4 [64]
000000 8f b3 ce 40 db 53 3c c0 79 c6 9b c0 3e 9a 26 c0
       6.459419 -2.9426181 -4.8679776 -2.6031642
000010 1c 5a 70 c0 fd cc 51 c0 3d 6c 04 bf 1b 6d ac bf
       -3.7554998 -3.2781365 -0.5172766 -1.3470796
000020 47 bb 83 c0 2d de f7 bf c4 d8 a5 bf 84 bf 2c c0
       -4.116611 -1.9364678 -1.2956777 -2.6991892
000030 92 ab 4e bf 7e 34 8d bf 49 79 53 c0 16 03 e9 3e
       -0.80730546 -1.1031644 -3.3042777 0.45510167
000040 c8 3d 2e c0 04 be e5 bf 1f 25 05 3f 14 ad fc bf
       -2.7225208 -1.7948613 0.5200977 -1.9740319
000050 21 a7 11 c0 58 d4 17 40 68 6e 72 c0 63 f2 b7 3f
       -2.2758257 2.3723354 -3.7879887 1.4370846
000060 2c 37 1a c1 9d f4 48 c0 32 38 c5 3f 59 24 51 c0
       -9.63847 -3.13993 1.5407774 -3.2678435
000070 53 1f 7e c0 09 c8 26 bf 4f 4f 94 bf 8a ed b0 bf
       -3.9706619 -0.6514898 -1.1586703 -1.3822491
000080 3a 07 4e c0 76 78 96 bf 67 9a 88 c0 3d 84 e5 c0
       -3.219191 -1.1755512 -4.268848 -7.1723924
000090 7b 5c 8b c0 9a cf 1d c0 f1 58 d4 bf 18 a4 2d c0
       -4.355039 -2.465796 -1.6589643 -2.7131405
0000a0 e2 75 2c c0 9a c2 6c bf 82 84 84 40 9a 90 43 c0
       -2.694695 -0.9248444 4.1411753 -3.0557008
0000b0 6d 54 02 c0 4b fa 75 c0 2b 06 73 bf a8 4f 82 c0
       -2.036403 -3.8434017 -0.94931287 -4.0722237
0000c0 5d 0b 45 c0 11 68 f6 bf e2 a8 a1 c0 8e 6e e5 c0
       -3.0788186 -1.9250509 -5.0518656 -7.1697454
0000d0 71 d5 dc be f1 d2 05 be ba 35 23 c0 67 6d 40 c0
       -0.43131593 -0.13068749 -2.5501542 -3.0066774
0000e0 cb 2b 2b bf 5c 12 c7 bf 4a 6e d8 3e ed 2b 1e c0
       -0.668637 -1.5552478 0.42271644 -2.471431
0000f0 c5 fb 28 41 c8 0a 7c c0 d3 7d e3 3e fc 71 9b 40
       10.561467 -3.938158 0.44431934 4.857664

feature_extract.4.running_var f4 [64]
000000 22 6b 74 42 2f 9a 8c 42 1e c1 99 42 d3 8f 93 42
       61.10462 70.30114 76.87718 73.78091
000010 e5 b2 6c 42 be 31 79 42 04 9e 30 42 87 49 86 42
       59.1747 62.298576 44.154312 67.14361
000020 66 d9 39 42 1a af 1a 42 6a 22 8a 42 29 dd 89 42
       46.462303 38.670998 69.067215 68.93195
000030 33 f2 7b 42 d3 a6 61 42 b1 19 68 42 a4 ed 7a 42
       62.986523 56.412914 58.02509 62.73207
000040 32 9d 8f 42 f5 ba 95 42 6d de 37 42 cd b8 43 42
       71.80702 74.86515 45.967213 48.93047
000050 a3 1b 43 42 aa d6 20 42 28 a9 8a 42 bb 89 6a 42
       48.77699 40.209633 69.33038 58.634502
000060 54 15 b6 42 46 ea 6f 42 72 de a3 42 3f 77 7e 42
       91.04166 59.978783 81.93446 63.61645
000070 ac c1 9f 42 e7 54 13 42 05 da 3d 42 3e f7 15 42
       79.878265 36.832912 47.46291 37.491447
000080 27 74 a0 42 f1 fb 28 42 57 d9 a3 42 ef ae c6 42
       80.22686 42.246037 81.92449 99.34167
000090 86 6e 98 42 f2 39 61 42 6d c1 4d 42 cd 64 90 42
       76.215866 56.306587 51.438892 72.19688
0000a0 63 6f 63 42 1f f1 3d 42 76 cb 5d 42 4b e5 74 42
       56.858776 47.48547 55.448692 61.22392
0000b0 1a 0c 5d 42 72 f1 88 42 35 76 32 42 ea 9a 7c 42
       55.261818 68.47157 44.615437 63.151283
0000c0 39 6f 34 42 2b 3d 90 42 31 d7 8d 42 3a c1 b1 42
       45.108616 72.11947 70.920296 88.877396
0000d0 0d 89 c3 42 f9 13 32 42 6c 6b 45 42 2e 7b 93 42
       97.76768 44.519505 49.354904 73.740585
0000e0 9d ca 58 42 c2 08 44 42 20 42 1d 42 20 51 4e 42
       54.197865 49.008553 39.314575 51.579224
0000f0 89 a8 b4 42 28 c2 88 42 7c e2 5c 42 95 bf 46 42
       90.32917 68.37921 55.221176 49.68709

feature_extract.6.weight f4 [32, 64, 3, 3]
000000 10 af c8 bd a1 8f 84 3d b5 35 03 3e 82 c0 05 be
       -0.097990155 0.064727075 0.12813456 -0.13061717
000010 7d 85 74 bc 15 53 95 3d 53 66 c8 bd 44 7a 29 be
       -0.014924404 0.07291237 -0.09785142 -0.16550547
000020 7d 83 63 bd 95 25 0c 3d ec 80 ed 3a ab 0a 98 bd
       -0.05554532 0.03421553 0.0018120087 -0.0742391
000030 b8 b3 27 3e 1b 39 ea 3d 37 1a 60 3c f5 67 78 bd
       0.16377151 0.11436673 0.013678125 -0.060646016
000040 dc 57 fc bc 49 15 12 bb be 1b 30 3c 26 6b 96 bb
       -0.030803613 -0.002229052 0.010748802 -0.00459041
000050 d6 b6 b1 3c fd 9b cd 3d bb 04 f0 bd 2c 29 c8 bd
       0.021693628 0.10039518 -0.11719652 -0.09773478
000060 c5 b1 c4 bd 0f 52 c4 bc 0a 9f e1 bc 45 2c 24 be
       -0.09604219 -0.02396491 -0.027541656 -0.16032512
000070 6a 60 8b bd 29 89 f6 bb 9c 1f 82 3d 85 69 d1 bd
       -0.06805499 -0.007523675 0.06353685 -0.102252044
000080 bd 17 e2 3c b4 e8 78 3e 15 9a 80 3c df ce 2e bd
       0.02759921 0.24307519 0.015698472 -0.042677756
000090 60 96 e0 3c 07 29 ff 3c a0 14 de bd e5 e7 38 3c
       0.027415454 0.031147493 -0.10843778 0.011285757
0000a0 e9 41 40 3e 41 58 d9 3c e3 a0 69 bc c4 e4 84 bd
       0.18775143 0.02653134 -0.01425955 -0.06488946
0000b0 d9 86 e8 bc 89 4a 53 3e 6e 67 7f bd 8c 38 0f bd
       -0.028384613 0.20633902 -0.062354498 -0.034966037
0000c0 66 1d 1c 3e 36 fd 65 3d a2 72 a0 bd 4a d6 6f 3d
       0.1524559 0.056149684 -0.078343645 0.05855397
0000d0 75 23 a4 bb c0 eb a4 3c 01 39 15 3d a4 ec 1d be
       -0.0050091096 0.020131946 0.036431316 -0.15422302
0000e0 2e a2 00 be 85 48 6a 3d 82 da 8f bd c0 24 98 bd
       -0.12561867 0.057198066 -0.07024099 -0.074288845
0000f0 91 3d b7 3d a7 1e 9f bd 52 4c 9a bc 2c a4 7f 3e
       0.0894729 -0.07769518 -0.01883522 0.2496497
000100 f9 aa 55 bc be ed b5 bd bc 99 ea 3e 8d 01 19 3e
       -0.013041251 -0.08883236 0.45820415 0.14941998
000110 e0 a9 17 be 6e 54 37 3e 74 0b cc 3d 8a 26 bf bc
       -0.14810896 0.17903301 0.09963122 -0.023333807
000120 0f a6 e9 3d ee 95 38 3d ab 35 8e bd cc 9f 48 bd
       0.11408626 0.04506486 -0.0694383 -0.04898052
000130 0f 1a fb bc 15 42 4c 3d d7 ac 9b bd bb 5d f4 bd
       -0.030652074 0.04986771 -0.07601326 -0.1193194
000140 f2 c1 2b bd cc 89 45 be 1f a4 24 bd 90 76 31 bd
       -0.041933008 -0.19290847 -0.04019558 -0.04332596
000150 0c bd c3 bd 68 e6 e5 bd ab 31 1b bd c3 8f 0e 3d
       -0.09557542 -0.11225587 -0.037889164 0.03480507
000160 bf 3e 28 bd c8 49 9b bc 0d 7d 14 3d 18 f9 12 be
       -0.041075464 -0.01895608 0.03625207 -0.14352834
000170 2b be 90 bd 5d 1b a1 3e 31 ac 79 bc 52 34 34 bd
       -0.07067522 0.3146619 -0.015238808 -0.04399521
000180 04 ea 3e 3e 8a 2a f3 3d bc 8b 99 bc 94 8b ce 3d
       0.18643957 0.11873348 -0.018743388 0.10085216
000190 11 c4 78 3d 63 15 d0 3c 9a 7b 3a 3e fe 93 2f 3e
       0.06073386 0.025400823 0.18211213 0.17146298
0001a0 78 ca 02 3c ef 98 24 3e ac ee 2c 3d dd 88 be bd
       0.007982843 0.16073965 0.042219803 -0.09303448
0001b0 fe 4e 01 be 9a b3 2d be 3c 07 09 bd ed 55 29 3c
       -0.1262779 -0.16963044 -0.033454165 0.010335428
0001c0 63 3c 0a be 21 ec 4f 3d eb 6d 15 3e a7 e6 3f bd
       -0.13499598 0.0507623 0.14592712 -0.046850827
0001d0 81 42 a3 3d f0 4b 9c 3e 8a 9b 26 be 48 dd 01 be
       0.07971669 0.30526686 -0.16270271 -0.12682068
0001e0 6a e3 d2 3e d7 00 9d 3e 9c 50 36 be 1e ef 2a 3d
       0.41189128 0.30664703 -0.17804188 0.041731946
0001f0 e6 5b 93 3e 50 75 7a 3d 61 32 7f 3e 7d 89 af 3d
       0.2878105 0.061147034 0.24921562 0.08571146
000200 87 8f ed 3d 85 f9 4c bd 1f 9b 6f bc e7 77 53 3e
       0.11599641 -0.050042648 -0.014624386 0.20651208
000210 3f b5 82 bc fb 05 09 bd f0 c2 06 be c8 78 2e be
       -0.015955565 -0.03345297 -0.131603 -0.17038262
000220 04 c0 07 bd b3 3f 68 bd d3 20 40 bd a3 8d 8e bd
       -0.033142105 -0.056701373 -0.046906304 -0.06960609
000230 82 71 70 bc 26 b1 db 3d 75 14 1e 3d 26 09 56 bd
       -0.0146755 0.10727148 0.038593728 -0.05225482
000240 7a b1 70 be e1 ab 18 be 86 93 47 3d b2 ad 8b 3c
       -0.23505202 -0.14909317 0.048724674 0.017050598
000250 b5 60 af bd bb 45 db 3d 75 ae df bc 68 ba 0c 3b
       -0.08563367 0.107066594 -0.027304867 0.0021473411
000260 2b 88 9f 3c 1f 05 64 bd d4 76 a8 bd 7c ad 10 3d
       0.01947411 -0.055668946 -0.0822579 0.035321698
000270 c8 2d 62 3d eb 3a 0f bc 0f b6 0a 3d e7 9a ac 3d
       0.05521944 -0.0087420745 0.03386503 0.08427983
000280 9b 8c 88 3d 89 b8 03 bc e0 66 48 3e 37 19 bb 3d
       0.06667443 -0.008039602 0.19570494 0.09135669
000290 f5 1d b9 3d 86 5c b9 3b 50 ef 2e bc 48 90 c8 bd
       0.09038917 0.0056567816 -0.010677174 -0.097931445
0002a0 95 58 82 3d 28 29 01 be 8b fe 96 bd 84 15 83 3d
       0.06364552 -0.12613356 -0.07372769 0.06400588
0002b0 55 c4 00 3e 94 ad d0 3d f2 f4 45 3d 8a bb 09 bd
       0.12574895 0.101893574 0.0483293 -0.033626117
0002c0 06 fa 97 3d ed 50 38 3d 6a 5c f2 bc a2 75 82 bc
       0.07420735 0.04499905 -0.029585082 -0.015925232
0002d0 ca 1d 2a be e9 12 45 be b2 a0 6f bd ba b7 28 bd
       -0.16612926 -0.19245495 -0.05850286 -0.04119084
0002e0 15 99 a6 bd fc cb c7 3b c1 e2 6a bd 04 47 31 3a
       -0.08134667 0.006097315 -0.057345156 0.00067625963
0002f0 4f aa 6e 3d 11 41 9e 3e 18 5a 56 3e 9c f6 83 3d
       0.058267888 0.30909017 0.20932806 0.064435214
000300 80 4a 22 3e 43 47 a6 3e b8 2f b4 3d 2c ab 1d 3c
       0.15848732 0.32476243 0.08798164 0.00962333
000310 af f2 7e 3d f2 b1 4e bd f1 b1 b3 3d 72 82 f4 3d
       0.06224316 -0.05046267 0.08774174 0.11938943
000320 c8 dc b0 3d 4b 27 a7 bd fb 0f ed 3d 44 05 41 3e
       0.08635861 -0.081617914 0.11575314 0.18849665
000330 2b f8 64 bd c9 ed 38 bd 9a 4d 80 bd 8d bf c5 bd
       -0.055900734 -0.045148645 -0.06264801 -0.09655676
000340 1c 07 a7 bd 23 93 9c 3d 06 bb b2 3d 8a b8 c5 bd
       -0.08155653 0.076452516 0.08727078 -0.09654339
000350 c6 50 00 be 9d 4c 07 3e d2 b2 89 bb fd b6 77 bd
       -0.12530813 0.1321282 -0.0042022252 -0.060477246
000360 ad 58 b6 3d 1f 77 14 bb e0 53 00 bd 72 16 da 3d
       0.08903632 -0.002265401 -0.03132999 0.10648812
000370 c4 62 1f 3e 2c f4 06 3d 51 79 4e 3d 56 b1 0d 3e
       0.1556502 0.032947704 0.050408665 0.1383718
000380 e2 c8 f7 3d 6e ea 5a bb 46 b0 b1 bc 4f 9c e0 3c
       0.12098862 -0.003340389 -0.021690499 0.027418284
000390 3d 80 59 3c 97 9a d0 bc 59 40 e7 3b 48 e4 91 3c
       0.013275203 -0.02546434 0.0070572314 0.017809048
0003a0 18 8f e5 bb ee af 96 bd 2b 73 08 be 09 2c 0c bd
       -0.0070055835 -0.07357775 -0.13325183 -0.034221683
0003b0 a2 66 f2 3d 3d 6a 42 bd aa 18 d9 bc f0 5a e4 3a
       0.11835982 -0.047464598 -0.026501019 0.0017422121
0003c0 3d 10 82 3d 44 fc 7f 3c 10 ce 20 bd a9 bd a1 be
       0.063507535 0.01562411 -0.039259017 -0.31590012
0003d0 79 3b d8 3d 2c b8 76 3d 16 ea 05 bc 02 98 f6 bc
       0.105582185 0.060234234 -0.008173486 -0.03010178
0003e0 16 7b c1 3d d0 66 67 3d a8 45 68 bc f6 9f 61 3c
       0.09447305 0.056494534 -0.014176764 0.013771048
0003f0 93 ad 44 3b 10 9d 95 3d 44 90 d6 3d 2c 3e ac bc
       0.0030010685 0.07305348 0.10476735 -0.02102574

feature_extract.6.bias f4 [32]
000000 1f ed 09 3b e4 ae 99 bb 4e 21 d2 bb c9 01 cd 3c
       0.0021045876 -0.004690038 -0.0064126616 0.025025265
000010 cc 08 1a bd 83 a5 b3 3c 5b e5 74 3c 6d bc 44 bc
       -0.037606046 0.021929508 0.014947261 -0.012007815
000020 24 d4 07 3c 7a a6 a7 bb 35 cb c2 3c 95 36 f0 bb
       0.008290324 -0.005116281 0.023778537 -0.0073307254
000030 15 2f 1f 3b b4 bc 39 bd 80 e1 1d 3c 63 7c e8 3c
       0.0024289538 -0.045345977 0.009636283 0.028379625
000040 d2 7b 77 bc ae ff 32 3d e9 5f 14 bc e6 d2 ee 3c
       -0.015105205 0.043700866 -0.00905607 0.029153299
000050 06 2a 27 bd 6d 13 41 3c 84 bc 81 3c 82 9c 75 3c
       -0.04081156 0.011784417 0.015836962 0.014990928
000060 3a fb ee bc 5b 1b de 3c cb b6 63 bc e2 40 73 bb
       -0.029172529 0.027112653 -0.013898562 -0.003711753
000070 9a 7b 05 bd 55 81 0c 3b 71 12 ea 3c 60 e5 14 bc
       -0.03258858 0.0021439393 0.028573247 -0.00908789

feature_extract.7.weight f4 [32]
000000 ae 09 7e 3f 9e da 49 3f f1 5a 4f 3f 77 8c 68 3f
       0.9923352 0.7884921 0.8099814 0.9083933
000010 2e 8b 45 3f 5e e0 45 3f 39 a2 43 3f 36 32 37 3f
       0.77165496 0.7729548 0.7641941 0.7156099
000020 17 5f 77 3f 3a b4 36 3f 89 50 3e 3f 5f 61 59 3f
       0.9662947 0.71368754 0.74341637 0.849142
000030 20 b2 44 3f 86 b5 4a 3f 7c bd 62 3f 2d 0f 5a 3f
       0.768343 0.7918323 0.8857038 0.85179406
000040 46 d2 54 3f 60 72 49 3f 44 05 5d 3f 68 65 67 3f
       0.8313335 0.7869015 0.8633616 0.9038911
000050 11 48 52 3f 77 fd 4b 3f 3a 90 5d 3f 03 7e 80 3f
       0.82141215 0.7968363 0.865482 1.0038456
000060 58 79 4a 3f 74 13 4e 3f 70 6f 39 3f 28 dc 50 3f
       0.79091406 0.80498433 0.72435665 0.8158593
000070 30 66 71 3f f6 00 4e 3f a1 a9 61 3f 79 5c 58 3f
       0.9429655 0.80470216 0.8814946 0.845161

feature_extract.7.bias f4 [32]
000000 2d c4 ea be 2e c9 8f be 31 34 89 be fe 21 a1 be
       -0.45852795 -0.28083175 -0.2679763 -0.31471246
000010 e4 6d ab be 34 6b d1 be ac c5 97 be 83 81 4d be
       -0.33482277 -0.40902102 -0.29643 -0.20068936
000020 86 68 bb be 43 dc 99 be 28 b4 b1 be b4 c2 bd be
       -0.36603183 -0.3005086 -0.3470776 -0.3706261
000030 f1 17 aa be dd 2a a1 be 68 c4 b7 be 64 21 e9 be
       -0.3322139 -0.31478015 -0.35892034 -0.45533288
000040 e7 fe 9b be f2 20 d6 be 14 00 9b be ac 5a 05 bf
       -0.30467913 -0.4182201 -0.30273497 -0.5209148
000050 e0 69 a0 be 6b a5 86 be c3 bd cb be af ed e8 be
       -0.31330776 -0.2629808 -0.39793214 -0.45493838
000060 02 86 c2 be 05 06 b4 be a9 0e a7 be 96 6d 9d be
       -0.37992865 -0.35160843 -0.32628372 -0.3074767
000070 e7 37 00 bf 63 5c 9d be 00 30 bc be ee 7d de be
       -0.500853 -0.30734548 -0.3675537 -0.43455452

feature_extract.7.running_mean f4 [32]
000000 e3 69 49 3f 49 64 92 bf 47 2b 5b 3f 5e 21 a0 c0
       0.78677195 -1.1436855 0.8561291 -5.004073
000010 5a 27 94 c0 a0 81 92 3f 09 b4 78 3f 80 53 c9 c0
       -4.6298037 1.1445808 0.9714971 -6.291443
000020 1a c0 dd 3f 44 66 8c bf ca a4 f9 bf 06 27 97 40
       1.732425 -1.0968709 -1.9503415 4.7235136
000030 6c 1a b4 3f 0f 34 43 3e 69 30 16 3e f1 74 c2 3c
       1.4070563 0.19062828 0.14666905 0.023737403
000040 3d df b1 c0 a4 4d 11 c0 90 33 7b 40 f8 56 24 3f
       -5.558501 -2.2703638 3.9250221 0.64195204
000050 ae 98 0f c1 7a 13 64 3f fa 2b e3 3f b7 2f 94 c0
       -8.974775 0.8909222 1.7747796 -4.6308246
000060 bf 1f c7 bf bc 11 85 bf e0 25 e2 c0 ae b8 41 40
       -1.5556563 -1.0396037 -7.0671234 3.026897
000070 c1 8f 28 40 01 f0 cc bf fd 4b 2a be 10 55 96 3f
       2.633774 -1.6010743 -0.1663055 1.1744709

feature_extract.7.running_var f4 [32]
000000 bd 9b 06 42 4a da 29 42 10 f5 0a 42 41 ec d7 41
       33.65209 42.463173 34.73932 26.990358
000010 cc 79 02 42 3a 3a dc 41 af d2 1e 42 18 2b 1d 42
       32.618942 27.52843 39.705746 39.292084
000020 89 9d f1 41 c0 98 03 42 43 6e f8 41 69 88 fc 41
       30.201921 32.89917 31.053839 31.566607
000030 93 e0 f0 41 49 56 e5 41 2a 66 0d 42 8f c4 de 41
       30.109655 28.667131 35.34977 27.845976
000040 d8 16 1a 42 54 52 05 42 1c e5 1d 42 ed 3c c8 41
       38.52231 33.3304 39.47374 25.029749
000050 7b 25 05 42 80 0d f7 41 70 bd 00 42 f9 62 15 42
       33.286602 30.881592 32.184998 37.346653
000060 40 f2 0a 42 b1 70 e8 41 b3 7d d2 41 76 43 1c 42
       34.736572 29.055025 26.311377 39.06588
000070 9a 22 dc 41 15 86 dc 41 cd 5e 15 42 c7 fb 04 42
       27.516895 27.56547 37.34258 33.245876

classifier.0.weight f4 [256, 512]
000000 25 da c5 3d 4f 05 04 bd 07 b3 07 bc 9d 13 ae bc
       0.096607484 -0.032231625 -0.00828243 -0.021249587
000010 7d 16 98 3d 29 3d 49 bd e3 07 71 bc ab 61 38 3e
       0.07426164 -0.049130592 -0.014711353 0.18006007
000020 1c 20 0a 3d 7d 51 40 bd c4 00 a0 3d 03 89 30 3e
       0.033722028 -0.046952713 0.07812646 0.17239766
000030 58 56 b6 bd 50 27 bf 3c 8d 0b ad bd a8 70 0d 3d
       -0.089031875 0.023334175 -0.08449469 0.034531265
000040 0d 6c d9 bd 23 b2 53 be 04 9e a3 bd 69 92 36 be
       -0.10616312 -0.20673423 -0.079891235 -0.17829289
000050 1f 62 0c be de 04 60 bd f2 97 1b bc 19 70 12 be
       -0.13709305 -0.05469214 -0.009496676 -0.14300574
000060 5d f8 96 bd 4d db 95 bc 33 b8 26 be fe ae 9d bd
       -0.0737159 -0.018293047 -0.16281204 -0.07699393
000070 9b b1 84 bd ff 1f 55 bc 97 e5 c8 bd 93 3a a6 bd
       -0.06479188 -0.013008117 -0.09809416 -0.08116641
000080 11 b1 f1 bd 00 fb 1c bd e6 0e a0 3d fa 98 ec bb
       -0.11801351 -0.03832531 0.07815342 -0.0072203847
000090 73 48 13 be 8f d4 ee bd 1f 90 21 be 3f dc 0b be
       -0.14383106 -0.11661636 -0.15777634 -0.13658236
0000a0 05 cf 2b be d8 4e ab bd 92 c0 8a bd 60 5d 03 be
       -0.1677819 -0.083646476 -0.06775011 -0.12828588
0000b0 e9 7b 15 be 7b 44 47 be 84 ab a8 bd 02 bb de bc
       -0.14598049 -0.19459717 -0.08235839 -0.027188782
0000c0 d9 16 f0 3c 00 a1 30 bd 31 66 e6 bc 5f c6 93 3c
       0.02930777 -0.04312229 -0.0281249 0.018038927
0000d0 8c f7 e0 3b 48 27 44 bd 61 95 15 bd e1 8a 02 be
       0.0068654474 -0.047889024 -0.036519412 -0.1274829
0000e0 0c 5d b8 bd c1 37 6f bd 79 16 54 bd 4d 1d 77 be
       -0.09002122 -0.05840278 -0.051779244 -0.24132271
0000f0 03 49 b6 3d ca aa 4c 3e 85 13 5f bd a8 0f 19 be
       0.08900645 0.19987026 -0.054461975 -0.14947379
000100 8a f0 ca 3d 9e 97 d3 3d fe 63 31 3e 0d cc 62 3e
       0.099091604 0.10331653 0.173233 0.22148152
000110 22 c0 52 3d 2a 36 65 3d 91 94 1b 3e 52 3f 71 3e
       0.051452763 0.055959858 0.15193392 0.23559311
000120 f6 e6 8e ba 3a ff de 3d e3 f0 06 3e 54 10 52 3e
       -0.0010902572 0.10888524 0.13177828 0.20514041
000130 42 7f cb 3d 09 d5 20 3e 17 43 21 3e e5 37 3a 3d
       0.09936382 0.15706266 0.15748249 0.04546346
000140 d4 ed 66 bd bc 04 bd 3d 6e be 6f bd 96 d1 07 3d
       -0.056379154 0.09229419 -0.058531217 0.03315886
000150 31 54 8d 3c f4 ed 73 bd d1 25 2b bd 97 23 bd bc
       0.01725206 -0.0595531 -0.04178411 -0.02308826
000160 a6 9a 4c be e9 60 60 be 75 89 2a be 49 dc a7 3d
       -0.19980869 -0.21911968 -0.16653998 0.08196313
000170 bf 67 81 be ff 47 82 bd 37 6e d2 3c ab 3f 9d bb
       -0.25274464 -0.063613884 0.02568732 -0.0047988496
000180 fc 55 2f 3b cc 83 21 3e 17 83 10 3e 4a 01 0b 3d
       0.0026754132 0.15772933 0.14112507 0.033936776
000190 8f 76 a7 bd 91 a5 51 3d e9 25 ae 3d 90 6b d4 3b
       -0.0817691 0.051183287 0.085033245 0.006482549
0001a0 7b da a6 3d 5e 11 14 3e bd f5 08 3c bc 66 a1 bd
       0.081471406 0.1445975 0.00835937 -0.07880923
0001b0 f9 65 7d bd 45 0d cf bd f5 6e 1c 3d d0 88 09 3d
       -0.061864827 -0.10109953 0.038191754 0.03357774
0001c0 a1 51 41 bd d2 11 0a be 4c 8d 79 bd e6 5e c0 3d
       -0.047196988 -0.1348336 -0.060925767 0.093931004
0001d0 84 28 ab 3c b7 4c a1 bd 6f f6 c5 bd fb f1 8c 3d
       0.020893343 -0.0787596 -0.09666144 0.068820916
0001e0 f0 51 9f bb f0 fd ca bd ef 8e 9f 3d e4 12 71 bd
       -0.0048620626 -0.09911716 0.07790934 -0.058855906
0001f0 4b f1 69 3c 6d 5e 39 bd e3 df cd 3c 7c 63 3d bd
       0.01427872 -0.045256067 0.025131172 -0.046237454
000200 f4 96 15 bd d0 df 48 bd 3c ef 04 3d 97 37 da 3d
       -0.036520913 -0.04904157 0.032454714 0.10655134
000210 f3 87 de 3b 83 70 86 bd da 63 ac bd 4a f6 89 3d
       0.0067911088 -0.06564429 -0.08417483 0.06736429
000220 92 e7 11 be fe 8c d7 bc dc c2 0a bd 9c 41 ef 3c
       -0.14248493 -0.026312348 -0.03387724 0.02920609
000230 e5 71 9b bd b3 82 83 bd 56 f9 e4 bd d0 f6 1a be
       -0.07590083 -0.06421413 -0.111803696 -0.15133214
000240 c8 96 b3 3d a6 bd 2a 3e 20 58 40 3e df 8c ba 3d
       0.087689936 0.16673908 0.18783617 0.091089
000250 71 b9 e5 bd af 8e 2d bd 14 f8 8c 3d eb ff 72 3d
       -0.11217011 -0.0423724 0.06883255 0.059326094
000260 df a9 2e bc d0 48 b1 3d 15 51 14 3d bb 02 4c 3d
       -0.010660618 0.08656466 0.03621014 0.04980729
000270 0e 17 3f be e5 cd 0a be 55 22 d2 3c d5 3d 9f 3d
       -0.18661138 -0.13555105 0.025651136 0.077754654
000280 d8 30 bf 3c d1 a4 90 bd 53 ac 06 3e 9f cc 01 3e
       0.02333872 -0.07062686 0.13151674 0.12675713
000290 8a e5 32 be ce 91 4b bd c0 6c 06 3e 02 8d 06 3d
       -0.17470375 -0.049699597 0.13127422 0.03284932
0002a0 01 a1 aa bd 97 68 c4 3b 17 9f 92 3d 76 02 b5 bd
       -0.0833149 0.0059939134 0.0715925 -0.0883836
0002b0 d8 02 1e 3d d2 8d ba 3d 57 55 f4 3d 64 ec a7 bd
       0.03857693 0.09109081 0.1193034 -0.08199385
0002c0 3b 50 8e 3d f6 32 b2 bd 13 30 48 be e2 ae cc bd
       0.069488965 -0.08701126 -0.19549589 -0.09994294
0002d0 8c e2 9f 3d 6c 8d d0 bd 40 d6 bc bc 67 59 66 bc
       0.07806882 -0.10183224 -0.023051381 -0.014059401
0002e0 04 8c 7a bd 1c 36 dd bd 31 aa 9d 3c 6b 3a 34 bd
       -0.061168686 -0.10801336 0.019246193 -0.044001024
0002f0 83 63 2d bd f5 35 a6 bd c7 aa 7a bd 31 e9 e3 3c
       -0.04233123 -0.0811576 -0.061198022 0.027821155
000300 82 b7 49 3c a1 21 a5 bd 6b 5e a6 3c 37 d1 96 bd
       0.012311818 -0.08063055 0.020308694 -0.07364123
000310 73 85 0b bd 61 41 15 be 04 8e 2b bd e5 94 e1 bd
       -0.034062814 -0.14575721 -0.041883484 -0.110147275
000320 a8 32 84 be 85 4d 44 bd f9 d3 40 bd 29 25 f4 bd
       -0.25819898 -0.04792549 -0.047077153 -0.1192115
000330 c6 49 08 be e2 ff fb bd 8b 5c 97 bd 9d 6c 0e bd
       -0.13309392 -0.12304665 -0.07390698 -0.03477155
000340 eb ae 6a bd bf f5 f4 3d 0e 6d 78 3a e0 3a d3 3b
       -0.05729572 0.11960935 0.00094766996 0.0064462274
000350 a2 a2 b1 bd 5f ec a2 bc 07 07 3b be 23 a6 8e bd
       -0.08673598 -0.019888101 -0.182644 -0.06965282
000360 32 7b 2c be 73 62 8f bd d5 f5 b5 bd 07 cc 2b be
       -0.1684387 -0.070011996 -0.08884779 -0.16777049
000370 50 29 51 be 0a 70 d9 bd f0 3e 0e bd 36 b3 db bc
       -0.20425916 -0.10617073 -0.03472799 -0.026818853
000380 57 53 16 be cf 3a 78 3e 76 5b 4b 3d e8 be 8a bb
       -0.14680229 0.24241184 0.04964777 -0.0042341836
000390 f3 04 5e be 01 c9 25 3e 3b df 8f 3d 27 6b de bd
       -0.21681575 0.16189958 0.07025 -0.108602814
0003a0 6e f1 c2 3d ce 23 3b 3e 57 70 96 bb 5e 09 95 3d
       0.09518705 0.18275377 -0.0045910287 0.07277177
0003b0 5a 0d 7d bd 46 14 c4 bd 60 02 bc 3d 02 14 76 3d
       -0.06178031 -0.09574179 0.091801405 0.060077675
0003c0 7e 39 52 3d ad de b0 3c b7 b8 3a 3e 8f 12 35 3e
       0.05132436 0.021590555 0.18234526 0.17682861
0003d0 98 87 8b bd cd 84 10 3d ce 77 b2 3d c0 c2 e6 bc
       -0.06812972 0.0352829 0.08714257 -0.028169036
0003e0 c9 57 f5 3d b2 b3 ea 3d eb 17 c7 3d bb 78 1e 3c
       0.11979634 0.114600554 0.09721359 0.009672339
0003f0 64 15 df bd 26 87 37 be 18 6b 8e bd 14 89 34 bb
       -0.10892752 -0.17922649 -0.0695402 -0.0027547525
